backend/FastApi/sign_language_data/B/B_10_aug1.npy (npy, 30368 bytes, 1 tensors)

array f8 [30, 126]
0	0x3fa318ec866c8998	0.03729952946584375
1	0x3f94cacbea861786	0.02030485743446022
2	0xbf81a333b22a2b79	-0.008612064242034855
3	0xbfcebda4bcc2e33e	-0.24016246048793194
4	0xbfbec4fd25c6565f	-0.12019331142649879
5	0xbfc27684debf53a6	-0.14424191356979782
6	0xbfda473cb55f20d8	-0.4105979701239568
7	0xbfded0db66863b0d	-0.4814976216520542
8	0xbfc7357a8a919a1d	-0.18131953970005635
9	0xbfd32c1683c8c184	-0.2995659148173433
10	0xbfe859251f4276a6	-0.7608819590129385
11	0xbfc9dde73d5d7ef5	-0.20208445068691785
12	0xbfb763a0f2d3af18	-0.09136396339789277
13	0xbfe574547a53495f	-0.6704504384199871
14	0xbfd155504d5eff4e	-0.2708321338250145
15	0xbfd29ef92568cd1c	-0.2909529557538961
16	0xbff0d7d2d8558b3c	-1.0526913118889771
17	0xbfac62e932819ab8	-0.05544213048488217
18	0xbfd0ef6deb68f659	-0.2646136092115277
19	0xbff6a644428eb5d5	-1.4155924415493832
20	0xbfc2a33727146e7c	-0.14560593994325532
21	0xbfd22f4b0f90b718	-0.2841365482334921
22	0xbffbf901cfd11035	-1.7482927434766797
23	0xbfd093039549cab1	-0.2589730222600038
24	0xbfd29c153fd9369d	-0.29077655062870084
25	0xbffec6b08f07f4a0	-1.923508223261969
26	0xbfd4d90ee6558c1d	-0.3257481812817689
27	0xbfc17edb63f72431	-0.1366838682281766
28	0xbff1f54f3117863e	-1.1223899762775456
29	0xbfc4d632a03900a3	-0.16278679679272043
30	0xbfbf7548d6db67f0	-0.12288336988004267
31	0xbff86b94bbd17d1f	-1.5262648903515765
32	0xbfc4dae6a393e1d1	-0.16293032633963248
33	0xbfbbaf8ab0c278df	-0.10814730468198118
34	0xbffd8292dcbef26b	-1.8443783400427047
35	0xbfca51495b0f0ec8	-0.20560566850882922
36	0xbfb7277e39a12da7	-0.09044636637661672
37	0xc00085dd95dd2457	-2.0653640468704384
38	0xbfd2cc71084ee558	-0.2937281209120406
39	0x3faac4be3e7f8895	0.05228228104512415
40	0xbff0073d1df28308	-1.0017672700707312
41	0xbfc40fe8db236340	-0.15673552227124254
42	0x3f9194673e553abf	0.017167676143169382
43	0xbff78214abdcca09	-1.4692579949738749
44	0xbfc7e62252ff0bc6	-0.18671063473274624
45	0x3fa406eab110cadf	0.03911527072377451
46	0xbffbbc58a1a5421a	-1.7334829630164053
47	0xbfd0318a67e32e69	-0.2530237211728719
48	0x3fb285c3ee207997	0.0723535972942727
49	0xbfff72d3568de3a9	-1.9655335789704884
50	0xbfd2ffc1f8c91e75	-0.29686021132918167
51	0x3fc78e5763302df7	0.18403141349004645
52	0xbfec6a1805da7152	-0.8879509081194021
53	0xbfc7fe61a2f18563	-0.18745060402128919
54	0x3fc44b7e2c73528c	0.15855385942872535
55	0xbff40ee41585fea2	-1.2536354866751158
56	0xbfd0102e5cfac09d	-0.25098761634854744
57	0x3fc6b72724f2fc82	0.17746438316496344
58	0xbff7441e80d729e8	-1.4541306526976943
59	0xbfd3460d289e3bf0	-0.3011505982075837
60	0x3fc57e615cd2c764	0.1679193213690794
61	0xbff9b0f54e99fbe2	-1.6057026930209237
62	0xbfd6da87214b381f	-0.3570878815779696
63	0x3f92f57eafb185b7	0.018514613603093113
64	0x3f94c7337a9d4077	0.020291141852169816
65	0xbf7252f66e67ae3d	-0.00447365057196297
66	0x3f812fa3d88bdb0c	0.008391647382706612
67	0x3f97cf388dac9c0d	0.023251422545538292
68	0x3f8cc1a9f1f4a948	0.014041259476091597
69	0x3f737a741dc81ae3	0.0047554527086563795
70	0x3f8aec35024c4bbb	0.013145841724996879
71	0x3f45f18abb2629ee	0.0006696631810865752
72	0x3f95d72326ea5e41	0.02132849621793143
73	0x3f70262a57660438	0.003942647358031563
74	0x3f9e38948400b08b	0.02951271110229973
75	0x3f90751e92a0f6b7	0.01607177514983135
76	0xbf3b781a39f2f164	-0.00041914596836158655
77	0x3f79a9fdc6c251da	0.00626563197524318
78	0x3f93a25012c6490d	0.019173861642749524
79	0x3f9163e3781539e8	0.016982607082633466
80	0xbf6fef36e9054463	-0.0038982460465964304
81	0x3f8111cc0ab2e849	0.008334726406577302
82	0x3f95dc43048b88e6	0.021348044540794663
83	0x3f6d3bb97506224c	0.003568517895647971
84	0x3fa0daa20be537ea	0.03291803736884431
85	0xbf7f7f2b5dc67736	-0.007689637565276011
86	0x3f84ddb7ee0674f3	0.010188519431546505
87	0xbf8280a2ec30951c	-0.009034416993083876
88	0x3f789caf5c0db075	0.006008801458715953
89	0xbf7ddf1021c9f1af	-0.007292807593895763
90	0xbf63423c434c98fa	-0.002350919438316554
91	0xbf83b03f15cd0051	-0.009613507130438988
92	0xbf8e3a450de51f80	-0.014759578215162383
93	0xbf7644be8efe32d6	-0.005436653489493811
94	0x3f8a4ee01f9bf7ba	0.012845755543363303
95	0x3f595423c2612cf7	0.0015459393703334803
96	0x3f9ed08a7c10cd73	0.03009239561306516
97	0x3f834e04778289c3	0.009426150223878054
98	0x3f6444466cb1f1b6	0.002473962352779159
99	0x3f975d88d6ad476c	0.022817743399464005
100	0x3f93940c3b48210d	0.01911944495989908
101	0xbf92edc3cd049f30	-0.018485125912007294
102	0x3f82d61f48cada6e	0.009197468193957916
103	0x3f90fb8b67009fbb	0.016584566270608763
104	0x3f820131627aca9a	0.008791337793217214
105	0x3f844d68dec243c2	0.009913272188244341
106	0x3f74734b1e832eb7	0.004992764887173421
107	0xbf81005dc610dd8a	-0.008301479918471317
108	0x3f8912c03bb0320d	0.012242795774022342
109	0x3f8ac9ddf52809db	0.013080343288497545
110	0x3f69139caf23cf1f	0.0030611095654594768
111	0x3f9cc2e802584037	0.028087258475409462
112	0xbf625082c2128ecf	-0.002235656153588873
113	0x3f4a825168978209	0.0008089921477073002
114	0x3f968da3b782797d	0.02202468688539615
115	0x3f94ea127d09b041	0.02042416465921826
116	0x3f72f89fe09e562e	0.0046316380702556125
117	0xbf6b28f0b6e94345	-0.003315420289517953
118	0x3f85b0c6a09db6da	0.0105910794988761
119	0x3f91b92022c67680	0.017307760355484536
120	0x3f5f3ff1cbeed38b	0.001907335404877505
121	0xbf54a74cd6429d08	-0.0012605905876997298
122	0x3f562935a7ed0d8f	0.0013525985702508047
123	0x3f97ed6167a60704	0.023366472197728264
124	0x3f70587ec31eccb0	0.003990645565795578
125	0xbf58bbfdf261a0a4	-0.0015096645306816115
126	0xbf791edd3f768883	-0.006132950067156642
127	0x3f7d549cff48133a	0.007160771627700064
128	0xbf821765d1a8e3b8	-0.008833690129096058
129	0xbfd1a5f44507ef64	-0.2757540392046762
130	0xbfc0cf27aa8df5c7	-0.13132186725481018
131	0xbfbddbc9d63dac91	-0.11663495522013735
132	0xbfd9fdcf59af31c6	-0.4061163307021868
133	0xbfddd722398a6581	-0.46625571841430974
134	0xbfc321062e207ce0	-0.14944531681337647
135	0xbfd460968ef38d23	-0.31839527092070535
136	0xbfe71ca1ba439c84	-0.7222450864764061
137	0xbfc35b6c720de48a	-0.15122752732330397
138	0xbfbf0865d4ed5a09	-0.12122188995758888
139	0xbfe693070330dbcb	-0.7054476797410357
140	0xbfcfde95dd36079a	-0.248980267537317
141	0xbfd4a50acde2ce7d	-0.3225733767132864
142	0xbfef7458049056a6	-0.9829521264207031
143	0xbf9a7710319e274a	-0.025844815281323798
144	0xbfd175c116537f42	-0.2728121488598739
145	0xbff63152fe6f21ab	-1.3870420397598575
146	0xbfc00bf30a0b8ad2	-0.12536466589434397
147	0xbfd02ce0cebe59ec	-0.25273914518166296
148	0xbff962116be5e1ac	-1.5864423956646574
149	0xbfcbc44e48e71f31	-0.21692827758510583
150	0xbfd1a8436bf00abe	-0.27589498081958286
151	0xbffced9c637acdaf	-1.8080104719091243
152	0xbfd1c2bb0967cdd7	-0.27751041334633214
153	0xbfc394b0dc9e6e43	-0.15297518513112793
154	0xbff125ab35d5d3cb	-1.0716964819850883
155	0xbfb4396e101b1464	-0.07900131123740689
156	0xbfc18c68e8cf6e0a	-0.13709746711434462
157	0xbff690d28b1c5c86	-1.4103570398345098
158	0xbfc1b97c23ac219d	-0.13847305051627937
159	0xbfc24a15ee029b9d	-0.14288591500846062
160	0xbffb135b87279c04	-1.6922259597283764
161	0xbfc94e018aecad4e	-0.1976930549948101
162	0xbfbada3d7c8cdf27	-0.10489258089807817
163	0xbfff6baa523bc11f	-1.9637854778521342
164	0xbfcb07af5782fe61	-0.21117202542335448
165	0xbf76cc89f8067ffb	-0.005566157284562219
166	0xbfeffa38f3b60b1a	-0.9992947349531704
167	0xbfc20aa8a876071f	-0.14095028138768215
168	0x3f9a9d5b426658d8	0.02599089234134841
169	0xbff6d0f503055e89	-1.4260149114615237
170	0xbfc665efb50d77db	-0.17498585072001913
171	0xbf857e0b14fdb81f	-0.010494314745042086
172	0xbff96d255130aef9	-1.5891469165316592
173	0xbfcc6d1053a8b85d	-0.22207836232104486
174	0x3ef5bf80dc1afdb9	2.0740566248232085e-05
175	0xbffd9d704432e029	-1.8509371437085156
176	0xbfd07b4121415782	-0.25752285239774875
177	0x3fc2c46328f180e7	0.14661826609790937
178	0xbfec26c31427f58d	-0.8797316926644939
179	0xbfc913121d6ae938	-0.19589449345023424
180	0x3fc1bfd39e3cee1f	0.13866658426728493
181	0xbff3127b91cacd6c	-1.192012376309175
182	0xbfcb496ee822e324	-0.2131785043218538
183	0x3fc27f2822134909	0.14450551666102054
184	0xbff51e2a6753a1d5	-1.3198646579931979
185	0xbfd17ae05a56c9e3	-0.2731247789589856
186	0x3fbd6099bdc1c1cd	0.11475525744186328
187	0xbff8cb99a2e73a50	-1.5497070659072456
188	0xbfd147416d2349a4	-0.269974094943928
189	0xbf6460bd8895be64	-0.0024875356509069125
190	0xbf886c90251730aa	-0.011925817615427842
191	0x3f82cd3d615f8978	0.009180526289075827
192	0xbf6329114dc4419f	-0.002338918491780542
193	0xbfa4be9f4c167f69	-0.04051683238799237
194	0x3f9740528a53b512	0.02270630807190794
195	0x3f5cef7705ccfbba	0.0017660772638945347
196	0xbfa1f2a8970d1822	-0.03505446285139181
197	0x3f77ab3d89244118	0.005778541921486878
198	0xbf7a1e643a60d742	-0.006376639858037882
199	0xbf997f0708a41de5	-0.024898633863839854
200	0x3f8b00af0ea07f93	0.013184898027304636
201	0x3f66448ce0e2e882	0.0027182342083423303
202	0xbfa49b8a599a5754	-0.04024917930398311
203	0x3f6f5e1102b8620a	0.003829034065131025
204	0xbf7d32f61f037179	-0.0071286787135388325
205	0xbfa4bfd7481e2e2d	-0.04052613025040972
206	0x3f8c4bb9a4e5bde4	0.013816309304018178
207	0x3f539d88768eb254	0.0011972267768484328
208	0xbf98d55568222061	-0.0242513031776358
209	0x3f974cc034f1189d	0.022753718596754003
210	0xbf719645ec7df142	-0.004293702258902523
211	0xbf9d4fe1f07fec1d	-0.028625040344177777
212	0xbf71fc5dfc30a89f	-0.004391066674580695
213	0xbf84f58731b44739	-0.0102339326900026
214	0xbf9b9b527b991c7c	-0.026959694665745534
215	0x3f87841d1deb0f4e	0.011482455707102848
216	0xbf909c593e0ddfda	-0.016221422588813407
217	0xbf6cfa9f25b35f06	-0.0035374744744379764
218	0x3f8406634e363848	0.00977780897553883
219	0xbf8109366e3eb9f3	-0.008318352927600059
220	0xbfa0ac1f1b127baa	-0.03256318288298783
221	0x3f7ce74b3b6c12f8	0.007056516528568528
222	0xbf3539ce80332a42	-0.00032388011477438663
223	0xbf9bde9716128494	-0.02721630165308804
224	0x3f7c20736ebf4d5d	0.006866885098094269
225	0x3f79b67c2fa26963	0.006277546979754997
226	0xbfa043283c81a7c7	-0.03176236857036901
227	0x3f8ca15b89cbc683	0.01397964014310849
228	0xbf926db0b0e6cfac	-0.017996559903351958
229	0xbfa7d1a0faee5f3d	-0.046521216040842785
230	0xbf829479658e1c35	-0.009072254573551411
231	0xbf58758275ec4f6f	-0.0014928602246912744
232	0xbf971728c43576ca	-0.02254928300441498
233	0x3f645af69e197ebb	0.0024847809552709078
234	0xbf837f5ed1c9e65e	-0.009520283486597222
235	0xbf93209d1942ed35	-0.0186790987652163
236	0x3f91f40a70cd75ea	0.017532504210398793
237	0xbf7a455f6becda76	-0.0064138152509288695
238	0xbf9f6173b8575fad	-0.030645187498379012
239	0xbf81c12db0b9ace9	-0.008669239955642687
240	0xbf614cefd17a5909	-0.0021118816328665785
241	0xbf94ab23a9f46476	-0.020184094665726758
242	0x3f6feeac108e524c	0.003897987426578353
243	0xbf73e08a4fc77c90	-0.00485281017287699
244	0xbfa5b565faa0a3b0	-0.04239958462159821
245	0x3f9028cc98d3146b	0.015780636623066984
246	0xbf950366dc788144	-0.0205207893433237
247	0xbf93323430e325e5	-0.018746200069278535
248	0x3f99c368e7e9535f	0.02515949168658282
249	0xbf8e8dbab9699fdb	-0.014918764861434333
250	0xbf8fa154b68c6e43	-0.01544443304151522
251	0x3f819b05ed36bf4c	0.008596464444820782
252	0xbfa92247d0894c68	-0.04908966465577508
253	0x3f9976980a3a0471	0.024866462349113442
254	0x3f868839a6f0ff58	0.011002016455790617
255	0xbfd315a53d50db4c	-0.2981961344516335
