backend/FastApi/sign_language_data/B/B_11_aug1.npy (npy, 30368 bytes, 1 tensors)

array f8 [30, 126]
00000000: 47ee ace9 a581 95bf 3bc5 5b4c 7f0a 92bf
00000010: 09f4 64e9 bf2b 7c3f 51c4 13c8 02fe c9bf
00000020: f4fa 28ad 93d0 cfbf 7afa 227e 9570 bcbf
00000030: afab 29e4 26c1 d3bf 4500 1b58 209b e3bf
00000040: 6023 0fdc 434c c5bf 1bea 9fd9 9026 c4bf
00000050: 9d1f b274 fac3 eabf b01e d835 a5a0 c7bf
00000060: 58f0 0e71 9450 a43f daf4 5959 0b42 e9bf
00000070: ad31 3234 e871 cdbf f4a6 48bb f683 c5bf
00000080: 3dcf ba46 1229 f1bf 2b7f b755 0f71 aabf
00000090: 6f81 b260 e13f c2bf 8f08 437e 6459 f7bf
000000a0: bd86 20c9 4bc0 bfbf febb 5ab5 12c8 b1bf
000000b0: 208c 5286 30c4 fabf f1cb ae6e 17d7 cbbf
000000c0: b186 42f6 4074 b8bf 7341 ac59 e543 febf
000000d0: 0005 77a3 d2e0 cdbf ec5a 39f5 c108 903f
000000e0: 3eda acd0 d8de f0bf 472a b735 b746 b5bf
000000f0: 67d4 31ae 1545 a73f 0711 5654 0df8 f7bf
00000100: 08be 6f67 c0de c1bf 7477 73d5 9cf5 b13f
00000110: 6085 0c0c 66f5 fbbf ebc3 aaae 99b5 c9bf
00000120: 9cbe 9c12 bdc7 bc3f 3be6 557f 7621 00c0
00000130: e6ae dbbd 6833 ccbf d87a 6708 1cd1 c23f
00000140: abe6 46c1 eddf efbf 3234 af24 fa2e c0bf
00000150: 71ce 8895 23b1 c03f 1884 98e8 7e2c f6bf
00000160: c311 2737 d732 c2bf 5664 8bee cef0 c53f
00000170: a0e9 a650 6bb1 fabf f4fb ee75 e4ea c9bf
00000180: 3ae2 6e7a d157 ce3f 2a89 928f 7f06 febf
00000190: 2248 8c84 e7ec cfbf dd81 83b4 2f17 d33f
000001a0: 32f7 cc84 b208 ecbf f0e8 6f54 ee6c c2bf
000001b0: 897e f643 bc41 d33f 5223 f8da 6295 f3bf
000001c0: e630 905d 703d c7bf 33df 8012 83b0 d43f
000001d0: 4929 12ea 7d54 f6bf 694f 524f d053 cdbf
000001e0: eec4 0000 6ef8 d43f 0eb2 14b7 3286 f9bf
000001f0: b12d f93d 64f1 cbbf 2d8f 0975 aca0 5fbf
00000200: 0efe f4a1 7bf1 95bf 7921 4f04 dfa1 a3bf
00000210: 0032 d718 941a 97bf 7bf3 13e4 f374 a9bf
00000220: 8194 0241 a311 6b3f 4e9c ad5c 1e5d 8cbf
00000230: a8f4 8f35 2860 7abf 2585 0128 48f4 93bf
00000240: 99d5 4b13 ce3e 84bf 78d0 8454 a7af 97bf
00000250: cce1 c876 8a22 70bf a20f 1c06 5d0d 90bf
00000260: 7ffd 8baf 06ad 9bbf f2a5 65fc 9714 8fbf
00000270: e9f3 dd01 1c3c 6cbf 91e0 13af ef11 a5bf
00000280: 0d08 384e 3ce1 73bf 68ba 5395 78ad 8dbf
00000290: 9105 1830 4418 a0bf 1466 0e5b 303b 6fbf
000002a0: b9af 6e2d d7ef 9cbf 807f c9aa 7035 9bbf
000002b0: 578e 31e8 ec95 97bf dffb 58b7 c9ab 64bf
000002c0: 43c5 5ef3 c494 85bf ce78 12ac 059b 8fbf
000002d0: 5f43 81dd d952 91bf ada2 fb8b d772 a0bf
000002e0: 234f 734a 5197 95bf 02c2 1227 fc4f 8ebf
000002f0: f5da dfe0 2afd 8bbf 7c70 5012 32f1 94bf
00000300: 1c19 dd77 5543 83bf ec4c 796e 509f 99bf
00000310: 2280 55b5 1800 83bf 2458 9c2c 6117 823f
00000320: f87c 96d2 45ba 8cbf cb7e 25a5 86c6 86bf
00000330: 6fa5 e961 3a9c 85bf dcfe 2541 7cf4 84bf
00000340: eb0d a3db 9af4 91bf 0ba3 b17d 9f9a 8bbf
00000350: 9256 5a1f 2c1a 93bf 9de0 ea99 071d 9bbf
00000360: 5256 43d8 8dd7 71bf 51eb 5fdb 92c3 9dbf
00000370: 0120 6c3c 9884 253f be1f e8b2 259d 99bf
00000380: c4b6 3e2b d73c 91bf e9e9 8f73 366b 99bf
00000390: 40c4 7a51 a44e 83bf d622 bb7e 46c0 98bf
000003a0: 36de 2cb8 e4ee 97bf a7c1 c6d1 ce45 533f
000003b0: 996f cb83 601f a4bf 087a 065c 2b16 94bf
000003c0: c13a fbc2 a99d 8dbf c819 38a9 a5d3 96bf
000003d0: f76f 2ba2 d112 8fbf 31cf 98bf 4b8f 8dbf
000003e0: de15 f9de 5898 9fbf 0741 112b d21a 94bf
000003f0: 4bc8 39f7 4768 a13f febe 339a 2579 6fbf
00000400: 01b8 29a0 52cd 8e3f fbc6 a43d 75ff cabf
00000410: 5843 ee6c b7d2 cbbf 4ca8 c410 c28a 9ebf
00000420: 9caf 430a a97e d2bf 7ac8 f76b cf20 e2bf
00000430: 7f5b a97c a416 bebf 5462 5bbd c793 b7bf
00000440: 9c15 957a 3f37 eabf e885 c18f b746 ccbf
00000450: 5769 297a ca7c a93f e8ec 3549 45c3 e7bf
00000460: 7c00 d638 364b d0bf c5d9 ba0c a0ae c9bf
00000470: c5a0 ddfb 6ce1 f0bf 65d3 bee4 2dd6 b4bf
00000480: 926c 3a66 3364 c5bf 1a05 af0d 9368 f6bf
00000490: 4ca3 11a5 7254 b3bf 52db 5592 5a28 c1bf
000004a0: aecc d5ab 64c0 fabf 6a56 59e4 628b c6bf
000004b0: 86c6 c3eb a70f c5bf 1b76 195e 3ae9 fdbf
000004c0: c508 790d 9a3c cebf dc4a 50e8 a8dd aabf
000004d0: f3d0 a8ef 1663 f1bf 04b6 412d 4a56 a0bf
000004e0: 2bc1 c727 470b a3bf ed6a dd26 9d8e f7bf
000004f0: 6cae be0c f945 b3bf 2764 7852 83e0 97bf
00000500: 203e 4bf8 2494 fbbf 3dcd 9f48 704d c7bf
00000510: 0030 524d c7bd a63f 6c0e 69a5 b6a1 ffbf
00000520: 0622 873f 23c3 cebf 1034 39b6 342c c03f
00000530: 76a2 1427 5be3 efbf a6b2 5aaa 92e1 b0bf
00000540: 148b 6266 2442 c33f 254c 3c73 7447 f6bf
00000550: 058b 045a 3454 bbbf da23 be27 879a c33f
00000560: b99c 4333 b481 fabf a4e4 8445 e448 c9bf
00000570: 3731 f31d ffc6 c43f 1803 367d 2b17 fdbf
00000580: 59d9 2722 7d12 d1bf 5ac1 0d83 b2fe cf3f
00000590: da8a 8a01 5a8f eabf b258 d293 c23e c6bf
000005a0: 78bb a1c2 b3ab cf3f ccb4 20c0 2972 f2bf
000005b0: c58e 3e36 a1e1 c9bf a686 d4cf ef69 d03f
000005c0: ba1d 6ada a1f7 f6bf 36b5 836f f807 cabf
000005d0: 439c 07d3 88bf d33f e117 c327 3216 f9bf
000005e0: 45e2 3d9b 3856 cfbf 8a3f a9fa d52e 7c3f
000005f0: 63ca 29c6 b617 7c3f 1bf3 4c18 6923 693f
00000600: 838b dbf9 83a6 5f3f 86a1 96b4 1341 7bbf
00000610: 5c94 88f6 0b18 63bf d138 a8b8 0fd8 72bf
00000620: d693 83e1 face 763f 8595 149c 4124 983f
00000630: a949 b72f 6580 803f e841 5446 67dc 81bf
00000640: fe53 97d0 e9d3 963f d9e1 ba8e 5d00 79bf
00000650: 42aa 268d 5907 623f 411b ed91 d073 863f
00000660: 9822 90a6 4b43 17bf 1e6d 3aa7 44f7 73bf
00000670: 3ba7 247f fa6b 91bf e79b 3fee 99a7 6ebf
00000680: 1942 8ece 60e5 9fbf 7111 d750 658a 6bbf
00000690: c353 ae21 eced 7b3f fb84 ef1f ca48 79bf
000006a0: 8cd3 01f4 5ac5 47bf 7b08 a350 8dbc 72bf
000006b0: d763 7816 bc8e 9abf 8125 4024 4a13 51bf
000006c0: 31da 6bcf 42bb 95bf 88cd d380 7dc8 6bbf
000006d0: aaf1 d84e 73ea 8c3f c5ac 2355 25e6 773f
000006e0: e000 cb97 07d0 9ebf 0ecf 4f1f e072 963f
000006f0: 6ad4 8738 553c 953f 2b8f 8963 e5e8 61bf
00000700: dc30 5560 3fe9 943f d163 fd75 834a 833f
00000710: 59bb ad90 c55d 6fbf cdc8 89c5 7fe9 913f
00000720: 3eb6 03f1 abe3 93bf 7c87 f3a8 d562 93bf
00000730: dc84 9360 e055 7b3f 8093 4495 db72 50bf
00000740: 26d2 1c7a 2cff 87bf e3c5 1a7b 0772 923f
00000750: a994 a0d8 3263 7bbf 744b dd50 724b 43bf
00000760: 791e f504 2c3d 623f 4668 f50e d5a3 83bf
00000770: 8125 557f a4f8 84bf 7af3 b297 c36c 923f
00000780: c0ee 2e1c 0886 633f 00e9 3068 3528 423f
00000790: 7ac6 1e98 8d75 803f 56b6 3ee5 1ecb 7dbf
000007a0: 32e6 f112 27dd 65bf fb69 fd9b b586 953f
000007b0: 777f 8d04 c967 84bf 70a6 be2d 6db9 8abf
000007c0: 9d1b 5dd1 4a41 8f3f e7db 7a8f a9f4 7dbf
000007d0: d487 de75 73ce 80bf 3c46 2d25 b544 8e3f
000007e0: 926d c2a5 b7f0 933f ab08 fa18 5fae 87bf
000007f0: 4c3c 0dad 3d1a adbf fedf 30fa e362 c8bf
-0.021002380740567508 -0.01761816886477628 0.006877660422387252 -0.20306429643054227 -0.24855276064950937 -0.11109289483554532 -0.3086640575553998 -0.6126863213357941
-0.1663899254329193 -0.1574269354458274 -0.836423137589907 -0.18459000710594387 0.039677275467938145 -0.7893120522636778 -0.23003866718899016 -0.16808971543041873
-1.0725271952514526 -0.05164382859561408 -0.1425744745402073 -1.459324353418683 -0.12402795467690005 -0.06945912292097486 -1.6728978392573097 -0.21750157265122952
-0.09552389156535913 -1.8915761473509434 -0.23342354757009076 0.01565840777615339 -1.0544059897780609 -0.08311028539098074 0.04544894935035231 -1.498059586942931
-0.13961033869371442 0.07015400134284083 -1.7474117727909615 -0.20085450199761054 0.11242276863480999 -2.0163392971124074 -0.220318882660073 0.1470065156017515
-0.996085050100381 -0.12643362799863805 0.1304058532856405 -1.3858632169506162 -0.142176534585941 0.1714113869445863 -1.6683152342289773 -0.2024808479163479
0.23705500105076444 -1.8765864952370728 -0.2494172475058472 0.2982901823834519 -0.8760616868746409 -0.14394930956752416 0.30088717114447455 -1.2239712289321756
-0.18156246727483633 0.3232734375665018 -1.3956278937717619 -0.22912029145356463 0.3276629447964997 -1.5952632094951045 -0.21830418611567162 -0.0019303974296684498
-0.021428996810980698 -0.03834435393906949 -0.02256232644667655 -0.049720403281731294 0.0033043087533593534 -0.013849484637559108 -0.006439358775421379 -0.019486548845070523
-0.00988541599643149 -0.023131002935045747 -0.003939190745363818 -0.015675977228070466 -0.02702722975209104 -0.015175998106047726 -0.003446631147140601 -0.04115246784380234
-0.004853473251843721 -0.01449102597913772 -0.031435137625531635 -0.0038124031493225272 -0.02825866904065297 -0.026571045326249543 -0.023032857582064938 -0.002523321129757047
-0.010537661244458213 -0.015432400048947772 -0.01691761412104442 -0.032126174772036144 -0.021085043114751244 -0.01480099672548452 -0.013666472423194057 -0.020451338165103014
-0.009405772896240942 -0.02502179788855312 -0.009277527841447922 0.008833655523215418 -0.014027162064677232 -0.011120845713491609 -0.010551887620027426 -0.010231943834468842
-0.017534656196188363 -0.013478513739941819 -0.01865452710497679 -0.02647792698800854 -0.004355959016000792 -0.02906636680561842 0.00016416891431725314 -0.025013531727409825
-0.016833650602783093 -0.024823046496729537 -0.009427341209944484 -0.024170972332998662 -0.02337224363438236 0.0011763114663204484 -0.03930188759633708 -0.019615819446352517
-0.01446087480817704 -0.02229174466449438 -0.015172612916494172 -0.014433471474240985 -0.03085459576529625 -0.019633563879609486 0.03399872677700041 -0.003841947023481284
0.015040059578691258 -0.21092095861381907 -0.2173680574310548 -0.02982619502396515 -0.28898073198683405 -0.5665051563976384 -0.11753299754614764 -0.0920986974046028
-0.8192441362559069 -0.2209081127103183 0.04978020421249834 -0.7425867490668709 -0.25459056425462 -0.20064163800789295 -1.0550355757241487 -0.08139311632733166
-0.16712038508999122 -1.4005308661001608 -0.07550732164385215 -0.13404400010377998 -1.6719710075674743 -0.17612873220302855 -0.16454028140974603 -1.869440429283151
-0.23622441919184758 -0.05247238002643481 -1.0866917955109414 -0.031908338570115574 -0.037195418935768686 -1.4723178404007584 -0.07528645096925296 -0.023317386540018383
-1.7236680697423097 -0.182050738774345 0.04441664522991573 -1.976980825552256 -0.2403301296419757 0.12634905717496325 -0.9965034259121939 -0.06594196948089834
0.1504559993673743 -1.3924450398815307 -0.10675360868166812 0.1531533187919923 -1.6566659929756453 -0.1975369777153776 0.1623228927841269 -1.818156708817872
-0.2667534669448251 0.24996024512393938 -0.829998972902412 -0.17379028528075008 0.24742743495468367 -1.1528718476286484 -0.20219817303324397 0.2564658670035932
-1.4354570895974192 -0.20336823887866168 0.3085653363072575 -1.5679189255911228 -0.24481875972903047 0.006880603652987713 0.006858552895766398 0.0030686428675878014
0.0019317902401147786 -0.006653859113989196 -0.0023308023121609133 -0.004600583468812939 0.005568485263414543 0.023575806762115476 0.008057394522357724 -0.008721167405867328
0.022292760235206537 -0.0061038641539927435 0.0022007702875346544 0.010963086560548898 -8.874081835597914e-05 -0.0048744851843836295 -0.017013467798427256 -0.0037420278986135427
-0.03114844570842665 -0.0033618906806813166 0.0068186973466212745 -0.006172933149146016 -0.0007254308802787531 -0.004574348460837037 -0.02593511473796525 -0.0010421966590022649
-0.021222156438819254 -0.0033914996371266527 0.014119053691609224 0.005834718542455157 -0.030090445174892788 0.021922590170972582 0.020737964225152096 -0.0021862488031717717
0.020421018843351443 0.009419467008841583 -0.003828893536982941 0.017492290908599984 -0.019423185906751288 -0.01893171161362471 0.006673695062290732 -0.0010039467206947872
-0.011717174030857324 0.018013111962039374 -0.006686400049180787 -0.0005888279135696077 0.002226434684107489 -0.00958982898616879 -0.0102398730620219 0.017993026861165863
0.002383247222921131 0.0005541096474026841 0.008036714749184205 -0.007273789105892789 -0.0026689303554661365 0.021021688123576947 -0.009963579608381441 -0.01304898544170216
0.015261253847382689 -0.007313406320171168 -0.008206274065574982 0.014779486844108118 0.019472951404720336 -0.011563055944183573 -0.05684082734534765 -0.1905178996692029
