backend/FastApi/sign_language_data/B/B_12_aug2_mirrored.npy (npy, 30368 bytes, 1 tensors)

array f8 [30, 126]
00000000: e46b ec5d d51a 8abf b7e4 e469 1d38 a03f
00000010: abda 9f21 573a 4fbf c4c1 59e2 e67b c83f
00000020: 8688 63c6 c0c3 c3bf dcfa 75dd 29a4 c7bf
00000030: dfe3 b708 95b8 d13f 32a9 8332 765c e0bf
00000040: ab1f 8761 ea20 d2bf 6028 5e1e 1467 a63f
00000050: 5c04 c040 405b e5bf 65e5 406f 62e8 d4bf
00000060: c228 45f8 bfa8 c9bf e917 e0cc fe89 e5bf
00000070: 5447 5752 77cb dbbf b3a7 210e 4f38 c63f
00000080: 17ca ab0e 6853 efbf f6cd e75e c702 cbbf
00000090: c9ca fcc6 bc06 c33f 41ad f432 53a6 f6bf
000000a0: 9732 a357 0830 d6bf 0d61 df97 63ed be3f
000000b0: 81a2 cb54 fd7b fbbf a589 993f b2f8 d8bf
000000c0: 9942 bd8f 57b5 b63f b086 5cdf 4a90 ffbf
000000d0: 0782 1be2 b58c e0bf 0133 e5d3 a279 68bf
000000e0: a4a7 ec95 0e87 f0bf 9b0d 6465 8e68 cdbf
000000f0: f77c 3847 4b42 adbf 8ea7 b00b 5042 f8bf
00000100: d003 f830 4ede d1bf 6610 7879 299a b5bf
00000110: 1e88 98bf b0eb fcbf 800c 1ea1 ed88 dabf
00000120: 1c66 13b5 56d5 b5bf 2b55 d197 ccc9 00c0
00000130: 5d04 2447 1382 dabf 8b66 6713 68bf c2bf
00000140: 9a48 3a1f c5a6 eebf 9348 c6b3 8ccb d0bf
00000150: 1b06 2d30 277f c9bf 60f5 6f08 6626 f7bf
00000160: 6974 e766 0008 d3bf 1e6a 6d7b ef38 cdbf
00000170: 4343 d7ff 7e9e fabf 5051 0e04 588c d5bf
00000180: 0ed5 869b 61da c9bf 7bfc 659f 29ee febf
00000190: cf2b cb81 053d d9bf 6a8f 096c 1003 d3bf
000001a0: 697b 9e12 3dc4 e9bf da18 7a77 574b d1bf
000001b0: bee5 851b 1191 d6bf a61a f5fd 4361 f3bf
000001c0: 0fc6 22ac 7a05 d8bf ae3f 1dde 340a d7bf
000001d0: 24da 05bb 91bb f6bf 3555 a172 5a79 d9bf
000001e0: c54e 93b7 25b3 d6bf 2000 387d 985b f9bf
000001f0: 06f4 3905 9b2d d7bf 5f0c 725d 9231 8fbf
00000200: 4b74 e127 395b 9a3f 9ade a58f 1e19 a6bf
00000210: 6381 5d4b f602 91bf 4eac 15e3 5f46 993f
00000220: 1434 6eff 3945 9ebf efec 5d12 51d1 91bf
00000230: e2ab 9e73 1fe8 9a3f ffd8 3098 33f9 8dbf
00000240: c6c0 593b 9ab8 93bf 184c 625a ad35 953f
00000250: 45bd 8c87 ecf8 92bf dae9 6d36 e7e1 57bf
00000260: eef5 d549 1c71 893f fb36 2858 b02b 81bf
00000270: 0ded 642f e133 9cbf adac d36a 1bcd 993f
00000280: 1742 3520 fe71 8ebf f98e add0 bd41 7a3f
00000290: 838f 1333 b900 66bf bb6c 2ca4 ecbc 9cbf
000002a0: f86c 479a ae42 72bf 284c fc81 e5d5 913f
000002b0: 5d41 6fe2 2c89 82bf d072 2ce8 2cc5 7fbf
000002c0: 0721 969a aab9 893f cd23 ca0a 9f17 82bf
000002d0: e7b9 cdf5 148c a1bf 0fc5 c594 daa6 7b3f
000002e0: e3a9 c5b5 3144 6ebf 04c2 e10e de96 8fbf
000002f0: 1fc1 a008 a05f 993f c126 0099 36eb 91bf
00000300: b2c5 39d8 72ff 81bf 1d39 8136 a993 9c3f
00000310: b840 1a9f 31d3 a2bf c350 cf45 7a06 8fbf
00000320: 4701 654f 648f 9a3f 7dee cdfa a0f0 94bf
00000330: 67f4 4bd4 e6d6 87bf ec5a bfae 56a7 923f
00000340: fb65 8feb 96cd a2bf 5d43 6139 6160 74bf
00000350: 20b7 d601 62a3 863f deca 9109 c768 94bf
00000360: 7e9c ecdc 8309 98bf bfc4 9025 7da0 863f
00000370: ba85 9ecd 0148 90bf 1a45 5ba4 41b0 8ebf
00000380: ab5c 18de bf6f 813f 3f93 17e8 b210 9dbf
00000390: 5326 8505 44e2 85bf 2fbc 35cd 244b 9c3f
000003a0: 5946 6599 f6b0 97bf 29ab b676 de07 76bf
000003b0: 580f 3587 61de 8d3f 7036 a662 66a4 7dbf
000003c0: 3af6 692b 2e8e 99bf bbf9 639a 09e0 993f
000003d0: a99b cbd5 3898 96bf 80b7 cace 1800 8bbf
000003e0: 3b28 55a9 d628 973f 56d4 79b3 a661 a0bf
000003f0: 694c 9949 0f7a a43f 9c3d 053d 671a 9f3f
00000400: acb0 8c2f eebd 93bf 7534 7fc3 0672 c63f
00000410: 6e9c 736b 9bb1 cbbf 884e 723c 2673 c8bf
00000420: 3e2c 2851 4b88 c43f 0413 a153 ee78 ddbf
00000430: 097e 9f53 1c23 cebf 983e 9128 de37 91bf
00000440: 4b9b 58b9 ea3f e5bf f723 128e ba5b d5bf
00000450: 5779 3acc ea2a d0bf cbef f6c5 231b e4bf
00000460: 3a50 de06 266a ddbf faa5 ce6f e896 b13f
00000470: fd9a 170f 806e eebf d5ec 2a56 0e54 c9bf
00000480: 42f4 5599 bd65 ad3f e898 0d48 007b f6bf
00000490: d5ff 8a14 5770 d2bf af6d 3e28 8132 acbf
000004a0: 88a5 da60 19d3 fabf f150 c1b8 65ff d8bf
000004b0: e54d aead 8f69 b9bf 9684 f6a7 ecfc fdbf
000004c0: 837b 0016 ae74 dbbf 7a42 8a47 6e7a bdbf
000004d0: bf31 1d45 2477 f0bf 1bcf 24db 632f cbbf
000004e0: 762d d22b a798 c7bf 59ba 6966 8589 f7bf
000004f0: 1f47 616a 3b57 d0bf 8808 93c6 6cee ccbf
00000500: a729 7a25 79a1 fcbf d7a0 4436 5566 d5bf
00000510: 2314 e670 d66f d0bf 9f1d 210d 8947 00c0
00000520: 4e19 5518 ce43 dabf 28cf ae52 bddd d0bf
00000530: 9016 cb6f 95c2 ecbf 32e4 acdf 149d c6bf
00000540: 5a63 040c 88c7 d6bf 5c70 a6f7 ae90 f6bf
00000550: 80aa 7a15 a9ab d1bf 7f96 31c2 76ed d3bf
00000560: 1d57 a12a 4014 fabf 6835 fc0a 8368 d5bf
00000570: d366 281d d24d d9bf 6259 e999 ce8e febf
00000580: edbd 2097 54c6 d8bf 88b9 601b af4b dcbf
00000590: dad9 8644 2f58 e9bf 6aff 47b1 53b6 d0bf
000005a0: 4b90 1f74 6f0e debf 13dc a810 8cc5 f1bf
000005b0: 5a4b e74e 4023 d2bf b0e9 4332 8485 dfbf
000005c0: c06d db4f 7c39 f5bf 9d89 27c3 4fea d5bf
000005d0: 23fe 20d0 b982 e0bf 2e34 3317 60c8 f8bf
000005e0: 1ef4 1af8 5e99 d8bf deee 5415 ac8f 953f
000005f0: 2f19 7d1c e4eb 9a3f cff1 84ec 2318 743f
00000600: a43c 93c3 7a70 a13f 969d 0836 42f8 a33f
00000610: 7bf9 a0ae b68e 583f 5751 a747 95d7 8d3f
00000620: aca9 301f dbe9 9c3f 80ce 57b3 54e1 433f
00000630: 03e8 4d44 9866 943f 6b8e 3a07 0728 953f
00000640: 93ca 8071 2758 8bbf b3a9 5f04 56f3 893f
00000650: 3332 3b56 ad94 993f f8ef 1281 b3e0 95bf
00000660: e6ee 28d9 7f30 953f 342c 0c5c 5240 833f
00000670: d681 84e5 c217 83bf b9e2 18ed 9166 243f
00000680: f218 1f78 dcff 883f 3181 0dda 72f4 813f
00000690: 79b9 ee66 9b84 a23f c276 a19b d06f 933f
000006a0: a6c8 ecdb 08e2 6ebf 21dc 746b 6dce 983f
000006b0: d286 b476 5196 a13f 208b d271 9bac 90bf
000006c0: d20e 4333 cdea 9b3f b189 bbbd 2cfd 8b3f
000006d0: a9ba 2bc5 2991 94bf 0e5f b1c3 c38f 903f
000006e0: 6281 1fc2 db1b 913f ac71 e17b 7772 72bf
000006f0: 00a3 8e86 5bba 913f fe28 d8d0 243b 8d3f
00000700: c545 1b86 3f17 81bf b6bf 1e7b 02e9 a13f
00000710: 4499 c5e9 9b14 923f 3072 931b 6c00 7ebf
00000720: b875 2393 9356 993f e84f e1eb 3926 953f
00000730: f7be 66ae ec74 96bf c9a2 367d 445f 973f
00000740: 4d06 d6fe 06d1 9d3f 0604 8932 c61f 80bf
00000750: 63c1 1006 2c13 913f b472 3469 4678 983f
00000760: aad6 d553 0564 90bf ee44 a6f6 de60 9b3f
00000770: 8b7c aa98 6873 963f aed3 30ea dc6c 81bf
00000780: 20a8 0061 26ec 9a3f d75d 7c7b 615f 5fbf
00000790: 5817 28a0 c917 5dbf 6937 266f 7305 a23f
000007a0: b696 faec 0e16 8e3f c54f c42d d052 91bf
000007b0: 625d b7e3 75f4 893f acec 2ebb 99ca 803f
000007c0: b01e cf63 a183 8ebf 7c6c 94e3 5ab8 8f3f
000007d0: a3bc 13fb f57e 7c3f ba96 9f2a f730 84bf
000007e0: 3b94 beab 8dc5 833f ae38 c131 603f 61bf
000007f0: 1510 c396 3fae 8ebf 4274 2934 c25b cd3f
-0.012746493271654509 0.03167812268879671 -0.0009529996343634236 0.19128118564868946 -0.15441140829995365 -0.1846973735191203 0.2768910012378551 -0.5112868296248847
-0.28325900577737667 0.04375517721844413 -0.6673890366220223 -0.32668362488364827 -0.20046233770910332 -0.6730951310607881 -0.434293585215632 0.17359340848935076
-0.9789314543289177 -0.2110223019986816 0.14864310947594664 -1.4156066885432923 -0.3466816764674063 0.12080976922823457 -1.717770892364712 -0.3901792164889691
0.0887045598913211 -1.972727653985583 -0.517176572433585 -0.002987688086398044 -1.0329728943274654 -0.22975330305790184 -0.05714640850441726 -1.5161896187441672
-0.2791934469424264 -0.0843835755877663 -1.807541607304763 -0.4146074365054986 -0.08528654022975285 -2.098534761501147 -0.41418916652043497 -0.14646626422363726
-0.9578576669612346 -0.2624236827479162 -0.19919290401780718 -1.4468746499618064 -0.29736337708693 -0.22830003287056483 -1.6636953347953785 -0.33669090648733846
-0.20197696775509438 -1.9331451632022254 -0.3943494575038899 -0.29706202078363353 -0.8052049029973719 -0.2702234904067048 -0.35260417640492026 -1.2112464828693787
-0.3753344231618891 -0.3599979561886312 -1.4207932763653242 -0.3980318183360681 -0.3546842854241102 -1.5848622218472954 -0.3621585417784562 -0.01523126933739699
0.025738614138721066 -0.043160395655772635 -0.016612861967020175 0.024682520136974077 -0.029560953345527066 -0.017400042291666414 0.026276103431580718 -0.014635470468516319
-0.01925889003035832 0.020712574617004348 -0.01852769448595139 -0.0014576681075754079 0.01242277241066866 -0.008384111109104966 -0.027541655080523465 0.025196483988946628
-0.014865861280356758 0.006410352197096841 -0.0026858918359823915 -0.02806443931613665 -0.004458124200449769 0.01741751294964558 -0.009050703678355526 -0.0077564005066761005
0.012561161844829373 -0.008834116474888543 -0.03427186489613004 0.006750921089733865 -0.003694626893936391 -0.015424475506933717 0.024778843428237992 -0.017498829925932883
-0.00878801081055056 0.027907031966884255 -0.03676753108186531 -0.015149073844363042 0.025937621446474848 -0.020449176128279668 -0.011640361169606274 0.01821647111486417
-0.03672477365007506 -0.004974727422521888 0.011053815537561074 -0.01993094440372089 -0.0234737971869916 0.01104829569712462 -0.015899685072900495 -0.014984619930518184
0.008513926472956198 -0.028384013572480212 -0.010685473841152737 0.027630400681513286 -0.02313599883320303 -0.005378598212170607 0.014584314287851605 -0.007236862128036856
-0.024956437492156015 0.025268697784662324 -0.02206505589392874 -0.013183778582369632 0.022616724095577672 -0.03199501934879183 0.039993741735678885 0.03037415800036812
-0.019279214527316554 0.1753548101973227 -0.2163576388040584 -0.19101407958497796 0.16040936911335452 -0.4605060402575847 -0.23544649203448412 -0.016814681268725623
-0.6640523548165701 -0.3337236773882632 -0.2526194567125421 -0.6283129564758324 -0.4596037928652127 0.06870892266910991 -0.9509887976426793 -0.19787768561750477
0.05741684433721918 -1.405029565293768 -0.28810669904851 -0.05507281891115256 -1.6765378745425057 -0.39058821718687314 -0.09926698675399555 -1.8742491303494595
-0.4289965834486155 -0.11514939543327243 -1.0290873241202545 -0.21238372993831764 -0.18434610023210113 -1.4710744858272362 -0.25532422436400454 -0.22602615066540843
-1.7894221748307275 -0.3343709020578109 -0.2568260290648274 -2.034929373334037 -0.4103884923573745 -0.2635339076471035 -0.8987528975928445 -0.1766687481083707
-0.3559284322123425 -1.4103231118997632 -0.2761023244626486 -0.3113686462805631 -1.6299440064662527 -0.33450389931461766 -0.39537480208819636 -1.9098649990242724
-0.3871051288469676 -0.4421193854676848 -0.7920147264874757 -0.2611283522855873 -0.4696310647980268 -1.1107292795911732 -0.28340156274241723 -0.4925241938468856
-1.326534568731276 -0.34242624338198785 -0.5159577431695123 -1.5489197641611656 -0.3843610213187406 0.02105587845038214 0.026290477980432655 0.004905834510563214
0.034061275838774635 0.039003438087372874 0.0014988693242369 0.014571348427957416 0.0282358396326942 0.0006066955162950666 0.019922618073429998 0.02066050511952115
-0.013351734305705498 0.012671157844995706 0.024981220615517507 -0.021364979508447818 0.02069282305659117 0.009400027689045222 -0.009322664861031987 0.00015564471554953776
0.012206766525093535 0.00876703002876464 0.036167961421017254 0.018981227396912777 -0.0037698910740796175 0.024224958118079457 0.03434996198690289 -0.01628344423501027
0.027262884382038895 0.01366648630159237 -0.02008500352797663 0.01617341882624062 0.016707833979923044 -0.004503695234316412 0.017312460029333288 0.014272964118408723
-0.008345123558146103 0.03498084786349358 0.01765674223261128 -0.007324621482635282 0.024744325500128034 0.020653634092312162 -0.021930406708348973 0.02282435430757593
0.029117688468892223 -0.007873104493343785 0.01667469775219511 0.023896312876888273 -0.016006549112225578 0.02673672085217487 0.021924623792639635 -0.008508420845922373
0.0262914654451053 -0.0019148303962931346 -0.0017756909370531728 0.035197837179210385 0.014690510375042858 -0.0169174697812904 0.012673302661751765 0.008198929810410448
-0.01489950261920056 0.015488348074134566 0.006957016813642944 -0.009859019268286463 0.009654146960949564 -0.0021054152294147288 -0.014980789936437625 0.22936275050133942
