backend/FastApi/sign_language_data/B/B_12.npy (npy, 30368 bytes, 1 tensors)

array f8 [30, 126]
00000000: 85c4 ceeb ee9d 8abf 57e8 1e4d 3a53 9b3f
00000010: f822 e4ff 0153 513f 8b2c 2c52 e347 c8bf
00000020: a1f6 e9a5 fe75 c5bf 3536 2897 b1ab c3bf
00000030: 83c0 339a 72c9 d0bf 55a0 ccd7 b060 e1bf
00000040: 4c61 a27d f10e d0bf f40b 7669 7a2e 99bf
00000050: 5eb2 0c14 c94c e6bf 04f7 5ad5 d903 d4bf
00000060: ade9 1948 1d29 ca3f 6109 a877 8bb7 e5bf
00000070: ece4 34be 8e0a d9bf 4b96 dd8e 1b4c c4bf
00000080: 52ef 7f05 effa efbf d46d 8dca 115e cabf
00000090: 270f 2c3a a348 bebf 7ee3 e942 3b38 f7bf
000000a0: 7ec8 8242 dd94 d4bf afbd a25f 4906 b3bf
000000b0: a40f 44d7 bbd8 fbbf e4b6 733b 5870 d7bf
000000c0: a188 ae5d fc3a a3bf 0db1 8779 579d ffbf
000000d0: 7af4 9dee 6b17 dfbf 6b16 3ba7 f7e9 943f
000000e0: 2739 0304 0681 f0bf 9667 bf00 b78f cabf
000000f0: 2d88 f332 80db b93f 9e33 aba1 5e2c f8bf
00000100: 8ded 0277 f4be d0bf 8c73 4d34 5260 be3f
00000110: 6762 cafd 5811 fdbf 9339 26be c92a d8bf
00000120: 746f dc68 5242 c13f 4af8 93d8 ddd4 00c0
00000130: bccb e97c df21 d9bf cff1 494e 8e31 c53f
00000140: b0bb 837e ca3d efbf f121 3431 ca6e cdbf
00000150: 64ac 8d8b dc4f ce3f a061 c635 ce48 f7bf
00000160: 0294 286a 95da d1bf 2b95 96b3 f787 d13f
00000170: 005c e329 a5e6 fabf ed66 77b1 5fe5 d4bf
00000180: 7355 6922 6f54 d03f 7ad0 32fa a4e3 febf
00000190: c606 8cf2 15dc d8bf 12e7 fbba b031 d43f
000001a0: ea63 5831 6288 e9bf b020 a6c9 89f2 d0bf
000001b0: d420 aab6 81f8 d73f 6b78 ca66 0a74 f3bf
000001c0: bc10 926c bf4a d5bf 6a2f b8d0 4d7f d83f
000001d0: e389 4e0d 01af f6bf 5afe f5fc 6349 d8bf
000001e0: 8c64 2492 e8db d83f 69c8 53e1 b892 f9bf
000001f0: c5fb cd4a 11c1 d5bf 0000 0000 0000 0000
00000200: 0000 0000 0000 0000 0000 0000 0000 0000
00000210: 0000 0000 0000 0000 0000 0000 0000 0000
00000220: 0000 0000 0000 0000 0000 0000 0000 0000
00000230: 0000 0000 0000 0000 0000 0000 0000 0000
00000240: 0000 0000 0000 0000 0000 0000 0000 0000
00000250: 0000 0000 0000 0000 0000 0000 0000 0000
00000260: 0000 0000 0000 0000 0000 0000 0000 0000
00000270: 0000 0000 0000 0000 0000 0000 0000 0000
00000280: 0000 0000 0000 0000 0000 0000 0000 0000
00000290: 0000 0000 0000 0000 0000 0000 0000 0000
000002a0: 0000 0000 0000 0000 0000 0000 0000 0000
000002b0: 0000 0000 0000 0000 0000 0000 0000 0000
000002c0: 0000 0000 0000 0000 0000 0000 0000 0000
000002d0: 0000 0000 0000 0000 0000 0000 0000 0000
000002e0: 0000 0000 0000 0000 0000 0000 0000 0000
000002f0: 0000 0000 0000 0000 0000 0000 0000 0000
00000300: 0000 0000 0000 0000 0000 0000 0000 0000
00000310: 0000 0000 0000 0000 0000 0000 0000 0000
00000320: 0000 0000 0000 0000 0000 0000 0000 0000
00000330: 0000 0000 0000 0000 0000 0000 0000 0000
00000340: 0000 0000 0000 0000 0000 0000 0000 0000
00000350: 0000 0000 0000 0000 0000 0000 0000 0000
00000360: 0000 0000 0000 0000 0000 0000 0000 0000
00000370: 0000 0000 0000 0000 0000 0000 0000 0000
00000380: 0000 0000 0000 0000 0000 0000 0000 0000
00000390: 0000 0000 0000 0000 0000 0000 0000 0000
000003a0: 0000 0000 0000 0000 0000 0000 0000 0000
000003b0: 0000 0000 0000 0000 0000 0000 0000 0000
000003c0: 0000 0000 0000 0000 0000 0000 0000 0000
000003d0: 0000 0000 0000 0000 0000 0000 0000 0000
000003e0: 0000 0000 0000 0000 0000 0000 0000 0000
000003f0: cadd 3fa7 5c77 93bf e7d3 cd9c be7d 833f
00000400: d508 9934 1b8b 91bf 1ffa b6e2 4ba2 c6bf
00000410: 0548 9bb1 7176 ccbf baf5 19b7 24b9 c5bf
00000420: 0f81 8086 872d c6bf 0426 fc5e b883 debf
00000430: da7d 5ba2 3ed5 cebf b5a1 c38c 9521 85bf
00000440: 1b88 f442 4fdf e5bf e94b 8bd1 c46f d5bf
00000450: af17 0a91 3eca cc3f 22ab 118a 4ab5 e5bf
00000460: 38b3 d1ae 9db1 dcbf 1aaa 9887 1c55 bfbf
00000470: b2d0 079c ab99 efbf 2dc5 b00b 10c6 c7bf
00000480: e80f ff7e 037d c0bf 7719 58b3 bdb8 f6bf
00000490: d6cb f0be 3593 d2bf 20e9 9942 fa44 a1bf
000004a0: 9e86 a8b9 5b69 fbbf 05de 520f 298c d8bf
000004b0: bcdf 71ee 6f2e 723f 3b87 abcc baa4 febf
000004c0: e558 c927 2333 dbbf db1d d67e ae74 b13f
000004d0: fd10 6b79 83c8 f0bf b137 a75a d381 c9bf
000004e0: 726f afc6 783f b73f e7ab 3bbb 7427 f8bf
000004f0: b147 8007 7e2d d0bf b489 7957 4aeb be3f
00000500: 9777 40b7 163b fdbf 173d 137d 6306 d6bf
00000510: 7437 c331 250a c13f b038 2056 56b5 00c0
00000520: e4b2 7ced 4418 dabf 5647 1de0 9ef8 cc3f
00000530: fabd 93d2 2c34 eebf 1770 38b2 f2cc c7bf
00000540: 5aaf 855e 9487 d13f 8101 163b 8b09 f7bf
00000550: d4fd 99d9 9138 d1bf 9507 2429 7270 cf3f
00000560: 96c8 5818 effd fabf f33f 9b0b 2417 d5bf
00000570: b8c1 dfb4 db53 d23f 1f5a 79b3 0d7e ffbf
00000580: d084 17a9 83fc d7bf f983 171b b7a9 d93f
00000590: 7837 5b50 dd5a ebbf c27a d3aa a5b7 d0bf
000005a0: f3da ad0c a6d6 da3f 2d50 a167 8177 f2bf
000005b0: 7421 d7de e839 d2bf 473e e628 b85f db3f
000005c0: 811d faed 4b27 f6bf b087 bc7d 650e d6bf
000005d0: a1c0 ef21 5845 db3f 455e 3318 5dcc f9bf
000005e0: 2cf2 c3e5 2323 d9bf 0000 0000 0000 0000
000005f0: 0000 0000 0000 0000 0000 0000 0000 0000
00000600: 0000 0000 0000 0000 0000 0000 0000 0000
00000610: 0000 0000 0000 0000 0000 0000 0000 0000
00000620: 0000 0000 0000 0000 0000 0000 0000 0000
00000630: 0000 0000 0000 0000 0000 0000 0000 0000
00000640: 0000 0000 0000 0000 0000 0000 0000 0000
00000650: 0000 0000 0000 0000 0000 0000 0000 0000
00000660: 0000 0000 0000 0000 0000 0000 0000 0000
00000670: 0000 0000 0000 0000 0000 0000 0000 0000
00000680: 0000 0000 0000 0000 0000 0000 0000 0000
00000690: 0000 0000 0000 0000 0000 0000 0000 0000
000006a0: 0000 0000 0000 0000 0000 0000 0000 0000
000006b0: 0000 0000 0000 0000 0000 0000 0000 0000
000006c0: 0000 0000 0000 0000 0000 0000 0000 0000
000006d0: 0000 0000 0000 0000 0000 0000 0000 0000
000006e0: 0000 0000 0000 0000 0000 0000 0000 0000
000006f0: 0000 0000 0000 0000 0000 0000 0000 0000
00000700: 0000 0000 0000 0000 0000 0000 0000 0000
00000710: 0000 0000 0000 0000 0000 0000 0000 0000
00000720: 0000 0000 0000 0000 0000 0000 0000 0000
00000730: 0000 0000 0000 0000 0000 0000 0000 0000
00000740: 0000 0000 0000 0000 0000 0000 0000 0000
00000750: 0000 0000 0000 0000 0000 0000 0000 0000
00000760: 0000 0000 0000 0000 0000 0000 0000 0000
00000770: 0000 0000 0000 0000 0000 0000 0000 0000
00000780: 0000 0000 0000 0000 0000 0000 0000 0000
00000790: 0000 0000 0000 0000 0000 0000 0000 0000
000007a0: 0000 0000 0000 0000 0000 0000 0000 0000
000007b0: 0000 0000 0000 0000 0000 0000 0000 0000
000007c0: 0000 0000 0000 0000 0000 0000 0000 0000
000007d0: 0000 0000 0000 0000 0000 0000 0000 0000
000007e0: c05b 0c24 df5f 933f 53f6 a5b2 b934 823f
000007f0: 990a 3ae0 04af 93bf e416 25ce 00b2 c7bf
-0.012996546336440548 0.026684676129413578 0.0010573882605646161 -0.18969384682018062 -0.16766341305986024 -0.1536771762916246 -0.26229538973621674 -0.5430530752974031
-0.25091206807112054 -0.024591362654529506 -0.6968732253640828 -0.31273504100305183 0.20437971134726976 -0.6786553704298904 -0.3912693841444497 -0.15857262111528522
-0.9993815524498848 -0.20599577322251028 -0.11829586191384732 -1.4512283910573553 -0.3215859555740578 -0.07431467614036678 -1.7404135140250014 -0.36623197370395943
-0.03755940097404787 -1.9759135005252262 -0.4858045416111235 0.020423764783819836 -1.0314998776189641 -0.2075108293200258 0.10100556606224194 -1.5108324351487918
-0.2616549646588389 0.11865724350850665 -1.8167352594083697 -0.37761157578724996 0.13483648414773663 -2.1039387626797508 -0.3926924438339332 0.165574825503326
-0.9762928458202307 -0.22994353678247095 0.23681217970019752 -1.455274782236394 -0.2789662872986015 0.27392380273734557 -1.6813098560576236 -0.3264998658247425
0.2551534496354499 -1.9305772565249115 -0.3884329670546375 0.31553285846858714 -0.7978983844542402 -0.2648033589580434 0.3745426448663356 -1.2158302321691064
-0.3326872406253292 0.38277001745949824 -1.4177256126209776 -0.3794794054337892 0.38842214843459355 -1.5983208467337369 -0.33990890793932876 0.0
0.0 0.0 0.0 0.0 0.0 0.0 0.0 0.0
0.0 0.0 0.0 0.0 0.0 0.0 0.0 0.0
0.0 0.0 0.0 0.0 0.0 0.0 0.0 0.0
0.0 0.0 0.0 0.0 0.0 0.0 0.0 0.0
0.0 0.0 0.0 0.0 0.0 0.0 0.0 0.0
0.0 0.0 0.0 0.0 0.0 0.0 0.0 0.0
0.0 0.0 0.0 0.0 0.0 0.0 0.0 0.0
0.0 0.0 0.0 0.0 0.0 0.0 -0.01901001711664011 0.009517182503012435
-0.017132210812868493 -0.17682789392525053 -0.22236462757297218 -0.16971262875078513 -0.17326444690207451 -0.4767895629489376 -0.24088271072012796 -0.010317962988168764
-0.6835094745367799 -0.3349468275384298 0.22492200929644698 -0.6783802696857928 -0.44834081718618135 -0.12239244757135062 -0.9875085875960592 -0.18573189326120013
-0.12881511403077117 -1.4201027875547803 -0.29023498198074316 -0.03372938216212362 -1.713222241618872 -0.38355471130805113 0.0044388172456066265 -1.915217208378137
-0.42499617467309597 0.06818667027083995 -1.048953508653596 -0.19927446295190301 0.0908122525283355 -1.5096328080933235 -0.2527766297581549 0.12077774654020496
-1.826925960376206 -0.3441399308621426 0.1331221096974634 -2.0885435799201204 -0.40773127739048065 0.22633729880413495 -0.9438690293154075 -0.18594201757594028
0.2739001200741221 -1.4398300464673357 -0.2690777421011863 0.24561907776665906 -1.6869955969855588 -0.32953740247194147 0.28636830008965886 -1.9682747851089812
-0.3747872496879383 0.40098359723748406 -0.8548418588122635 -0.26120893175349746 0.41935111272998354 -1.154176144414133 -0.28478452455285397 0.4277172469528278
-1.3845938964821871 -0.34462868956517934 0.42610743822207026 -1.6123934693658992 -0.3927697891047355 0.0 0.0 0.0
0.0 0.0 0.0 0.0 0.0 0.0 0.0 0.0
0.0 0.0 0.0 0.0 0.0 0.0 0.0 0.0
0.0 0.0 0.0 0.0 0.0 0.0 0.0 0.0
0.0 0.0 0.0 0.0 0.0 0.0 0.0 0.0
0.0 0.0 0.0 0.0 0.0 0.0 0.0 0.0
0.0 0.0 0.0 0.0 0.0 0.0 0.0 0.0
0.0 0.0 0.0 0.0 0.0 0.0 0.0 0.0
0.0 0.0 0.0 0.0 0.01892040879746637 0.00888962818566622 -0.01922233217784228 -0.18511972489994044
