backend/FastApi/sign_language_data/B/B_13.npy (npy, 30368 bytes, 1 tensors)

array f8 [30, 126]
00000000: acf6 8dbb 916c 853f a3f0 4d50 b929 913f
00000010: f5db 7ddb 0872 7d3f 869b 0429 de3a d2bf
00000020: 4ab3 0ef8 4477 c7bf cbc7 cf26 eb32 b8bf
00000030: dd3f 49fb 8d09 dabf df48 bed8 87a5 e0bf
00000040: 4061 8ca5 cde9 c2bf 7cf6 ccaa 7594 d5bf
00000050: 389c 7b96 f582 e9bf 5ee2 c76a 48c0 c7bf
00000060: c597 c41d cc76 c6bf 87a1 c7b2 eb03 e9bf
00000070: e271 b4ab 2e41 cbbf c7e6 f3f5 625d d4bf
00000080: ab2e 802e ca39 eebf 72d0 90e5 5153 a7bf
00000090: 3e41 1107 6d48 d7bf f873 3e7d f92d f6bf
000000a0: da8d 5c25 032d b8bf d1fe 83f4 d548 d9bf
000000b0: ff22 263e 119f fabf 8727 ee28 30ec cabf
000000c0: 1313 eb42 8559 d8bf 719b 619f 6e57 fdbf
000000d0: b9a3 0a3a 531a cdbf 39f3 058a 1b44 cabf
000000e0: 3df5 9303 73bd f0bf e706 0078 ada0 b4bf
000000f0: df04 6a5b 42ed c7bf e656 b60e 3ab8 f7bf
00000100: 79c6 ac0f f55b c1bf 7b0e f22b 7444 cebf
00000110: 32a3 df53 842f fcbf de01 df82 d871 c7bf
00000120: 726e 8e2f deef d0bf 20fe c38f 7849 00c0
00000130: ec6d 9925 5b2b ccbf c834 77d9 d9ac 80bf
00000140: 23c7 d01e 4145 f0bf 3e55 6269 c648 bebf
00000150: 2bf3 ca23 d280 b0bf 2cb3 4486 4964 f7bf
00000160: a08b 94e7 f145 c1bf ce05 7daa e083 b5bf
00000170: 32d3 15a8 c5ce fabf d990 0614 0400 cabf
00000180: 3856 6cf7 dff5 b7bf 869d 511e cf64 febf
00000190: 661e 2bec 6802 cfbf 1f62 fbc2 a100 bc3f
000001a0: 42a8 3b1c a514 eebf 6f9c e89d 55c8 c5bf
000001b0: b57c e4ba 995c b53f 00e1 fb56 3e81 f3bf
000001c0: 5fa5 17c8 b638 cebf 8f64 956d a68a b53f
000001d0: bb1b 6186 0fea f6bf 1e62 20ea f3b2 d1bf
000001e0: ed2f 355c f135 af3f 072e c700 421a fabf
000001f0: 3f2c 0020 e0aa d2bf 0000 0000 0000 0000
00000200: 0000 0000 0000 0000 0000 0000 0000 0000
00000210: 0000 0000 0000 0000 0000 0000 0000 0000
00000220: 0000 0000 0000 0000 0000 0000 0000 0000
00000230: 0000 0000 0000 0000 0000 0000 0000 0000
00000240: 0000 0000 0000 0000 0000 0000 0000 0000
00000250: 0000 0000 0000 0000 0000 0000 0000 0000
00000260: 0000 0000 0000 0000 0000 0000 0000 0000
00000270: 0000 0000 0000 0000 0000 0000 0000 0000
00000280: 0000 0000 0000 0000 0000 0000 0000 0000
00000290: 0000 0000 0000 0000 0000 0000 0000 0000
000002a0: 0000 0000 0000 0000 0000 0000 0000 0000
000002b0: 0000 0000 0000 0000 0000 0000 0000 0000
000002c0: 0000 0000 0000 0000 0000 0000 0000 0000
000002d0: 0000 0000 0000 0000 0000 0000 0000 0000
000002e0: 0000 0000 0000 0000 0000 0000 0000 0000
000002f0: 0000 0000 0000 0000 0000 0000 0000 0000
00000300: 0000 0000 0000 0000 0000 0000 0000 0000
00000310: 0000 0000 0000 0000 0000 0000 0000 0000
00000320: 0000 0000 0000 0000 0000 0000 0000 0000
00000330: 0000 0000 0000 0000 0000 0000 0000 0000
00000340: 0000 0000 0000 0000 0000 0000 0000 0000
00000350: 0000 0000 0000 0000 0000 0000 0000 0000
00000360: 0000 0000 0000 0000 0000 0000 0000 0000
00000370: 0000 0000 0000 0000 0000 0000 0000 0000
00000380: 0000 0000 0000 0000 0000 0000 0000 0000
00000390: 0000 0000 0000 0000 0000 0000 0000 0000
000003a0: 0000 0000 0000 0000 0000 0000 0000 0000
000003b0: 0000 0000 0000 0000 0000 0000 0000 0000
000003c0: 0000 0000 0000 0000 0000 0000 0000 0000
000003d0: 0000 0000 0000 0000 0000 0000 0000 0000
000003e0: 0000 0000 0000 0000 0000 0000 0000 0000
000003f0: bf06 73aa 4659 843f b2e6 b4ed 37ed 6fbf
00000400: d901 e126 332a 6fbf cc7d 7807 5204 d0bf
00000410: 8f93 0ea1 e89f c2bf ae17 b8d8 ab95 a4bf
00000420: 24a5 7395 fac5 dabf d812 c19b cfef dfbf
00000430: 7e6a 8918 a420 c1bf ed56 5af5 cbf7 d3bf
00000440: 86fd 7eb5 6963 e7bf 773e 11bc c22f cbbf
00000450: e4d7 5fd5 5f6f c5bf d3fa 6cca c6c9 e5bf
00000460: 5dd1 1414 21ce cdbf 9cc7 4207 86fe d4bf
00000470: ab42 ba07 d9d8 efbf 13ed 7cef ebe2 acbf
00000480: 4b0e c910 ac26 d6bf 32d5 3bcf 6739 f5bf
00000490: a541 492a d1e8 bfbf 3719 b46d aa34 d8bf
000004a0: 7092 c3fc 4abf f9bf fca1 f1aa 41e7 c3bf
000004b0: e6f6 3c3f a744 d5bf b9a4 03bf 6ad8 fcbf
000004c0: 92df cd79 b113 d1bf cb45 f862 807e c8bf
000004d0: c400 c740 bf09 f1bf c238 3b3e 0196 b5bf
000004e0: 9bc7 7eb9 0605 c6bf 6520 74ce 8d74 f8bf
000004f0: 83c8 2031 8165 bebf 426c 299a 1d09 cdbf
00000500: ccaa 695e 12f0 fbbf 101d c83e e45d c5bf
00000510: fc82 b5cb 1145 cabf c822 f8a6 eefd ffbf
00000520: 6dce 3fbc da16 d0bf c509 9adf ef61 a2bf
00000530: 43ea f855 4b7c f0bf 9e52 bbb9 cf19 bbbf
00000540: c977 0ebc dccb abbf db35 237d 1e32 f6bf
00000550: 981f 2c9d 3a8c c4bf b016 5273 19db b0bf
00000560: a65a dbaa 23a6 fabf a96d 3e08 274e d0bf
00000570: 157f 9819 bd9d bbbf cec4 46eb 698d febf
00000580: be39 3dd0 3795 d1bf 7b57 df92 96fe c03f
00000590: ac10 8481 6286 ecbf 5e4d d5d5 cdd6 c8bf
000005a0: 8b2c 6bcf 5d10 b03f 69d9 d56c 0506 f3bf
000005b0: a472 cc69 21fc cfbf 5f92 8724 cf12 ae3f
000005c0: bfd3 730f 77e3 f6bf 32fd 520f 7370 cfbf
000005d0: 853e cb6c 1319 b73f d2c7 aeaa 7e95 f9bf
000005e0: 4d9c 97f9 0c27 d1bf 0000 0000 0000 0000
000005f0: 0000 0000 0000 0000 0000 0000 0000 0000
00000600: 0000 0000 0000 0000 0000 0000 0000 0000
00000610: 0000 0000 0000 0000 0000 0000 0000 0000
00000620: 0000 0000 0000 0000 0000 0000 0000 0000
00000630: 0000 0000 0000 0000 0000 0000 0000 0000
00000640: 0000 0000 0000 0000 0000 0000 0000 0000
00000650: 0000 0000 0000 0000 0000 0000 0000 0000
00000660: 0000 0000 0000 0000 0000 0000 0000 0000
00000670: 0000 0000 0000 0000 0000 0000 0000 0000
00000680: 0000 0000 0000 0000 0000 0000 0000 0000
00000690: 0000 0000 0000 0000 0000 0000 0000 0000
000006a0: 0000 0000 0000 0000 0000 0000 0000 0000
000006b0: 0000 0000 0000 0000 0000 0000 0000 0000
000006c0: 0000 0000 0000 0000 0000 0000 0000 0000
000006d0: 0000 0000 0000 0000 0000 0000 0000 0000
000006e0: 0000 0000 0000 0000 0000 0000 0000 0000
000006f0: 0000 0000 0000 0000 0000 0000 0000 0000
00000700: 0000 0000 0000 0000 0000 0000 0000 0000
00000710: 0000 0000 0000 0000 0000 0000 0000 0000
00000720: 0000 0000 0000 0000 0000 0000 0000 0000
00000730: 0000 0000 0000 0000 0000 0000 0000 0000
00000740: 0000 0000 0000 0000 0000 0000 0000 0000
00000750: 0000 0000 0000 0000 0000 0000 0000 0000
00000760: 0000 0000 0000 0000 0000 0000 0000 0000
00000770: 0000 0000 0000 0000 0000 0000 0000 0000
00000780: 0000 0000 0000 0000 0000 0000 0000 0000
00000790: 0000 0000 0000 0000 0000 0000 0000 0000
000007a0: 0000 0000 0000 0000 0000 0000 0000 0000
000007b0: 0000 0000 0000 0000 0000 0000 0000 0000
000007c0: 0000 0000 0000 0000 0000 0000 0000 0000
000007d0: 0000 0000 0000 0000 0000 0000 0000 0000
000007e0: 3bc4 9a94 5f81 603f 6cf3 a860 2209 9d3f
000007f0: 5763 bceb 917a 91bf 26dd 2044 1aae d0bf
0.010460985695085988 0.01676072647704586 0.007188829993416403 -0.28484300618804814 -0.18332731353930348 -0.09452695558118689 -0.40683316745434955 -0.5202063782947127
-0.14776011069694484 -0.337186257169243 -0.7972362460249149 -0.18555550779253144 -0.175500406775596 -0.7817286006730207 -0.21292670616175174 -0.3181998636133411
-0.9445544155327829 -0.045557555459169743 -0.3637955254571529 -1.3862242595998833 -0.09443683302065811 -0.3950705421302532 -1.6638348033613395 -0.21033288954305027
-0.3804639008997565 -1.8338457322913337 -0.2273658784299906 -0.20520347823539867 -1.0462522640003293 -0.0805767457932479 -0.18692807639675998 -1.482477242917804
-0.13561881318451066 -0.23646404405382157 -1.761600806838214 -0.18316179647628322 -0.26464037555863407 -2.0358744842231005 -0.22007312141327817 -0.008142187069916665
-1.0169078067523933 -0.11829795906881643 -0.0644656503090572 -1.4619841809137126 -0.13494705016736663 -0.08404354250253407 -1.6754814687566975 -0.2031254861623271
-0.09359550276379813 -1.8996115860298644 -0.24226104289685962 0.10938464174558547 -0.9400201369692314 -0.170176221946551 0.0834442216187082 -1.2190535924729033
-0.2361057736409675 0.08414688277606984 -1.4321437119667582 -0.2765474115745138 0.060958426004248036 -1.6314106016533303 -0.2916794121271699 0.0
0.0 0.0 0.0 0.0 0.0 0.0 0.0 0.0
0.0 0.0 0.0 0.0 0.0 0.0 0.0 0.0
0.0 0.0 0.0 0.0 0.0 0.0 0.0 0.0
0.0 0.0 0.0 0.0 0.0 0.0 0.0 0.0
0.0 0.0 0.0 0.0 0.0 0.0 0.0 0.0
0.0 0.0 0.0 0.0 0.0 0.0 0.0 0.0
0.0 0.0 0.0 0.0 0.0 0.0 0.0 0.0
0.0 0.0 0.0 0.0 0.0 0.0 0.009935905529690257 -0.003897294269020823
-0.003804302125928621 -0.2502636979060895 -0.14550502647503236 -0.04020440121170964 -0.41833366961380336 -0.4990119000470208 -0.13380862424931544 -0.3119993110679918
-0.7308853669018596 -0.21239504034973652 -0.1674613754145745 -0.6808809236170766 -0.23285306435139833 -0.32803488453930085 -0.9952206755570691 -0.056418774589895325
-0.3461103595657035 -1.3265150160853634 -0.12464625627877142 -0.3782144614528024 -1.6092023728935168 -0.15549488875264206 -0.33231526542281953 -1.8028361760610052
-0.2668269814962453 -0.19136051971922394 -1.0648796587338873 -0.08432014245338151 -0.1720283895243114 -1.5284555496782783 -0.11873633813300626 -0.226840687059708
-1.7461112678526431 -0.16692784371864677 -0.20523283430795647 -1.9994951746213463 -0.2513949240085143 -0.03590345005524712 -1.030345283345597 -0.1058626011320691
-0.05428972049342879 -1.3872361076531579 -0.16052944826537607 -0.06584319177099007 -1.6655613588424472 -0.2547700481897786 -0.10787565112013582 -1.909524840401264
-0.2747325452409334 0.1327694146299868 -0.8914043931586284 -0.19405529919695658 0.06274973215038153 -1.1889700175648505 -0.24988191286037875 0.05873725243489924
-1.4305334666835134 -0.24561918495417384 0.09022637754537229 -1.5989977519316096 -0.26800846456757627 0.0 0.0 0.0
0.0 0.0 0.0 0.0 0.0 0.0 0.0 0.0
0.0 0.0 0.0 0.0 0.0 0.0 0.0 0.0
0.0 0.0 0.0 0.0 0.0 0.0 0.0 0.0
0.0 0.0 0.0 0.0 0.0 0.0 0.0 0.0
0.0 0.0 0.0 0.0 0.0 0.0 0.0 0.0
0.0 0.0 0.0 0.0 0.0 0.0 0.0 0.0
0.0 0.0 0.0 0.0 0.0 0.0 0.0 0.0
0.0 0.0 0.0 0.0 0.002014815025937836 0.028355157041221643 -0.017069129956414155 -0.26062637952004974
