backend/FastApi/sign_language_data/B/B_16_aug1_mirrored.npy (npy, 30368 bytes, 1 tensors)

array f8 [30, 126]
00000000: f64c 22dc e179 8d3f 7d54 dcf1 b816 a9bf
00000010: 0345 3363 1dae 6dbf c4d4 2c29 dff4 c93f
00000020: d783 879c badc c9bf e45b b6c5 f64b bebf
00000030: 0bbe 4e9f 9a56 d83f 38dc b49e 931c e2bf
00000040: c5bc a01a fb5c c3bf a28d b960 97d0 d23f
00000050: ecaf 2f68 906c e9bf a20e 13ea 2e42 d0bf
00000060: b539 69ee db83 b93f 29cf 25be 03db e8bf
00000070: 50bc 0fae 51ff d1bf 0463 04b5 e405 ce3f
00000080: 76f9 ecec 4c47 f0bf 58ff b93f 12c8 b4bf
00000090: b9b3 0b05 8d50 d03f e4d5 eab0 c63a f7bf
000000a0: 6a5b 1a37 3de2 bfbf e8a6 235c 4ba8 d13f
000000b0: 498b 550c 65be fbbf 1151 142f 3250 d0bf
000000c0: 378d 560e 8b56 ce3f c947 9f3d 1350 febf
000000d0: ef9d 3070 968d d2bf d992 9b23 63f2 b13f
000000e0: 6e4b 3023 3c5c f1bf 2260 d847 7dea babf
000000f0: 6962 4a35 eb1a b93f 339d 3852 085c f8bf
00000100: 936b 80cc 3fe4 c8bf 456b c02c f5a2 b83f
00000110: 4471 03f3 23d5 fcbf b5dd 21e7 e2ae d0bf
00000120: 5a1d 458d e468 bd3f 2b8b b209 065c 00c0
00000130: 3f08 dd02 f8a9 d5bf cb6e b33c 215d b9bf
00000140: 6a9b 0d92 bf3a f0bf d71e 94e2 9457 c2bf
00000150: bcc1 192b a5c6 a4bf c06d 9c99 8d75 f6bf
00000160: 8187 bd9c b5da c6bf d478 5c41 d4f3 a2bf
00000170: 8426 1b85 9afa fabf c0dd 07a6 a76a d3bf
00000180: a7ca 5555 e7ef 77bf c8ec eaa9 7b8b febf
00000190: a3ff b240 f720 d6bf ba69 13f0 a1c2 c4bf
000001a0: 1347 7bab 94d2 ecbf 3c28 dbdb d999 cabf
000001b0: 10a1 70a4 d995 c9bf 8e61 9447 f037 f3bf
000001c0: 4a15 0074 f657 d1bf d6d3 01db 30b5 cbbf
000001d0: a449 771d 6dcd f6bf 6708 3d7d 3deb d4bf
000001e0: c456 239c ecb3 c2bf 90aa cf93 52f7 f9bf
000001f0: f46c cfc8 8356 d2bf 508e 0f8a 0891 88bf
00000200: d71a 4e8e 9693 9fbf 16ea b652 75e3 663f
00000210: 7a13 ebad c082 6ebf bcf6 1fac 92b5 9dbf
00000220: 25d1 48a5 cffe 923f 3ddb 59ea 8160 91bf
00000230: 20c5 b072 a363 94bf e9f1 4a38 0812 913f
00000240: 458a ea6a 7ca6 98bf d50a 631e 8dd9 97bf
00000250: a6c7 f8c4 a7cb 853f 2370 0081 b651 9abf
00000260: 5873 093c e3c8 8dbf 6355 6ca1 77b9 7f3f
00000270: 0af8 af37 6e54 633f d40b b04e 3736 a1bf
00000280: 7a24 6fcc 480a 993f 408d e448 fad5 4cbf
00000290: fb49 480e cc83 a6bf 3028 bea9 cc1d 973f
000002a0: e174 3c63 d1ee 6bbf 03a8 ae38 614f a0bf
000002b0: 1b6b 1234 4eab 743f b317 b9ec 732e 643f
000002c0: e520 8955 5307 96bf 3d46 2043 fb20 923f
000002d0: e433 6d10 3581 86bf 39ea ffc1 3411 a0bf
000002e0: 4b65 d523 74b3 8f3f 34f6 d069 d0a3 87bf
000002f0: 353b d0b0 e05b 86bf 3d7b 90a2 58fd 8f3f
00000300: 47b4 e281 4b6b 96bf 5f88 74e7 8d2d 80bf
00000310: 3cf2 b88b 407c 933f fbb5 84aa 611e 873f
00000320: b0ef 9f2c 4f33 a7bf a9d1 219d b03b 60bf
00000330: 5411 7c7c 7429 71bf ad4c b6e1 11f1 a0bf
00000340: 216d 3c73 8418 913f 0c71 3e6d fc71 7bbf
00000350: b6dd b6fc c4a7 83bf e721 30f2 65c6 a13f
00000360: 33b8 e554 443b 7ebf 34f2 c22b de5b 89bf
00000370: 3503 e54e edd9 993f 02c8 ac3e 6ed0 87bf
00000380: 0ec8 3c0f 04b0 9cbf d3c6 035b fe03 8d3f
00000390: db64 a057 6590 8ebf 11a4 5421 fafd a5bf
000003a0: 83a2 d050 29d7 8f3f 9a11 a2e5 afbb 713f
000003b0: 6d17 42a3 1484 a5bf 2122 d8be 7758 943f
000003c0: c813 1b78 dec0 89bf df6f 87ce 1b2e 92bf
000003d0: ac0f 0fcc bb3e 943f f79b 5e28 9212 663f
000003e0: 0b1c ce49 41a7 8cbf 6248 57ef 0f79 933f
000003f0: 386a 736a 38c6 77bf c881 b3a7 6b72 7d3f
00000400: 7d25 9b14 c6af 99bf b38d dff1 06f0 cd3f
00000410: 6bf9 fe6b 4c45 c6bf 516d 87fe 6328 b1bf
00000420: 2a73 bff3 e306 db3f b569 87be 601d dbbf
00000430: 614d f471 0098 c1bf 9284 487f 5c85 d73f
00000440: d260 d21c 432b e7bf 0719 e3ee a3fa c5bf
00000450: 534a b6b8 061c c43f 1560 21f3 1f01 e7bf
00000460: 296b 06f0 e673 d1bf 1b32 c8fa b2e0 d43f
00000470: 0917 d88d fc2e eebf d071 a3b3 17d9 b5bf
00000480: 847f b2dc 13aa d63f c047 244a 2f39 f5bf
00000490: 88ad 4da3 22e5 c1bf 4646 97b8 2114 d83f
000004a0: a638 995e 6d17 f9bf 82ff 1cc8 7bd0 d1bf
000004b0: 849b d8bc 8e26 d53f 9344 c52f 1b8c fbbf
000004c0: 1936 b41c f370 d0bf 56b5 aa1c d3f5 c53f
000004d0: 2316 3354 d028 f0bf 487c e40f 13e2 b2bf
000004e0: 9ecc 77b2 3e3a ce3f 1bd0 156b a598 f6bf
000004f0: 2ec2 5567 fe55 c3bf f16f c662 4221 cf3f
00000500: 9aa6 3e92 9a63 fabf e9b1 0e9c 971d cabf
00000510: ca73 e0bc 5a99 ca3f fcd2 2c84 6439 ffbf
00000520: f469 a211 b39f d2bf dc35 9a31 a731 b33f
00000530: 4e12 91a7 7f85 efbf f82a 3a30 bd8b b7bf
00000540: 3720 7e12 da39 ba3f de15 53c2 4182 f5bf
00000550: 5509 f124 c322 cfbf dcb7 d5a0 fa33 b53f
00000560: 4d30 5821 f23a f9bf 8df8 73bd d98f ccbf
00000570: d1ce 32d4 5507 b83f 38ff 6019 6f21 fdbf
00000580: b021 81cd cef8 d1bf d749 d1fb 2681 b5bf
00000590: ba34 d114 aae4 ebbf 8293 286a 3cf3 c8bf
000005a0: 669a 1463 b3dc babf 8f6e a5e0 30b9 f2bf
000005b0: ab2f e00c a691 cbbf f81f 4894 959c b8bf
000005c0: bc79 3bae 2eae f5bf bff6 b3b9 7157 d0bf
000005d0: dc94 b362 81be adbf a119 8635 a66e f8bf
000005e0: b0bb 96e2 ffcd d2bf 48bd 661a a96f 9e3f
000005f0: 171d 212c 3160 71bf 5561 feba 46a9 9e3f
00000600: 39d0 24ea 61bd 623f 362b 4297 c014 893f
00000610: 204f 8f8a 8b7d 903f e9a5 4043 a8bc 953f
00000620: 0f6c 396a 5c6a 88bf 8ac9 1766 aad7 8a3f
00000630: 0d0b a386 6afb 4ebf ceef 4cf4 014b 883f
00000640: 5aeb bf07 2346 903f a221 647d 5c5a 52bf
00000650: c6a6 eebc c793 8b3f 796a d87b 8557 80bf
00000660: 3a4c 4093 16b3 943f 1e13 624d d359 83bf
00000670: 7906 1975 62eb 803f a742 701a 9ea8 8d3f
00000680: 5b49 2626 9ffc 80bf 7059 1492 985f 913f
00000690: 207d c1b6 f736 4fbf 2952 494c 2310 823f
000006a0: 1b5a 8bb1 796e 953f 2869 8e16 c24a 913f
000006b0: e358 1687 77db 72bf 3d8d 0a41 839d 7b3f
000006c0: 3d43 cba1 4a37 993f 3511 4b13 9315 91bf
000006d0: b0f3 6fc9 351f 983f 6210 7499 2423 9c3f
000006e0: a9ec 9bec 4daa 80bf 09f2 a737 be7a 803f
000006f0: 719f f58c 5fb7 893f d408 3fd1 dd23 703f
00000700: 41ef 9422 813c a13f b502 5fef 16de 923f
00000710: c5e7 373c c8a5 85bf 2829 c9b5 f416 833f
00000720: 52dc d555 fdc5 963f 7fe1 e456 df62 8abf
00000730: 30d3 b8e7 65ca 803f 7eef 04b8 e322 853f
00000740: 4706 86be e0c4 6d3f b767 9221 cd32 863f
00000750: 0aa1 78f5 129c 7a3f 705f cbfa 0960 71bf
00000760: a660 6281 daec 903f 4908 ef4f 4a64 903f
00000770: f582 cdcf 681a 853f 00ed 8023 287b 913f
00000780: 3684 a322 5526 52bf d819 d632 1104 73bf
00000790: 8d21 1dea 4996 883f 6b82 aa21 5e4e 9f3f
000007a0: 213a de78 2d70 783f 85c4 ee26 b9f9 813f
000007b0: 49ce 25eb dd74 933f cdb9 88cc 2004 7a3f
000007c0: 5df2 84b6 a37f 9a3f 24be 5c92 dc31 8e3f
000007d0: 07d8 8828 e739 8b3f 6f44 c726 267a 863f
000007e0: 4553 c45f f306 5bbf 3887 865c 4501 7abf
000007f0: 6f01 2b1d 7f40 a5bf 4b95 22a9 dc9f cc3f
0.01439262822194685 -0.049001483463293895 -0.0036230634665136443 0.20278539190772993 -0.2020486130050176 -0.11834661795579354 0.380285888265434 -0.5659883594261208
-0.1512750511187503 0.2939814037874503 -0.7945024523628468 -0.2540395055659507 0.09966826029378846 -0.7767351831266512 -0.281208438856031 0.2345548519013151
-1.0174073462399895 -0.08117784553360019 0.254916434218838 -1.4518496428330474 -0.12454588504111333 0.2758968734548106 -1.7339830858042709 -0.2548947772750277
0.23701608848669206 -1.894549599372555 -0.28989182430311095 0.07010478610352368 -1.0850182890469244 -0.10514052394899001 0.09806699801482356 -1.5224688731921787
-0.19446561322623931 0.09623653738564737 -1.802036237021711 -0.26067421504509564 0.11488178681348896 -2.0449333913433256 -0.33849907188062284 -0.09907729846912187
-1.0143428521348263 -0.143297777780609 -0.04057804251795313 -1.4036994934493663 -0.17854948190057132 -0.03701651857248725 -1.6861825179534273 -0.30338469709337446
-0.005844024320469521 -1.909053481808586 -0.3457620746448759 -0.16218971464588866 -0.9007056569336974 -0.207820160247424 -0.19988556412977987 -1.2011568828657775
-0.2709938175979302 -0.21646700566966953 -1.4251528883947708 -0.32685792188943313 -0.14611585258415094 -1.622881486308561 -0.28653044329048716 -0.011995379174499693
-0.030836441455472787 0.0027940074412218336 -0.00372445709885699 -0.029012958293597832 0.01855015226665659 -0.01696970932831764 -0.019911340594437665 0.016670349536740323
-0.024072593713422092 -0.0232908296391184 0.01064234800205439 -0.02570233499874076 -0.014543319005662234 0.007745234782097074 0.0023595955549344837 -0.03361676059287047
0.02445329425589591 -0.0008800003140873383 -0.04397428202004857 0.022574613437918056 -0.0034097756960266156 -0.03185561959192287 0.005046182138495304 0.0024635566858561496
-0.021512319656069052 0.01770393941121128 -0.010988630832480646 -0.03138127201232916 0.015478999465517026 -0.011542919377570994 -0.010917430301586964 0.01561993833644026
-0.02189367275484624 -0.007899387956573798 0.019028671768170677 0.011288416878040932 -0.04531333369956714 -0.001981587361166788 -0.004189925217137198 -0.03308921699785947
0.01669508889527294 -0.006700502435617272 -0.009597338640431424 0.034716783346144635 -0.007380740089827187 -0.01238225527810597 0.025245387974112538 -0.011628018653571107
-0.028015197210329794 0.014167773392247984 -0.014923850762033222 -0.04295331627719901 0.01554710653188463 0.004329382989571329 -0.04202332013032515 0.019868727706155668
-0.012574899711930501 -0.01775401542714394 0.01977055962539935 0.002694402183766705 -0.013990888657430053 0.01901650331803529 -0.005804272054968744 0.00718919804350588
-0.02508458615083019 0.23388754663674902 -0.17398982308618413 -0.0670225616844864 0.4222955589628322 -0.42366808515876225 -0.1374512249391087 0.36751472883231273
-0.7240310252118667 -0.17171143688592158 0.15710529345649835 -0.718887305130013 -0.272699102782712 0.32621454706603153 -0.9432356615440948 -0.08534381995872953
0.3541307120558417 -1.3264611145173006 -0.13980515455055476 0.3762287428517975 -1.5682195372824395 -0.2783498243552388 0.3304783672523899 -1.7217056146658123
-0.25689389994735873 0.17156447314975293 -1.0099643029256036 -0.07376212251664171 0.23615249361282492 -1.4122671301856886 -0.15106182141927732 0.2432024938869968
-1.649317332523799 -0.20402808303823797 0.20780500624178294 -1.9515118754472374 -0.2909972831927512 0.07497639618869506 -0.9850462219988658 -0.09197599818632429
0.1024452490947859 -1.3443009939959363 -0.2432483606699615 0.0828243868506599 -1.5768910696524643 -0.22313997030864066 0.09386192732454936 -1.82066259301787
-0.2808110243682007 -0.08400195739640225 -0.8716631323419712 -0.19492297347565218 -0.10493012589413694 -1.170212628864565 -0.2153823435659182 -0.09613928671035399
-1.3550249868345494 -0.25533717284256946 -0.058094065950891255 -1.5270139780783227 -0.2938232147961868 0.02972282622948555 -0.004242126540766187 0.029942612803638486
0.0022875702281002466 0.01224661313633178 0.01610391648485099 0.02122748289563062 -0.011921617500027208 0.01310666202605117 -0.0009454984804267722 0.01186181570812286
0.015892550800326567 -0.0011201766224663086 0.013465462163213881 -0.007979433862648865 0.020214417207238912 -0.009448672102971008 0.008261460493602645 0.014481768781508931
-0.008294337608081894 0.016966232219681243 -0.000952597574279599 0.008819843068672633 0.020929242574164158 0.016886742235876856 -0.004603831200617334 0.006742012702179165
0.024624982953187703 -0.016683862736287487 0.02355655710197241 0.02747780977826187 -0.008137329848514634 0.008046613763320403 0.01255678795742174 0.003940454935163557
0.03366473719731156 0.018425329551748876 -0.010570110643118977 0.009321128652250169 0.022239645351387623 -0.012883896674438898 0.008198543676465414 0.010320452740977034
0.003633917764262393 0.010839083277733736 0.006496500070660946 -0.004241980536526899 0.016528524538984478 0.016007577065245724 0.010304278222692068 0.01707136837670209
-0.0011077720069396896 -0.00464255064196669 0.012005403000913595 0.03057238655549314 0.005966355920362904 0.00877709055007104 0.0190004992268327 0.006351593132917843
0.025877531066031845 0.014743540970442011 0.013294034885898766 0.010975168283865437 -0.0016496063900081775 -0.006348868315770244 -0.04150769454054425 0.22362859972524016
