backend/FastApi/sign_language_data/B/B_17_aug1_mirrored.npy (npy, 30368 bytes, 1 tensors)

array f8 [30, 126]
00000000: 4e1c ad2a 5a60 943f cb26 4a45 163d 88bf
00000010: 7a71 c7c7 d5b7 4b3f e9a1 63ff 778b d23f
00000020: cabe 7421 9495 c4bf 5be0 116c 8504 babf
00000030: ea21 8066 1b5e e23f 7362 b37e a143 dfbf
00000040: 1e05 2fd4 18b6 c8bf 420f 9642 a4eb dd3f
00000050: 5575 d055 2246 e8bf 19d8 0e39 0a8d d0bf
00000060: 2337 50f1 f39b d23f f779 7a56 0838 e8bf
00000070: b8c1 61cb 96f9 d5bf be49 ffde 751d d83f
00000080: f1d8 5290 8c3e f2bf 50ac 2772 c2ee bdbf
00000090: 92ab 8a9a c2b7 dc3f 022a f833 b03b f8bf
000000a0: ebb9 e764 2a9c c8bf f5fb d309 6ac0 dd3f
000000b0: bfca 389d 91ef fbbf 886d 3cf3 5905 d2bf
000000c0: d01f ee76 4e99 db3f 9022 6396 9a5e ffbf
000000d0: a99c 0039 20a5 d4bf dc68 0797 64c6 d13f
000000e0: ecce 07bc e8c6 f1bf 8db5 0f1b ee75 b3bf
000000f0: 67e2 dec7 10ba d23f cf51 b09d 74cd f8bf
00000100: 4ee3 d58c 5bdf c5bf 43bc 87ce f48b d23f
00000110: 376c 3022 49f7 fdbf 5540 34c6 7461 d0bf
00000120: e8c3 cb92 6ed6 d33f f026 624c 5b77 01c0
00000130: 5a31 0b0b d9cc d3bf e3d5 e00f fd61 ba3f
00000140: ab02 f9ad 5b31 f1bf bd1f 653a c5b3 c1bf
00000150: 05db f10a 8065 ac3f ce82 58e5 2175 f7bf
00000160: 5c07 3793 bdcc cabf bcea 5189 071e bd3f
00000170: 53c4 0056 c23b fcbf 6ea4 c381 be63 d3bf
00000180: 9649 ffb3 af03 c13f d297 60a8 ccac ffbf
00000190: 1851 7595 5350 d4bf 0a52 c981 4a58 9ebf
000001a0: 7be4 afca a6b4 eebf ae1d b158 3064 cabf
000001b0: 6ba4 ada3 09d4 a4bf 2f96 3d03 fdce f3bf
000001c0: 186b 8ae2 6a06 d1bf 1c66 f660 f49d a1bf
000001d0: f431 41d9 5eef f7bf bc2c 7e49 b206 d6bf
000001e0: bd02 63d5 0a1d 69bf 4a97 d5f3 0be1 fabf
000001f0: 4b08 4c37 b2d3 d3bf 05fc 57ea 92e9 893f
00000200: 4c24 a16e 35f5 9abf 1bf9 2797 ada7 943f
00000210: 0547 8cdf c043 973f 1ae7 9477 ee46 88bf
00000220: d458 fd7e 3ff1 9a3f 3b6b 8afe 452f 61bf
00000230: 5ae7 bdac 09ae 8cbf 5af1 d0c4 5d82 463f
00000240: ed30 80cf f61c 9a3f a311 b7fc 4555 8dbf
00000250: 0765 f8d4 17ce 983f 72ea 1fd6 6771 813f
00000260: 88f6 e242 edee 93bf e7ad 2143 5847 8a3f
00000270: ec6e 9776 6cb3 943f 5fbd a359 6a83 88bf
00000280: 4a3e 182b 7cf1 79bf 675c 9fe5 9e27 a23f
00000290: 7f36 c04b 89dc 8dbf 325f 9616 ea4d 953f
000002a0: 9209 8d03 bd67 a33f 507f 9893 8a47 89bf
000002b0: 71cd 4249 06fc 963f 8d29 76ef 70ea 8f3f
000002c0: ff80 bb82 7864 83bf df74 f326 79bf 923f
000002d0: 47c1 ab67 d255 9c3f 324a 9842 fc48 92bf
000002e0: 1cba 9670 f143 983f 9bf1 2cec 7b15 a53f
000002f0: 9017 f94b 20c7 62bf 26ed d13d 0fa9 9b3f
00000300: 7e24 80dd 6785 883f f3f6 3d00 2a48 8bbf
00000310: e54f 0155 81fa 793f dded e662 27a6 9b3f
00000320: 5e7c 8356 84cc 94bf 68d0 2dd8 80ad 963f
00000330: b09f 4448 9e97 9c3f 0cf6 cfe9 86d9 8bbf
00000340: 3f16 23b3 42b1 963f a0af d7f8 7e24 963f
00000350: 1eca ba6d 6b28 9cbf 8127 45e0 f1d7 7f3f
00000360: 4d8d bdf5 3199 9e3f df9d b56d 4bb2 9cbf
00000370: da2d fa5a c246 883f 61c8 2df4 3e5e a63f
00000380: 6d27 dde3 7d02 68bf 3408 6116 167d 7e3f
00000390: 440e 2c4f d5bd a43f a4dc 9779 227d 91bf
000003a0: dd9f 0750 612a 883f d9b3 0c36 66a7 a03f
000003b0: b0db 3bd0 f66d 9cbf c11b e377 d095 993f
000003c0: 1beb f8c3 2cf8 913f a73a 6107 e44f 99bf
000003d0: a647 f461 be1d 933f 7fe9 4278 29c2 9c3f
000003e0: d229 c4e6 58f5 85bf ab41 dfd4 3763 813f
000003f0: ff49 acfc f1eb a13f 291d ecb9 273c 953f
00000400: 70b7 6830 a23f 7cbf 4615 c7e3 56dd d33f
00000410: 9f41 a033 89f4 c2bf 40a0 5dcd f81a bbbf
00000420: 87ff 53c1 ae16 e23f c865 826a 0adc d8bf
00000430: 4632 d2c4 29dd ccbf e2b5 8092 fd64 e03f
00000440: 1dd8 8136 8bef e6bf 0db3 b5db b7b3 d2bf
00000450: 479a d55a b0d8 d03f c18c 1499 7d47 e7bf
00000460: 95d9 ca34 c12e d6bf 037c e72e 0a03 de3f
00000470: d309 00d4 24dd efbf cbe2 b2a0 c034 babf
00000480: 5411 ea35 8ef1 df3f 1505 d877 3867 f6bf
00000490: 2e55 41c5 71dc c9bf e718 5ac5 9e28 dd3f
000004a0: 71d3 da78 ce33 fabf 587b acb8 609f d5bf
000004b0: 2bad 3041 28ad de3f 2d2b 7d1e 938b fdbf
000004c0: 076d 254b b598 d6bf e5c9 2bce 313b d53f
000004d0: 168d 61d5 e353 f0bf 957b a7e8 0be5 c0bf
000004e0: 0d12 d622 f7fe d53f f5ef f1f0 7d92 f7bf
000004f0: fa63 1526 220d cbbf 7c57 75dc e7f6 d63f
00000500: d2f7 94e5 c243 fcbf e601 cca6 e76b d1bf
00000510: 67ee 757f c5f9 d33f 2dee 7f5e 3c34 00c0
00000520: e77e 340b c668 d3bf 77dc b89a b436 c23f
00000530: f99b 281f 8945 f1bf f230 0f71 289b c3bf
00000540: 38dd e53c a23d c63f 012d 132c e269 f6bf
00000550: 9bb9 9ffb 0a08 d1bf 1214 8aa5 5d1e d03f
00000560: 51ad cf88 b6d8 fabf 4d49 d4d3 dc28 d4bf
00000570: 09e2 67bc f8a6 cc3f ff3a 2844 76ac febf
00000580: 131e 51c3 024e d4bf 6de8 19a3 6a3c 80bf
00000590: 6a13 cd86 096d ebbf 1a00 8f89 55e2 cabf
000005a0: 3104 fb23 29ed 8b3f bd81 df41 8fb6 f3bf
000005b0: 0823 2d69 a6d6 cebf 784b 4f51 894c b03f
000005c0: eb03 b6df 2314 f7bf 8eef 5d90 1adc d3bf
000005d0: 86ef ae53 7f5f ac3f 80d0 cf02 5a4f fabf
000005e0: 7558 0a3e 2e17 d5bf 6bd7 12ad 4bc6 9d3f
000005f0: 5190 6eca f3a0 86bf 1d06 9b2d 0795 91bf
00000600: ec5c fc76 88a8 9e3f 46cc 6e6c 20cc 9abf
00000610: 348c 9f55 85cf a2bf 2a59 47e5 984e a03f
00000620: 71df 5f26 fc0e 70bf f8c6 cbe9 43f3 8bbf
00000630: 33cf 87f9 5c87 a83f ef98 ab7a 8b04 92bf
00000640: 1db9 b8fc e632 9dbf bb5a 6399 f450 8f3f
00000650: 2e9e 1b89 16bd 7dbf b88e 8148 7196 8dbf
00000660: e290 a960 0dec 943f 36e6 910d 3d0b 8dbf
00000670: adff f7bc b57e 7bbf ab4f 0c2f d463 843f
00000680: a52d 3b79 24e4 a0bf 115a 1831 97f4 99bf
00000690: a7dd 5d2c 0ec0 7f3f 20f0 b3a7 7d51 91bf
000006a0: ef84 a676 6535 95bf ab1e f88c 8894 973f
000006b0: ae07 6ef3 a279 a9bf f8a4 343a 49c8 9bbf
000006c0: 4a03 733b 57dc a13f fa61 fb88 21b6 99bf
000006d0: c08e 988f fff7 a1bf b116 e537 283b a23f
000006e0: 45d0 cf19 28b2 64bf 3de4 8546 6876 9abf
000006f0: d1da 5018 8573 9e3f b096 a545 da71 87bf
00000700: 9f23 132f bc14 94bf 4590 70c9 dc4d 9b3f
00000710: ef0f 4cac a3e0 9cbf 1ee0 4aa1 7c4b a3bf
00000720: 298a 243c c6ee 843f 3aa6 eee1 77aa 94bf
00000730: 68de 6d9f 6866 a7bf 256d 7464 ffcb 9e3f
00000740: 77f7 0a8e 0acd 80bf 3117 f5be 783a 98bf
00000750: 0f44 c9ea 82b9 a03f fcfc 5092 d316 9bbf
00000760: f353 1a75 3000 96bf 95da 07f1 53eb 743f
00000770: c479 efe3 917e 98bf 985b 14c6 3855 7dbf
00000780: ed69 f653 a46a a63f a4f8 7c97 c23a 8ebf
00000790: d121 9708 e4b0 84bf e454 d088 0dc3 973f
000007a0: c5ff b5a1 77db 62bf 45dd 8f38 0bcc 8cbf
000007b0: b145 7f94 3d7d 803f f04f ad23 0373 a2bf
000007c0: 75c7 ed7a eb45 80bf d899 b979 6781 903f
000007d0: 172e d850 57b8 99bf 1c83 9556 0b05 94bf
000007e0: db1c dd39 183b 8bbf 131f c310 1d18 9b3f
000007f0: 6141 9d88 2593 983f d8ad a9f1 0b46 d23f
0.01989880452608999 -0.01183526419596905 0.0008458894586130105 0.2897624963793804 -0.1608147776946594 -0.10163148773597312 0.5739876749003632 -0.488502858859227
-0.193057159047421 0.46750742437892623 -0.7585612941799506 -0.2586083943564304 0.290768609674034 -0.7568399132758817 -0.34335870610723473 0.376798122187349
-1.1402707708016886 -0.11692443167673727 0.44871583072625143 -1.5145723371557556 -0.19226579596529744 0.464869031522482 -1.7459884778478878 -0.28157662156601093
0.43123208631777477 -1.9605966448308756 -0.3225784832633943 0.2777339434520749 -1.111061796659608 -0.07601822052648384 0.29260653990380664 -1.5501600417820673
-0.17087883354886418 0.28979225319830365 -1.872872479964611 -0.25594825130338467 0.30996288619559076 -2.1832796065763134 -0.30937791899193245 0.10305768621113702
-1.0745503230865932 -0.1382986579067146 0.05546188481905826 -1.4660967787569237 -0.20937318504553104 0.11373946287668962 -1.7645896300785082 -0.302962900851134
0.13292499817778197 -1.9796873643149309 -0.317402740435925 -0.029633678599866577 -0.9595521887523683 -0.20618252115876373 -0.040680218916187304 -1.2380342604241255
-0.2660166942893496 -0.034408222995988974 -1.495940064097451 -0.34415871789014907 -0.003065606269132408 -1.6799430393961807 -0.3097959079751759 0.012652538086511464
-0.0263260220311035 0.020170891142691532 0.02271939625194987 -0.011854041122763049 0.026310913205940548 -0.0020977370334781787 -0.014003825744783139 0.000686927590897872
0.02550111428722428 -0.014322802328828049 0.024223682759928724 0.00851708528715742 -0.019466120917732727 0.012831391857807751 0.020215697038891742 -0.011969405041297674
-0.006333813698361343 0.03545853188523367 -0.014580795883399887 0.020805032375931627 0.03790083568903237 -0.012343485478652078 0.02244577238225304 0.015583879764353959
-0.009468976487767565 0.01830853748548555 0.02767113454587047 -0.017856542172078167 0.023696682450173964 0.04117953546526395 -0.00229221637690364 0.027012098453707577
0.011973201224480198 -0.013321235782992135 0.006342416003537442 0.02700101414823829 -0.020311420231220338 0.022146237558857612 0.02792212787713283 -0.013598493585955239
0.02216057031980356 0.021623596132414158 -0.0274979387019788 0.007774300411549252 0.029881268142515172 -0.02802389008630068 0.011853712464719491 0.04368778925608364
-0.0029308756628880135 0.0074435103215951155 0.04051081267791948 -0.01707891337534008 0.011799583678069265 0.032527155015806115 -0.02776322980841045 0.02498555881245657
0.017548274480058895 -0.02471882147829754 0.018668150643015878 0.028084419217273556 -0.010721869032313789 0.008490024741974652 0.03500324448954827 0.020737286303327416
-0.006896623183406322 0.31038448566353727 -0.14808764477539868 -0.10588030828296358 0.5652688766422082 -0.38843021775536757 -0.22549936399845388 0.5123279439337092
-0.7167411865800691 -0.29221912818938806 0.2632256400160355 -0.7274768819665028 -0.3466036811400042 0.46893553333751486 -0.9957451000812462 -0.10236743853864565
0.49911837830611216 -1.4002003365897668 -0.2020399296913324 0.4556042601838172 -1.637648079003352 -0.33785265001818265 0.47931867948746526 -1.8465758505796643
-0.35307056749816507 0.33173794874087853 -1.0204809508512134 -0.13198994503087805 0.3436868515202896 -1.473264638129874 -0.2113382993655078 0.3588199284471256
-1.7665432899516316 -0.2722109917522445 0.3121198410733314 -2.025505769995809 -0.3032698735641887 0.14229447893896793 -1.0794764725812895 -0.15317254562831512
0.1737559125283299 -1.4008504602123255 -0.2661158997788335 0.25185338178590755 -1.6779084533871649 -0.31499405561875876 0.2238455696058426 -1.9171049749745064
-0.3172614009276639 -0.007927735426381777 -0.8570602066834969 -0.21003216950157438 0.01363594189695236 -1.2320702145735674 -0.24092559943735403 0.06366785273648456
-1.442417024489482 -0.3103090677102437 0.05541608711743522 -1.6443729505381555 -0.32953983362802514 0.029076750219892682 -0.011049179663878446 -0.017170059355299572
0.02993977762443205 -0.026169306390965617 -0.03673950834470255 0.03184964941799458 -0.003920540772007417 -0.013647585461032716 0.047907739124552505 -0.017595462190819807
-0.028514489340687555 0.015291129046471999 -0.007260406522369629 -0.014447102570734102 0.0204317178962733 -0.014181591965313971 -0.006712636866268368 0.009956033407014639
-0.03299058894989607 -0.02534710156586512 0.007751517643434103 -0.01691242538525739 -0.02071150337872479 0.0230275474587233 -0.04975613805346711 -0.027131218125906437
0.034884191519728505 -0.025108837114062844 -0.035095201758193806 0.03560758287725941 -0.0025263579577714823 -0.02584231310308759 0.02973754845535376 -0.01144762539906749
-0.019610348103728744 0.026664209170249604 -0.028200681105786825 -0.037685293854736054 0.010221050939951475 -0.020181534924324597 -0.045703191243714525 0.030075064188264684
-0.008203585109523221 -0.023660551695932234 0.03266533962290207 -0.026454263501588735 -0.02148509707201991 0.00510723867090825 -0.023920325791431343 -0.007161351940587667
0.043782363175711804 -0.014760513542224914 -0.010103017341763472 0.023205005145503402 -0.0023019157940211443 -0.014061057723650303 0.00805137738635406 -0.036033723931410466
-0.007945861519804013 0.016118637852196332 -0.025117267903665388 -0.019550492438955222 -0.013296307817326205 0.026459173343737662 0.023998819793008667 0.2855253086078995
