backend/FastApi/sign_language_data/B/B_19_aug0.npy (npy, 30368 bytes, 1 tensors)

array f8 [30, 126]
000000 e8 f5 9c 4f 52 cd 51 bf 63 66 8f b6 11 0d 91 bf
       -0.0010865501230478084 -0.01665141751059308
000010 58 16 1f 82 c7 86 8f bf 98 3a 97 45 9b f7 cd bf
       -0.015393789919367837 -0.23411885164246793
000020 a7 e3 a8 09 06 8d be bf ea d6 2d c8 5d 98 aa bf
       -0.11933934913476084 -0.051943712888641816
000030 20 2b 52 87 a3 4e dc bf e9 d2 cc ee 21 d0 d9 bf
       -0.44229973044336823 -0.403328402713028
000040 38 49 6c b5 64 00 c3 bf dc 62 56 41 f2 55 d7 bf
       -0.1484495054106192 -0.364620746427631
000050 55 91 2f 93 57 aa e5 bf 40 2c ff a0 fc 6d c6 bf
       -0.6770437121127012 -0.17523153172655448
000060 54 9e fc cd 34 bc c6 bf 24 ae 0a 9e 6d 0f e8 bf
       -0.17761859949063086 -0.7518833243133867
000070 ec 97 66 11 9f 16 d2 bf 73 97 1c 11 a9 cd dd bf
       -0.2826306981972937 -0.46567751570761756
000080 9c ff 4a 6b f0 18 ef bf b9 1f a8 a6 eb 92 a2 bf
       -0.9717943282666854 -0.03627716454872094
000090 69 15 7b ed 28 c3 e0 bf 87 3c 56 a7 ae 1c f5 bf
       -0.5238232267662798 -1.3195025002094398
0000a0 cc 33 03 eb 7e 12 c3 bf 47 da f4 f7 a9 28 e0 bf
       -0.14900194621296092 -0.5049638598346257
0000b0 d6 48 e0 ca 43 45 f9 bf 09 35 b7 1d f7 2e cf bf
       -1.5794103550766088 -0.24362076712569827
0000c0 fd 13 b5 1c 9a 52 e0 bf 4b 35 e2 ca 76 1e fd bf
       -0.5100832520189439 -1.8199375081197384
0000d0 a5 6d 41 a1 f3 fb d0 bf 1c 92 bc e3 a0 9d d3 bf
       -0.26537791011443296 -0.30649587860014704
0000e0 26 3b 87 32 2e 87 f0 bf cb 4a 27 e9 6a 07 b8 bf
       -1.0330030416259404 -0.09386318390105967
0000f0 78 f9 3c 7f 98 06 d6 bf f9 0b 09 c8 79 18 f7 bf
       -0.3441525690613143 -1.4434755147819927
000100 5d 36 2e f7 0a 37 c5 bf 10 e9 a6 09 b3 d1 da bf
       -0.16574227399216826 -0.41904903357102885
000110 3f 16 4f a5 04 a9 fb bf 5e eb 0d ee fd 0a d0 bf
       -1.7287641961460307 -0.25067089316842395
000120 0a 33 d7 2b 8b 33 d8 bf 9d b4 4f bc 1c 7f ff bf
       -0.3781459739810066 -1.9685332637703035
000130 99 0e 67 59 6b eb d0 bf ed a0 cd be 15 09 c1 bf
       -0.26436885576934227 -0.13308975044788643
000140 9e bb 2f 2c 49 49 f0 bf 90 47 51 a0 45 4a c2 bf
       -1.0178920484574756 -0.1428916008758816
000150 c7 73 b1 82 46 5b c6 bf 0e c4 06 9b 49 13 f6 bf
       -0.17466050511839468 -1.3797088676185498
000160 52 d8 23 72 10 a7 cb bf 6a 46 09 eb 4b 0e ce bf
       -0.21603589604609624 -0.23481129623774005
000170 14 dc 3d b0 64 5c fa bf 6a e5 fe af 71 88 d1 bf
       -1.64755696148291 -0.2739528864581958
000180 eb a4 fb ad c3 03 d0 bf 46 d0 b6 d6 54 ef fd bf
       -0.2502297591259565 -1.8709305178899895
000190 3f 6a 20 ef b3 01 d4 bf a8 6f 7c 93 29 80 82 3f
       -0.3126039347859297 0.009033512891214304
0001a0 60 d7 a3 89 46 1f ed bf 68 7b 93 b5 a5 84 cd bf
       -0.9100678146630621 -0.23061057439823718
0001b0 c7 e1 f5 93 40 30 a7 bf ab 29 6d 59 65 0e f3 bf
       -0.04529001051099928 -1.191014622995321
0001c0 17 02 dc 63 c9 e1 cd bf 4c bb 11 11 3c ac b0 bf
       -0.23345296264598467 -0.06512809197168429
0001d0 4b 58 4a c2 80 28 f7 bf 7a 51 da 03 7c dd d3 bf
       -1.4473884191006785 -0.31039333702326355
0001e0 17 52 bf 16 c1 74 b5 bf 5e e4 7e ce 82 43 f9 bf
       -0.08381277852397094 -1.5789821687924568
0001f0 2e 55 52 33 ae 98 d2 bf c5 02 fa c1 58 f6 94 3f
       -0.2905688763797397 0.020470988120453244
000200 20 b1 33 3c d6 1f a3 bf 7a 59 ac d6 be da 92 3f
       -0.03735227093588578 0.01841257272016026
000210 00 1c 5f 2b fa 00 9d 3f 3e c8 f4 fb 63 10 49 bf
       0.02832404031485325 -0.0007648933605308784
000220 35 0e 5c 96 39 3f 79 bf 91 92 ff bf 8a 4f 98 3f
       -0.0061638116365006395 0.023740928620002825
000230 a0 ad 7e a4 e3 bb 8a 3f 11 e5 60 73 ee 16 24 bf
       0.01305368276356128 -0.00015327130103218918
000240 08 7c 16 d8 9a 48 98 3f 53 1e 77 a9 e0 af 74 3f
       0.023714465559915993 0.005050542436442723
000250 de e6 8a 8f 4e 69 82 bf b9 44 6a da f1 1e 78 3f
       -0.008989919429370937 0.0058888862028122985
000260 71 51 63 ec 48 2b 80 bf 3c 9a 6f 94 23 27 84 3f
       -0.007895059312809068 0.00984027668705522
000270 87 cf 59 a7 dc 11 90 3f 03 6f fc ee 56 92 8f bf
       0.015693137850078222 -0.015415839355731991
000280 e8 70 e6 2b e5 86 95 bf a4 5a cd 19 ee 38 69 3f
       -0.021022396854832787 0.003078904190640346
000290 11 9c 95 11 a9 96 8f bf 58 b9 d0 40 0a c2 8b 3f
       -0.015424080704816519 0.013553695776945915
0002a0 75 cd 6f 55 4a a9 9c 3f 93 b0 f2 bc 64 e3 96 bf
       0.027989541496891108 -0.02235181239363777
0002b0 62 31 24 ca 50 bb 7a 3f 4d b9 0c 66 c1 b5 87 3f
       0.00652629431193605 0.011577139784631508
0002c0 69 01 c4 c8 6d 03 94 bf c5 a3 7a 35 c5 05 8d bf
       -0.01954433000446568 -0.014171162313987193
0002d0 33 c5 f3 1a 8d 28 90 3f 0f c2 fa 10 d7 88 8c bf
       0.015779690523179467 -0.013932876783060015
0002e0 18 2f ac d3 2a 33 81 3f e5 fb 65 54 d8 0b a4 3f
       0.008398375115141785 0.03915287046674346
0002f0 bf bd 18 0c 8e 07 97 bf 35 bd e4 b5 aa dc 7b 3f
       -0.02248975704986633 0.006802241170859082
000300 59 e5 4f e7 29 4d 9e 3f 5b 90 e3 25 f8 c3 85 bf
       0.029591231101197966 -0.01062768808009922
000310 05 20 f9 3b 20 f6 73 3f b0 a2 81 95 1b 03 91 3f
       0.004873395838849608 0.016613417625566285
000320 be 9b 21 a6 26 85 90 bf 95 78 1e 90 29 98 8e bf
       -0.01613293065056686 -0.014938664160407714
000330 da 4c f0 e3 1e b1 91 3f 19 c8 96 a3 fa 24 9b bf
       0.017277224218628408 -0.026508251413993465
000340 4e 72 2d e2 48 61 92 bf 8e 3c 01 72 61 0c 51 3f
       -0.017949236683636287 0.0010405494322361128
000350 a6 9b df 56 b7 f4 a3 bf 53 b2 4b 37 25 0b 63 3f
       -0.03897641120402477 0.002324650466439851
000360 2a d7 2c a1 b1 a2 95 3f 63 ba 35 6d 41 bb 90 bf
       0.021128440344191514 -0.016339323321000864
000370 e4 00 84 a9 e0 cb 8a bf d4 0c 35 0d 0e e3 8a 3f
       -0.013084178136069054 0.01312838533215769
000380 b9 75 61 71 39 1a 83 bf ca c6 47 cc 84 da 63 3f
       -0.009327362797359894 0.0024235337934833444
000390 17 52 81 47 12 b9 95 3f d3 d4 2b 68 4a 9d 96 bf
       0.021213803877190154 -0.0220843912201943
0003a0 e2 a4 80 2e 4a a9 38 bf f2 34 84 61 85 c7 97 3f
       -0.00037630139422846324 0.023222049786501615
0003b0 70 ce 8c 93 6d 81 87 bf 74 b3 61 b8 9b f4 69 bf
       -0.011477333131188788 -0.0031683961306527234
0003c0 76 88 17 98 fe 9c 94 3f 03 ea 89 ed 50 68 93 bf
       0.020130136521295992 -0.018952621935094182
0003d0 03 4e 3a 66 67 ab 91 bf 05 9d ec 65 73 49 92 3f
       -0.017255416502463216 0.01785831746670132
0003e0 51 ad c4 65 89 b5 90 bf 3e d9 0e c6 e8 de 75 3f
       -0.01631750758785461 0.005339535972714691
0003f0 44 95 2b b3 e8 94 97 3f e7 18 3d a3 2e 03 90 3f
       0.02302898019379042 0.015637139046952433
000400 05 aa a0 9c a2 15 a2 3f 73 85 f8 e4 2f 69 ce bf
       0.03532131349523485 -0.23758505516256498
000410 7b a7 e0 d6 23 91 c1 bf fe 06 45 18 ae 73 b0 bf
       -0.1372418212134184 -0.06426513760109384
000420 d7 72 5b 51 22 67 db bf 54 c1 e4 80 6b be df bf
       -0.42816980309525604 -0.49599731051695994
000430 8a 45 70 03 78 59 b9 bf 0a eb c7 5d 8f 94 d4 bf
       -0.09902143558453794 -0.32156738432210885
000440 42 e7 0b a9 80 d8 e9 bf bb 81 07 cb 5e dc c3 bf
       -0.8076785375298885 -0.1551626674036138
000450 ee 6e 48 56 eb d7 b9 bf d6 73 81 f2 f7 ce e9 bf
       -0.10095091682927279 -0.8065147148550931
000460 44 0b 87 7d 15 6b cb bf 27 0c 2f f5 eb 71 d3 bf
       -0.2142054427077601 -0.30382822936752735
000470 75 84 fa 67 4b 3e f1 bf 3b 8a f3 0a a0 b4 9d bf
       -1.0777086316741393 -0.0290093428310547
000480 e7 a3 0b d9 83 a1 d9 bf 52 a1 3d a6 12 7b f7 bf
       -0.40048309512945796 -1.4675470823077217
000490 bb 16 77 a2 87 b9 c1 bf fd f4 80 9f 67 59 d8 bf
       -0.13847442086096415 -0.3804568345693296
0004a0 eb e2 7f 7c 4e ee fa bf 0d 4d 89 9a 83 d8 ca bf
       -1.6831803191436687 -0.20973248525351842
0004b0 71 b2 a1 ee dc 38 d9 bf 25 cc af 4d 86 d9 ff bf
       -0.3940956430804255 -1.9906065973889409
0004c0 36 65 fc 8d aa 43 d1 bf 00 87 8d ab f0 24 cc bf
       -0.26975501886188924 -0.21987732292750906
0004d0 bd eb 4f 17 28 1a f2 bf cf a5 ce 30 e1 72 af bf
       -1.1313858900673346 -0.06142333718100767
0004e0 2c b2 7b 77 7a 39 d0 bf e7 10 3d 25 5b 8c f8 bf
       -0.25350820225029014 -1.5342666105871616
0004f0 87 5f 2c 21 93 29 c1 bf aa 37 55 65 71 4f ce bf
       -0.13408125991622574 -0.23679940650839387
000500 7c 21 79 2d f9 0e fd bf 9f 1c e3 2d b5 2e c6 bf
       -1.8161556030555337 -0.17330040684303058
000510 40 4b 9f 97 1f 97 cb bf 69 f4 6e 7a 70 53 00 c0
       -0.21554942038945946 -2.0407418789969154
000520 70 c8 9a 92 19 42 d1 bf 94 0e f5 b5 35 0f a2 bf
       -0.26965941731317056 -0.035272291623667545
000530 12 92 4c a9 e0 76 f0 bf 40 81 47 72 31 9d c4 bf
       -1.0290228474851841 -0.16104715423626637
000540 c9 db 0e 2f 8c ab bc bf 9d a7 36 93 cc d1 f7 bf
       -0.11199260853651007 -1.4887204885985519
000550 f8 27 a7 b7 82 79 ca bf 66 5d b7 bf be bb b5 bf
       -0.2068332096808374 -0.08489601307461711
000560 ac b4 6a ce e6 91 fb bf 1e 85 37 2a 43 ee cb bf
       -1.723120504680348 -0.21820869027491424
000570 5f a0 c8 43 f2 9a b9 bf 71 ac 1a 01 ca 95 ff bf
       -0.10002054362178246 -1.9740695994503563
000580 6e ff a8 c4 62 fb ce bf 58 f1 d7 05 07 3a c3 3f
       -0.24204668619676845 0.15020835671738086
000590 a9 67 32 0b 0c 95 ee bf cd cd 18 4a 67 c8 c7 bf
       -0.9556942194642392 -0.18580332868587704
0005a0 fd 3b a1 98 3e f1 b8 3f 9b 85 9d 2e e4 21 f4 bf
       0.09743109918893818 -1.2582742520247396
0005b0 7e 4d de fa ca df cc bf 9b a8 d5 25 85 12 b6 3f
       -0.22557961701805235 0.08622009442993532
0005c0 18 2a 7a 2b 0d b6 f7 bf 03 90 32 4e 65 fd cc bf
       -1.4819461534813225 -0.22648302381742277
0005d0 56 af c1 f0 b2 5e b0 3f c5 9a da 2d fd 91 fa bf
       0.06394499185415489 -1.6606418410462294
0005e0 e0 c5 ee 99 99 83 ca bf b7 74 07 c3 f3 69 94 3f
       -0.2071411134361787 0.019935425547249887
0005f0 15 1a f1 73 d3 75 97 bf dd 8a 33 52 9b ca 9a 3f
       -0.022910407973791253 0.026163508312388884
000600 fc d8 7d 19 49 c6 a2 3f 80 1b 5f 1b 94 3c 8e bf
       0.03666904865433371 -0.014763981900512979
000610 39 ff d7 4c 56 e9 91 3f 55 23 e2 94 32 f6 8e 3f
       0.01749167293564755 0.015118022125777545
000620 7d 8e d8 16 de 83 9b bf 1f 76 21 59 46 f5 93 3f
       -0.026870222229389718 0.01949033659945176
000630 9d 93 b7 f7 47 f9 9b 3f d5 27 b4 e8 68 24 7e bf
       0.027318119520618123 -0.007358941841866658
000640 ad 75 16 74 c0 56 a1 3f 75 eb 64 fe ed 4c 93 3f
       0.033864988489976745 0.01884815087508281
000650 45 7b 14 d6 18 56 9a bf 6e df 2e b8 5b 17 a0 3f
       -0.025719059053808797 0.031428209527290515
000660 89 c9 2d c4 46 fe 93 3f 0c 49 d8 bf 55 2b 9c bf
       0.019524675105864673 -0.02750905974796418
000670 37 5b de 12 c8 68 9d 3f ed 98 7f db ea ac 93 3f
       0.028720022346159637 0.019214315077896883
000680 57 c6 85 9d 01 b2 9b bf b1 51 f3 06 15 18 95 3f
       -0.027046227683462067 0.020599678563330396
000690 f7 16 50 3f 6e 06 99 3f 00 7b 18 e4 f0 bd 90 bf
       0.024438593496618 -0.01634956733880255
0006a0 a7 bb 0c 83 22 be 98 3f da e3 40 35 dc 35 a3 3f
       0.024162806748048073 0.037520295620602176
0006b0 a6 ea ec 78 1e cf 8c bf aa 14 8b bf 35 cd a5 3f
       -0.014066923203804049 0.042581252700565855
0006c0 1d 71 c5 9e bd e3 92 3f 9b 87 e4 07 35 2b 94 bf
       0.018446886840466015 -0.019696072203380415
0006d0 ea c0 44 9c 77 83 95 3f fc e4 da f1 6f 2d 8c 3f
       0.021009320176006797 0.013758539741831381
0006e0 9b 3e 34 0d d5 18 5f 3f b2 7a 80 3d 9b ad 9e 3f
       0.0018980103093929948 0.029959130886818293
0006f0 66 93 27 e3 15 1a a2 3f d6 1f 59 98 0a b7 81 bf
       0.035355266550857675 -0.008649904989525153
000700 4a d2 17 20 81 14 a2 3f 16 28 cc af e3 f3 a0 3f
       0.03531268612633605 0.03311072846379674
000710 0d e3 d3 ec 8d 38 8d bf b7 94 42 04 c2 00 99 3f
       -0.014268025197894408 0.024416953573240998
000720 1c fb 81 01 00 7e 5e 3f aa 85 19 3f 2a 40 84 bf
       0.0018610954339519153 -0.00988801007332792
000730 0b 54 87 fb d8 53 9a 3f 32 ca fc ff 23 c1 96 3f
       0.025710478164757727 0.022221148013338694
000740 0c c6 76 a8 c4 50 73 bf 9c 70 78 29 f8 40 a3 3f
       -0.004715698428684256 0.03760505205375006
000750 a6 ca f7 28 72 ae 74 3f 43 92 9b f2 cb af 8b bf
       0.005049177110310643 -0.013518899289416747
000760 10 63 8d 12 8b 3a 81 3f 52 0c cc 47 f3 73 91 3f
       0.008412443641348882 0.017043877846856077
000770 89 32 51 76 6b 8b 98 bf 63 c5 c7 19 a9 b0 a2 3f
       -0.023969344231135756 0.03650406303121192
000780 51 fa 1e a7 3e c8 a0 3f c0 96 10 7e 64 73 98 bf
       0.032777746105683854 -0.023877687639603407
000790 4d ec f7 e6 c1 1f 89 3f 23 0a 31 31 40 62 92 3f
       0.012267603741738986 0.017952921869673354
0007a0 f8 4c 23 65 01 93 8b bf c5 b6 cc da ad 42 90 3f
       -0.01346398439310413 0.015879360656234427
0007b0 ab ba 36 af b0 6d 7f 3f 8d 54 12 5e 30 44 87 bf
       0.007672968076276969 -0.011360528822743876
0007c0 c1 a3 47 8b 03 20 a5 3f 9e bf 99 34 86 31 a1 3f
       0.041259871246274844 0.03358096496674466
0007d0 a9 a1 a9 03 0b d8 90 bf 39 13 47 c9 7f 8f 9c 3f
       -0.01644913873534085 0.02789115587235644
0007e0 8a 0c 62 80 f2 ea 83 3f 54 a0 17 40 56 76 89 3f
       0.009725470107019758 0.012432741003934357
0007f0 40 ac 8f 5a d8 a5 79 3f 42 fa 77 39 92 6d d0 bf
       0.006261677867750726 -0.25668769466566144
