backend/FastApi/sign_language_data/B/B_1_aug0.npy (npy, 30368 bytes, 1 tensors)

array f8 [30, 126]
0.023792785956900736 0.023688974131087188 -0.020009482528764205 -0.23021778127860087 -0.11132808964021171 -0.11663250013503537 -0.46570791805124756 -0.45886474882448364
-0.1856850890352043 -0.3144069231601693 -0.7502083837802657 -0.1768192151651272 -0.1760849729947998 -0.8062809838775397 -0.2611397909693501 -0.4525259175344217
-0.9805115919338978 -0.054028598605594266 -0.46646640535507494 -1.2951770179334534 -0.11458630988893388 -0.4948755822638318 -1.6046020933450127 -0.19217679429703508
-0.5322144593395705 -1.7810256690434294 -0.22770318596944228 -0.2921851387050214 -1.0426517596747131 -0.09703038392485387 -0.3229388305076159 -1.4797572884022507
-0.15151337830563577 -0.3241396665516667 -1.7611509963472134 -0.21894108774610413 -0.3994583279248052 -1.9434699821538082 -0.2846675914136468 -0.15657129133981998
-0.9859856340883477 -0.09505306101290094 -0.2016127855200839 -1.431063184335138 -0.1781109499592924 -0.19932684852414592 -1.655494268724074 -0.28879595635566896
-0.2513977478328184 -1.9328730980498128 -0.2795055411437884 0.019143233442339615 -0.9619944385603179 -0.20150047944951918 0.026803060257678937 -1.2178401897539406
-0.21779871567463543 -0.03797945998801818 -1.4790930775051956 -0.2704145023776493 -0.08478617058726949 -1.650639063587345 -0.29626344781275 -0.030967037592875692
0.013320505658489603 -0.008282034289785899 -0.0010480601335066055 0.03288319291971593 -0.04641494848467757 0.0027810573176222275 0.009185698923607242 -0.02259235590722435
0.0037312617921825275 0.03235784087535017 -0.04535936992858603 -0.013171583332662632 0.018373125416100557 -0.013221195258840699 0.01194784485536657 0.010582296461354735
-0.02570833517004365 -0.011786465374884042 0.018214635117772094 -0.030646790953385763 0.005628050379052315 0.025580272275157745 -0.012067817732083846 -0.006276075666088652
-0.0022868248950649347 -0.02599284903121009 0.005633715937722223 0.0370728322050991 -0.010897711428172573 -0.005185157579358132 0.0364297322533958 -0.029887529674333137
0.006909482751441623 0.013320736949762955 -0.008431350439002356 -0.011030336643359078 0.005949288319906399 -0.01397398135806838 -0.005298809011914753 0.01756041948262407
-0.017490611923887945 -0.009028097503697562 0.019040159152862432 -0.04003804445675447 0.004377351453470864 0.009577899896565094 -0.017963921773539924 -0.012287342735031874
-0.001418674564733635 -0.018218697024958236 -0.006596649652224187 0.013866083980056933 -0.018419909207096345 -0.026178959290516043 0.028574881765648128 -0.04408087688742651
0.005934444867901896 0.004747168195554365 -0.016139512501267033 -0.0007526410322680492 0.02194500539069504 -0.022286910611497308 0.04758183016206972 -0.06552509601386194
-0.018073268463511774 -0.27789153757326185 -0.1593165746008558 -0.13964500629063378 -0.4470614888873335 -0.4347301629948823 -0.1348401133931385 -0.36721239923537197
-0.7506117353175062 -0.2343091605288069 -0.16067884988486475 -0.8221548249759161 -0.22391192206185678 -0.3765661912575237 -0.9869585501287196 -0.05043720577257617
-0.46838493936915754 -1.3482350269086867 -0.1446440863231976 -0.47846008401930695 -1.6005296889153586 -0.2106843134078429 -0.5136634127448692 -1.8554730666636463
-0.24387358795020916 -0.2898323894557311 -1.0978345061839438 -0.10999203331462155 -0.3073401597337821 -1.5314108406141507 -0.1540627347269916 -0.39830080736192347
-1.7855908483448077 -0.25284685741677615 -0.4012958451531615 -1.9975792711844833 -0.24127624456662355 -0.10839146900862917 -1.014444129002888 -0.1476924581210161
-0.20442095433783863 -1.4476343185874918 -0.149402362518644 -0.22655743631621225 -1.7048779980654694 -0.2392741741670002 -0.2904347017404435 -1.943191177267232
-0.30806954194222713 -0.014757843980529112 -0.9675123904263294 -0.19720199177589318 -0.009543475663148443 -1.2707643258083905 -0.2524623762145948 -0.055500446357294356
-1.4942630371436365 -0.24528170619121248 -0.11242138015755701 -1.6712461746362388 -0.2942106574461555 0.018259250531056915 -0.01449848188331887 -0.028239896522292023
0.01437298846097112 -0.03208459656561036 -0.01894867733038739 0.02141873878540273 -0.05010170553214697 -0.021579135944969383 0.027582909226666216 -0.024525188214948646
-0.020992133757840155 0.023617432353897717 -0.03710627246862737 -0.020848441656671962 0.006848438311964391 -0.05624735595880189 -0.04154610815595754 8.118380143790908e-05
-0.03676519837808955 -0.020039913787169832 0.01948464142032809 -0.029291275885563562 -0.013405266658499903 0.009046910453545958 -0.046226861213698324 -0.005908853419789599
0.008812435884693071 -0.02899319787371731 -0.014300002576001806 0.02886293497421695 -0.03528469879106303 -0.011704530381730487 0.013387427830990273 -0.030281399345406433
-0.018613572339505252 0.006019484861609208 -0.014421325697485119 -0.015402280567667874 0.014490465073922347 -0.020801396077994593 0.0026458852010697483 0.00944475861924683
-0.029339829696943057 -0.039399885041279045 0.01633321645131596 -0.040356016791970074 -0.011854158898823863 0.0009075117777187351 -0.03098131981102717 -0.02245337961301176
0.022617578902652313 -0.03652228944712098 -0.022475609981189 0.018002511581947794 -0.018986122089536796 -0.024497430503334305 0.010965789284602127 -0.034735105951409516
-0.00904003702056144 0.010844475181507333 -0.030208746484002864 -0.04121195892689337 0.0002881973240321507 -0.08199084206574923 -0.03897758858323173 -0.27576157659959993
00000000: 0831 43d6 225d 983f 65dc ac24 ec41 983f
00000010: bba0 48a4 5d7d 94bf 8a4e c6b8 c677 cdbf
00000020: 6a80 2168 ff7f bcbf aa0e bba5 a0db bdbf
00000030: c02c 6195 28ce ddbf 2342 5f40 0a5e ddbf
00000040: 1c6a 616c 87c4 c7bf 6bf8 2637 3e1f d4bf
00000050: 25ae 3003 b501 e8bf 5324 3815 03a2 c6bf
00000060: e233 2ad0 f389 c6bf e980 24c7 0dcd e9bf
00000070: d972 79ab 83b6 d0bf 65c6 1944 2ff6 dcbf
00000080: 448f 96d8 5960 efbf 0e96 1ef0 a2a9 abbf
00000090: c9b1 ebe8 95da ddbf 3be1 6889 0bb9 f4bf
000000a0: add3 8a45 8755 bdbf 1960 5aa2 0aac dfbf
000000b0: d528 a03e 73ac f9bf 3d27 47cb 3f99 c8bf
000000c0: ff4b 2a9e e607 e1bf 7d0c 9ec5 147f fcbf
000000d0: 7885 77c4 6025 cdbf ec60 c74b 29b3 d2bf
000000e0: 46b7 8e9c b3ae f0bf 41f2 acb5 fbd6 b8bf
000000f0: 6be0 e8a0 07ab d4bf f048 7bfa 15ad f7bf
00000100: d255 5d56 ca64 c3bf 8c3f cb4c b4be d4bf
00000110: c810 caaa ac2d fcbf 2d62 cff5 4206 ccbf
00000120: 0852 a3a9 b990 d9bf a3bb e1fa 7318 ffbf
00000130: b192 d66a fe37 d2bf 9504 e62f 870a c4bf
00000140: 6287 97be 318d efbf db62 6fbc 6555 b8bf
00000150: 0dd2 21a0 72ce c9bf 23aa 7382 a2e5 f6bf
00000160: 523c 91f0 56cc c6bf 371f d0cb 8a83 c9bf
00000170: 532a ee8e e77c fabf e3ef f008 a27b d2bf
00000180: 7bb8 4e94 e616 d0bf 0913 7757 0ced febf
00000190: c9da 9035 6be3 d1bf c754 4ca6 489a 933f
000001a0: 429d 918f a8c8 eebf b797 ae88 c4ca c9bf
000001b0: f431 f5ec 4272 9b3f 35f6 abfe 457c f3bf
000001c0: 6678 770c d4e0 cbbf 6bf5 2235 0b72 a3bf
000001d0: 37ff b980 5daa f7bf 1edf 04a1 784e d1bf
000001e0: 634d d3e5 8bb4 b5bf 2fb9 b981 0469 fabf
000001f0: 1dc8 d6f6 faf5 d2bf c792 dcb6 d2b5 9fbf
00000200: 2eec 5a01 c847 8b3f b912 5ad3 2bf6 80bf
00000210: e288 d9ff e12b 51bf 1942 5bdc 10d6 a03f
00000220: d60d 933b b3c3 a7bf e996 47c7 4cc8 663f
00000230: 920b bea3 f3cf 823f 4d63 0b57 7322 97bf
00000240: 00fe d8eb 0591 6e3f 9b58 a8f8 3491 a03f
00000250: 9125 d2e4 5739 a7bf 6fdd 33fd b3f9 8abf
00000260: 775b 2693 67d0 923f c589 01ca b613 8bbf
00000270: b1b6 4a97 1c78 883f a7a8 bec9 2bac 853f
00000280: 1ae7 282b 4953 9abf 8383 909a 8023 88bf
00000290: fdbf 8e78 dba6 923f 6712 7d53 df61 9fbf
000002a0: 62a2 1745 700d 773f 10d9 6003 b731 9a3f
000002b0: f075 f213 03b7 88bf e4a9 ba3b f1b4 79bf
000002c0: 07f8 59c4 d1bb 62bf d45d 1392 de9d 9abf
000002d0: 07cd 511b 6113 773f a730 c8d3 35fb a23f
000002e0: 9962 7b11 8a51 86bf 96ae a523 083d 75bf
000002f0: 08c0 42f9 eaa6 a23f d7b7 092a d69a 9ebf
00000300: 5d0b 3227 1e4d 7c3f 6c7a 760c e747 8b3f
00000310: 8a4c 2cb3 7444 81bf 8941 2db9 1297 86bf
00000320: 1aaa 4bec 475e 783f 822b 6c07 649e 8cbf
00000330: b56e 9f36 34b4 75bf d713 87cd 5bfb 913f
00000340: eded cc18 0fe9 91bf 6c16 30bc 527d 82bf
00000350: 8c1c 7d73 437f 933f 593a 13d7 dd7f a4bf
00000360: 1541 5f55 fced 713f 3c95 8ff6 939d 833f
00000370: c9dc 1962 2265 92bf 8f17 9d39 1b2a 89bf
00000380: 9919 fd36 5a3e 57bf 787a 970f eca7 92bf
00000390: 90c2 4fa8 1605 7bbf 3454 be49 d265 8c3f
000003a0: 5e1f 8f2e abdc 92bf dcfc fb37 a8ce 9abf
000003b0: 399e aeda bb42 9d3f 5893 38c9 c491 a6bf
000003c0: bb75 0a6a b74e 783f b553 6042 c471 733f
000003d0: eb1d 7759 e086 90bf 0e91 424f 9ca9 48bf
000003e0: 6db4 da61 c078 963f b52e d240 61d2 96bf
000003f0: ed1d dc48 a55c a83f 4a61 72b0 40c6 b0bf
00000400: a431 ee83 cc81 92bf 9196 6d96 f9c8 d1bf
00000410: b08a cf4a 7c64 c4bf c7b3 8837 e3df c1bf
00000420: 599e 84ca a79c dcbf 0c75 2976 9ed2 dbbf
00000430: f031 9bda 7042 c1bf 1cb4 596f 6880 d7bf
00000440: 05d7 e5e6 0205 e8bf a4ed cfb2 d7fd cdbf
00000450: a60a b5e2 1f91 c4bf 2ea5 b0a2 174f eabf
00000460: ae57 3857 25a9 ccbf fbbd 0e15 a919 d8bf
00000470: 05ef e918 2a95 efbf e2f4 96ca e7d2 a9bf
00000480: e9e2 21d3 04fa ddbf d44f 3ee4 5e92 f5bf
00000490: 15b2 288a b283 c2bf 3c7a 530b 179f debf
000004a0: 41b2 e204 c59b f9bf 91f6 ee1d b4f7 cabf
000004b0: c482 dc40 ee6f e0bf f5dd be86 04b0 fdbf
000004c0: 9f5a 4dee 3f37 cfbf 6c2b 8226 9d8c d2bf
000004d0: 82af 47ea ba90 f1bf cd26 e819 7028 bcbf
000004e0: e774 b30f 76ab d3bf a3d7 52a7 a880 f8bf
000004f0: f8a5 97e3 53b8 c3bf 39c0 65ab c27d d9bf
00000500: 74d8 9ab5 c791 fcbf 6817 e095 a42e d0bf
00000510: 4a06 bdc4 d4ae d9bf 5a7a 8eae 15f6 ffbf
00000520: 7490 dbd5 23e2 cebf b0b5 8e16 8bbf bbbf
00000530: 5afc 5ac4 293b f0bf 4670 bf22 96e7 c2bf
00000540: 9ac2 bf40 772a cabf 8a68 6e9a 8229 f7bf
00000550: 273a 7bda 9d1f c3bf e365 d285 d5ff ccbf
00000560: 3dc7 d526 2e47 fbbf ea8e 6940 89a0 cebf
00000570: 6a51 666e 7b96 d2bf e5d0 c3a1 4f17 ffbf
00000580: b646 e24f 69b7 d3bf 6af7 0b4a 5c39 8ebf
00000590: 4663 6b8b dcf5 eebf 4117 b134 ea3d c9bf
000005a0: 5d3b e89e 878b 83bf 1354 44f9 0c55 f4bf
000005b0: fcf9 53f4 5728 d0bf e234 09f4 8d6a acbf
000005c0: f374 c25b 80e8 f7bf c0fc 3215 6465 cfbf
000005d0: 2adc 25c7 a5c7 bcbf 440b faa0 6cbd fabf
000005e0: da6a f7ef 58d4 d2bf 1d7d 858f 8db2 923f
000005f0: 6078 3e4c 61b1 8dbf eecd 0560 ebea 9cbf
00000600: fdd2 15db 956f 8d3f f0c7 e869 646d a0bf
00000610: 1bf2 be35 4867 93bf 6e63 6b3a cbee 953f
00000620: 6d02 7845 eea6 a9bf 5969 a34c d718 96bf
00000630: 0c70 3ab4 b13e 9c3f 80ec 3e85 211d 99bf
00000640: 224c da3f f67e 95bf 6a4b 4d0e 2b2f 983f
00000650: 4a5c 75e5 97ff a2bf d814 5a3c 4b59 95bf
00000660: a9c8 41a9 1b0d 7c3f 7bb7 a814 74cc acbf
00000670: 16a1 9c0f 8845 a5bf 6912 ac16 2748 153f
00000680: cf66 5459 e3d2 a2bf bb7c 52d9 5785 94bf
00000690: 54c9 b226 c8f3 933f 9d49 f23f 88fe 9dbf
000006a0: 26ab 236f 3874 8bbf e9f9 38c4 2f87 823f
000006b0: ed18 3812 0cab a7bf 521f 1ec3 e133 78bf
000006c0: 0d01 621f 410c 823f 1540 b292 64b0 9dbf
000006d0: 6f53 2cdb 5149 8dbf 9493 1fc7 3e8e 9d3f
000006e0: f5b1 b606 d610 a2bf 09f6 a279 8bf8 87bf
000006f0: 9a7c b125 de6a 8b3f 6669 764f 1602 9fbf
00000700: 68f1 d6b1 6f0f 93bf 92f9 e829 e3a7 783f
00000710: 45a3 e291 ed88 8dbf 6f5a 931a 3b8b 8fbf
00000720: ef46 c54c 2dad 8d3f a3ea 760f f64c 95bf
00000730: a8c5 0acd d2ac 653f 2732 1b0b c657 833f
00000740: a406 13a4 420b 9ebf 16d9 6fc3 382c a4bf
00000750: 0ed1 fc99 a7b9 903f 3dfd a238 8ba9 a4bf
00000760: e616 5646 fe46 88bf 7403 f9b3 c2bc 4d3f
00000770: 0849 802d 91b9 9fbf 0380 7dcc 04fe 96bf
00000780: f06d ce06 1029 973f 6e38 80ad 0cb3 a2bf
00000790: d8b3 4ea7 d803 97bf 4818 f619 406f 923f
000007a0: 2a48 cf15 1971 93bf c033 64bb da15 99bf
000007b0: c24a d152 3b75 863f 5336 2bc0 ccc8 a1bf
000007c0: ff0f dd3a 9583 82bf 8290 f9d1 a035 863f
000007d0: 45cb cea8 0aef 9ebf a517 97df bb19 a5bf
000007e0: e305 de14 26e3 323f d76f 3e11 5afd b4bf
000007f0: 5ddd 7bd8 def4 a3bf 8b46 3fe2 13a6 d1bf
