backend/FastApi/sign_language_data/B/B_1_aug1.npy (npy, 30368 bytes, 1 tensors)

array f8 [30, 126]
000000 8b 43 fe 2b 8e 3c ac 3f 56 7e 52 cb d7 3a 8a 3f
       0.0551495007231387 0.012807546512987471
000010 27 80 b5 cc 2a 40 a3 bf d1 2e 26 b1 52 fc c9 bf
       -0.03759893177880285 -0.20301278734074527
000020 7a 7b db 35 e9 61 bf bf f8 74 28 d2 8c 84 bf bf
       -0.1225877529609373 -0.12311630373774907
000030 20 c2 cd 5e f1 0c db bf 95 be 89 9f 7d c6 df bf
       -0.42266496904542983 -0.4964899118412885
000040 81 ac 2a f9 e2 81 c7 bf 1f 7a f4 b8 35 41 d2 bf
       -0.18365132490484729 -0.2852300935936984
000050 7a a0 2e 4e 30 fe e9 bf b5 79 4a 68 35 f2 c7 bf
       -0.8122788931841705 -0.18707912056284007
000060 41 c9 2f df 8d f2 c2 bf 67 c5 17 4f b9 50 ea bf
       -0.14802716634546623 -0.8223539871961919
000070 4c 9c 0b b7 c3 ba d0 bf 97 1f 25 2d 99 5e d8 bf
       -0.26139920115969484 -0.38077382477467253
000080 ca 44 35 89 c3 2f f0 bf 62 8e cb 53 57 1a b4 bf
       -1.0116610870066318 -0.07852693362979715
000090 e3 4a 44 e8 ef 0b da bf 65 a4 3a 9f f1 d9 f4 bf
       -0.40697858507443935 -1.3032089443097672
0000a0 40 f1 0f 64 a9 5e ba bf 86 29 9e 32 fa ae db bf
       -0.10300692265440592 -0.43255476897379486
0000b0 c6 c5 d4 5d 20 b3 f9 bf f3 51 c1 09 9d a9 cb bf
       -1.606232039001371 -0.2161136911041833
0000c0 89 88 8f 58 c0 cf db bf 3f bb 95 1c 98 b8 fc bf
       -0.4345551361894953 -1.7950669399831012
0000d0 87 ad 47 7b 1c 62 ce bf c5 b1 14 98 cc 1f cb bf
       -0.237369117923077 -0.21190793443510195
0000e0 0d d3 c0 8e 46 a1 f0 bf b2 a0 25 2e 8d 98 bc bf
       -1.0393739296243354 -0.11170275093684515
0000f0 02 51 42 2e e4 62 d2 bf 33 82 bf 0b 6e b0 f7 bf
       -0.2872858478306314 -1.4805736979398147
000100 50 d6 5a 04 91 bb c0 bf 57 33 02 c1 86 de cf bf
       -0.13072407448423684 -0.24897846626518103
000110 12 43 ba a7 6e 22 fc bf c3 81 3d 06 d8 da cc bf
       -1.7584063102587533 -0.22542858414364106
000120 23 11 eb 7a 01 ac d5 bf 7f a5 46 c5 ce 0b ff bf
       -0.33862339977010175 -1.94038273869441
000130 bd 84 b0 5d a8 a3 d2 bf f0 36 8b 21 e0 28 bd bf
       -0.2912388720452091 -0.11390496081295587
000140 c0 da 70 a9 d4 1a f0 bf f8 a3 2a a0 fc e4 bf bf
       -1.0065504664213876 -0.1245878115684177
000150 55 71 cc af 6f 3e c3 bf c2 80 57 49 ae f6 f6 bf
       -0.15034290393749453 -1.4352248063005821
000160 19 be 02 aa db f5 c8 bf 6d 7c 71 df 1f fd c1 bf
       -0.19500299264244417 -0.14053724680249804
000170 24 84 5c 12 26 9d fa bf 5c c1 06 75 c8 ce d0 bf
       -1.6633663861505363 -0.2626210348926372
000180 c0 fd 82 5a e8 3a c5 bf 3f 7a 38 19 09 af fe bf
       -0.16586021823421326 -1.9177332863979613
000190 ea b0 42 0b ab a3 d2 bf 45 2f fa b2 d5 15 b2 3f
       -0.2912395105329454 0.07064567203104584
0001a0 43 2e 99 66 63 20 ee bf fc 0a 3e 1e f7 76 c7 bf
       -0.9414536479830037 -0.18331803299596305
0001b0 7a f1 67 37 ac 7a b4 3f ce 88 6c 9e 77 96 f3 bf
       0.07999683716474762 -1.2242351711689028
0001c0 cc d7 ae 59 f0 8d d0 bf eb 57 1f 57 67 3e 76 3f
       -0.2586632610140185 0.005430606530316222
0001d0 ce 4b 05 58 44 55 f7 bf df 14 a1 88 91 e2 d1 bf
       -1.4583171308811305 -0.27945364325235106
0001e0 a2 70 0c 61 1d 96 a1 bf 16 88 16 f5 5e d3 fa bf
       -0.034348409744980005 -1.676604230284743
0001f0 de a0 8e 5b 55 8c d2 bf ed 7d 7a a6 fe 3f 97 3f
       -0.289815272723457 0.022705058013000757
000200 e7 d6 30 df 41 42 86 3f 9b 4f c9 ff 9e 30 a3 bf
       0.010868563293211021 -0.03748032448188995
000210 fa 4e d9 fa 70 a7 a5 3f f7 c9 c4 17 ff fb 70 bf
       0.042293100949477094 -0.004146572548324282
000220 e3 64 cb 04 22 5c a9 bf b3 3d d6 d4 ab c9 93 3f
       -0.04953104313399039 0.019324002137691653
000230 ed 13 9a 59 b3 67 74 bf 42 8e 57 47 b5 bb 84 bf
       -0.004981709085432035 -0.010123649825749873
000240 5f 6f a2 2f ac f2 9c 3f 78 c6 9f 5a 3a be 88 bf
       0.028269472510700108 -0.012081581011418083
000250 b7 5b ff 30 54 6c 3a 3f 6b 1a cc 13 94 0d a1 3f
       0.0004031854195977696 0.03330672017732613
000260 8f b7 35 3d a8 36 75 3f 9a bb f9 41 8b b8 9b bf
       0.005179078277576367 -0.027071166898561573
000270 64 1f da b3 5b 1b a0 3f d8 e0 f9 ea 17 05 7c bf
       0.03145872660121432 -0.006840794972610996
000280 4d 63 8f ea e6 04 74 bf 11 a8 46 6d 8f 3c 93 3f
       -0.004887487427333093 0.01878570656268869
000290 1b b6 49 32 03 97 8a bf d1 f2 b8 fb 31 80 9d bf
       -0.012983345958868011 -0.02880933855907381
0002a0 a1 a9 c4 31 64 8a 9c 3f 4e b1 ae 18 a1 e6 89 bf
       0.02787167123566692 -0.01264692169737516
0002b0 e7 23 80 84 1e 5b a5 bf dc dd c8 9c 70 ad 9f 3f
       -0.0417108093971093 0.030935058183073724
0002c0 9f 4d 55 e3 87 08 4c bf 6c 86 66 c8 92 20 a7 bf
       -0.0008555091396069031 -0.04517039009375598
0002d0 ff e4 e6 20 5c 53 a0 3f d2 94 2b 32 3b 4b 6d bf
       0.031885985390042386 -0.0035759121104655756
0002e0 f7 4c 49 bf 81 59 a3 bf 9f 92 2b 36 d4 e4 a5 3f
       -0.037792257881529005 0.04276145135171316
0002f0 5c 2c a1 54 2d 03 5b 3f b5 c9 46 9e 88 a1 98 bf
       0.0016487066918837922 -0.02405370203059372
000300 97 02 58 21 50 fc a0 3f f8 2a 94 83 c8 28 32 bf
       0.033174995489394 -0.00027708907471495027
000310 a2 53 70 fa 26 5f a5 bf 3c 8e 37 88 58 9c 7b 3f
       -0.041741579123630204 0.006740899876124081
000320 44 b0 77 05 b5 d0 66 3f d4 0a 88 a9 b1 96 9d bf
       0.0027850661824598017 -0.028895164463402193
000330 e5 a8 68 b8 e7 85 a4 3f 84 49 a2 2b 84 60 80 3f
       0.040084115277140765 0.007996590215303419
000340 8b a9 78 57 d0 3b a3 bf 1d f8 fe f6 ed ed 95 3f
       -0.03756571834340424 0.021415441704213934
000350 15 bc f8 f3 1a 18 69 bf 4a 50 a4 c6 ac c8 95 bf
       -0.0030632521081979205 -0.021273326515327796
000360 3e f3 2a 71 3f c9 a2 3f bc 06 21 d3 e8 d4 47 bf
       0.036691649021554515 -0.0007272850837198512
000370 54 3b 26 ac e0 c7 97 bf 95 f4 96 fc f8 3c a4 3f
       -0.023223410136377368 0.039527684053134816
000380 65 fb 36 21 10 aa 87 3f 09 a7 cf 3f b7 b9 a3 bf
       0.011554838193544812 -0.03852627424187289
000390 01 08 0e 97 3d e0 96 3f 05 cc b5 a6 60 68 60 bf
       0.022339784950879963 -0.0020028960913633953
0003a0 5d 58 26 af 63 39 a1 bf e4 51 c5 85 9a 0d 91 3f
       -0.033640971308316316 0.016653456129761227
0003b0 3c 7f 92 74 05 93 6f 3f bf 18 68 6d 9a 87 9d bf
       0.003854284911156384 -0.02883759777798711
0003c0 d4 6a 3c ad 21 79 94 3f 2f 92 e3 70 98 2a 8b bf
       0.019993330191122663 -0.0132648381663297
0003d0 65 ca cf 83 d4 56 9f bf 56 d8 d3 c9 48 78 96 3f
       -0.03060466818346654 0.02194322330338879
0003e0 6e 96 18 af 82 7a 63 3f c7 a7 98 5d 0f 90 a5 bf
       0.002377753488661586 -0.042114715743380375
0003f0 b7 6a 7e 4a ee 96 a4 3f b7 3f df b2 77 34 a2 bf
       0.04021401080463732 -0.03555654581543826
000400 65 65 bb 66 7b 37 8a 3f 0c 94 31 41 a0 99 d0 bf
       0.012801136086113283 -0.25937658659523843
000410 9e c8 f6 6e 6b 14 c4 bf b9 ac 95 ee 82 23 ba bf
       -0.1568731586281204 -0.10210436177082984
000420 85 5b a3 13 af 0c da bf 63 db 76 09 08 81 dd bf
       -0.4070241634157628 -0.46100045131918516
000430 1b 6c 99 06 34 b8 b2 bf 98 99 c4 9d 19 a6 d3 bf
       -0.07312321816554894 -0.3070129433348483
000440 b9 fb 40 67 1a 46 e8 bf de 7c a3 0f dc a6 c7 bf
       -0.7585575119663793 -0.184779651294753
000450 36 08 e2 66 cd 09 bf bf d8 dc c3 fb 10 11 e9 bf
       -0.12124332200804208 -0.7833332936560522
000460 cd ab e0 d7 38 01 ca bf 56 a4 c5 37 17 79 d4 bf
       -0.20316229382419096 -0.3198907894753281
000470 44 32 d2 03 a8 fb ee bf 11 c4 8b 59 20 81 a9 bf
       -0.9682197641973933 -0.049813280993369465
000480 34 15 c4 71 d2 33 d7 bf f6 04 ea 09 34 36 f5 bf
       -0.3625379668231574 -1.325733221747496
000490 ea 05 f8 60 02 bd bf bf 4f 19 38 a3 71 ba d7 bf
       -0.12397780291941954 -0.3707546323716046
0004a0 9f c1 b9 dc a1 1f f9 bf 14 f4 0d 18 c7 16 c9 bf
       -1.5702227232069175 -0.19600762056862264
0004b0 03 28 55 fa 58 56 d7 bf ed 54 9a a3 55 55 fd bf
       -0.3646452374129014 -1.8333336249100356
0004c0 7d 66 38 77 a8 d0 ca bf 41 23 d1 e0 cd 49 cc bf
       -0.20949273892692935 -0.22100232579603055
0004d0 ac 5b df 62 c4 63 f1 bf db ec e0 4c 80 30 af bf
       -1.086857210369753 -0.06091690958461423
0004e0 3c ec 6e 8f 31 42 ce bf e2 cc 97 e0 c3 f6 f7 bf
       -0.23639506820276945 -1.4977453969157115
0004f0 e9 32 c9 5a 40 50 bc bf 23 31 d9 b6 b1 21 d1 bf
       -0.11059953896001286 -0.26768153053559923
000500 ba 87 d7 f7 0a e6 fb bf 5d 64 e9 3d ca 95 c8 bf
       -1.7436628037762447 -0.19207122824699044
000510 c8 43 7d 8c 42 c5 ce bf 6a 9d d6 18 19 bc fe bf
       -0.24039489612417086 -1.9209223718879351
000520 27 c7 de 5e 65 17 c9 bf 22 9a df e5 84 68 9c bf
       -0.19602648861251135 -0.027742458849298164
000530 53 02 ef 55 83 44 ef bf d5 83 71 c5 a5 a4 ba bf
       -0.9771134069815822 -0.104074822143516
000540 9b f4 31 80 38 85 bf bf 9f ec 36 92 40 0e f7 bf
       -0.12312653665317656 -1.4409795485978873
000550 fb 7c 75 88 c7 2d bf bf b4 d1 49 5f 33 cf ba bf
       -0.12179228860394524 -0.10472413135887032
000560 97 8d 3a 9f d0 a5 fa bf 79 9d 7e 1c 03 ef c9 bf
       -1.6654821605560295 -0.20260657206857127
000570 f9 23 4d d9 97 c6 c4 bf df 08 c1 2a a7 4d fe bf
       -0.1623105822602893 -1.8939582510070563
000580 f9 48 f5 81 f2 44 d0 bf 0d d9 95 65 d6 30 a5 3f
       -0.2542082089540965 0.041388225460581386
000590 87 b8 be be 9f 63 ed bf 12 ee 85 47 91 89 c4 bf
       -0.9184111333359092 -0.16044822685567844
0005a0 02 e2 85 ea 3d a2 ab 3f 78 30 66 fa 0f bf f3 bf
       0.053972182157796325 -1.2341460972993712
0005b0 70 29 d0 04 98 43 c6 bf a4 23 40 30 4b 29 a1 3f
       -0.1739377997876761 0.033518170967062916
0005c0 60 f2 12 00 3d 34 f7 bf 1c 12 48 15 fe 6f cc bf
       -1.4502534869090127 -0.22216774024140384
0005d0 c6 f3 51 85 bc be 72 3f 40 cd 6e cd 66 7f f9 bf
       0.004576431664756469 -1.5936038994521624
0005e0 5e 29 2f d1 0b 7e d0 bf 14 2b e3 90 f9 55 55 bf
       -0.2576932471098611 -0.0013022362868919156
0005f0 29 ef bb 9b 77 f1 9d bf ac fb 2c 67 69 dc 92 3f
       -0.02924143684411643 0.0184189290259799
000600 78 41 5c 71 4d 76 81 3f 36 31 ba bf 7a af 81 bf
       0.008526425382598943 -0.008635481811574235
000610 35 73 ad e6 5c 2f 86 3f 01 ec 9b 76 60 53 65 3f
       0.010832525052757095 0.0026032337235597507
000620 78 66 eb 4f 5b bd 9f bf 44 aa e5 f6 77 d1 84 3f
       -0.0309957759408008 0.010165154669001038
000630 a8 dc d3 31 04 7e 67 3f ce 1a db bf c8 36 9c bf
       0.0028677064825575922 -0.027552735052064396
000640 24 bc ab 8b c9 32 9a 3f fe c0 44 d9 14 e2 48 3f
       0.02558436312659408 0.000759372882873449
000650 f1 8b e7 4a 7f f5 68 bf 7b 09 a1 db ef ff 65 3f
       -0.003046749704695533 0.0026855168080441283
000660 67 4e 1e 1b 65 05 6e 3f 8e 70 e9 66 02 0d 81 bf
       0.0036646818852632992 -0.00832559467851748
000670 4a 02 f0 d6 60 02 7e bf 48 90 cc 6f 7f da 71 3f
       -0.0073264868542542525 0.004358766364735152
000680 37 17 03 8e 2e 34 64 bf ce f2 c9 9f a6 ad 90 3f
       -0.002466288497177251 0.01628742552064715
000690 41 ce 5e 88 fc 6b 81 bf d8 23 75 7f fb 50 91 bf
       -0.008506749068920462 -0.016910485891717147
0006a0 47 9a 9d 01 7c 01 73 3f d0 a4 ff 00 30 41 7a bf
       0.004640087508824004 -0.0064098239090324
0006b0 c2 65 4b b4 1e ca 90 bf e4 8f e8 d2 39 4a 8f 3f
       -0.016396026377014435 0.015278293370165792
0006c0 40 d1 29 17 56 1d 7c 3f 3b a3 c9 f0 d7 45 97 bf
       0.006863914767212542 -0.022727369376670508
0006d0 2f fe 42 55 7b 86 4e bf 73 2a 1d 2d 19 ba a2 3f
       -0.0009315588199782561 0.03657606769282475
0006e0 4f 96 86 c7 33 3f 97 bf a5 d6 b1 da 7d b4 99 3f
       -0.022702035000881356 0.025102583382667593
0006f0 90 59 b4 66 88 58 77 3f 62 92 d7 19 5a e6 89 bf
       0.005699665848871396 -0.012646392739904037
000700 0e bb 54 fd 0f 2e 88 3f 9d 9d 2b ca 6b ce 98 3f
       0.011806607168720198 0.024224933828831053
000710 45 7f 5f 78 26 ef 97 bf a2 37 9c 04 7a 4c 94 3f
       -0.023373223397242588 0.0198229852022035
000720 6c d2 59 fc 08 53 89 bf 81 79 54 33 f5 e2 92 bf
       -0.012365408135545063 -0.018443900354321755
000730 e5 6f 04 2e 40 50 83 3f a4 07 db 6a 19 c3 9b 3f
       0.009430409817063843 0.0271114322156404
000740 10 54 00 ea 22 75 92 bf d2 54 17 3b ce 34 89 3f
       -0.018024964840226032 0.012307749918287678
000750 22 31 3e b3 e0 b3 98 3f 3d ed 13 4f 77 8f 90 bf
       0.024123679103966407 -0.016172279550102465
000760 4a f6 85 3a 05 8e 81 3f 03 0e 3f 7a 75 3e 92 3f
       0.00857166371201425 0.017816386782000048
000770 20 59 0b 24 5a a1 8f bf e1 db bf 97 6d c7 94 3f
       -0.015444473481164567 0.020292007815409966
000780 1b cb 59 d7 6d 76 3e 3f 96 f6 4f 67 6f 23 93 bf
       0.0004648225943590254 -0.01868986194676
000790 29 f7 09 ac 04 fb 82 bf 0d 04 d4 a5 95 e8 75 3f
       -0.009267841816150106 0.005348763047778438
0007a0 fc fd be d1 15 05 8c bf f7 85 59 71 13 f9 99 3f
       -0.013681574309770454 0.025364211839024233
0007b0 e0 f4 40 91 a4 73 99 3f c9 aa e5 59 43 01 9a bf
       0.024855204930862906 -0.025395443307767693
0007c0 11 c0 89 fc b9 6d 8b 3f d6 98 29 c0 82 18 88 3f
       0.01339288045821266 0.011765500535329581
0007d0 bd 27 20 22 d0 8d 9f bf a4 bc b0 ef 84 a2 88 3f
       -0.03081441124235317 0.012028730931062555
0007e0 8f 18 f6 16 6d 35 2f 3f 54 9b 6e 84 6e c2 b0 bf
       0.0002381034532669729 -0.06546679242329151
0007f0 81 b2 51 b0 ca 57 a2 bf 9a 8c d0 6f 3d 1c d1 bf
       -0.03582604791958933 -0.26734863204382864
