backend/FastApi/sign_language_data/B/B_2_aug2.npy (npy, 30368 bytes, 1 tensors)

array f8 [30, 126]
00000000: 4393 2acd 2eb9 a9bf 285c 4ca6 64ac 91bf
00000010: 4534 3cb3 ec1b 843f 3b0d 9ac2 75c0 cbbf
00000020: f542 2f0c fd5c c4bf 3cba 9a81 abdd b3bf
00000030: a9ae c5c1 760c d5bf 75bb a86a 4dec e0bf
00000040: 4487 afdc 0f90 bbbf 8f49 ba60 d76d cebf
00000050: 6788 fd6a 6790 e9bf 495d 5a23 9dc4 c2bf
00000060: 5393 cb3d f338 b2bf dce0 6c9f c867 e8bf
00000070: fdc4 ff01 6253 c8bf 358d e5c9 db1d d2bf
00000080: 8cfe 1eee d002 efbf eb1c aaed 766d b9bf
00000090: 204c f67e 8374 d3bf 0a3a 3c7b b9f7 f5bf
000000a0: c98d f1af a8b0 c0bf fc15 91d6 a368 cebf
000000b0: 75a3 7291 68d8 f9bf 663c e146 3564 c7bf
000000c0: 0d60 2ffa c859 cebf 9ced d33e 0ce2 fcbf
000000d0: 8cb2 b534 6329 d3bf 75e0 9e22 374a c1bf
000000e0: 5fb8 fa60 f6ec f0bf ae21 fdc7 33a8 b3bf
000000f0: 697e 451c 7fe2 bebf a972 f97f bb3c f7bf
00000100: 7594 5953 8e0b bebf 8454 d861 5ee8 c3bf
00000110: 9d09 a216 71a2 fbbf 33e8 729d 75ac c6bf
00000120: c3a5 004c 3c4f c0bf 780e 7a32 6586 ffbf
00000130: d687 6c5b 4315 d0bf c273 ae8d 7253 a73f
00000140: fc52 dfad 808c efbf 86ce 4cf2 0816 b9bf
00000150: 4466 29a3 12ad 843f 4d7d d04a 0f83 f6bf
00000160: 3e11 a249 9133 c3bf 2329 d3a7 a2b8 8cbf
00000170: ad5e a30b c520 fbbf d937 f15a 7fb3 d0bf
00000180: 2931 d1ac 1680 903f 2651 a8ec 160d febf
00000190: 7d46 9fd3 255e d1bf 07cb 5d66 daac bb3f
000001a0: 98f4 73e3 23bc ecbf bd41 2e9b 3158 c4bf
000001b0: ca3f 20a7 f70b bd3f 2b8c da8f 7bce f2bf
000001c0: 6ec2 2e71 76d0 c8bf 535c 371d 6fb5 bc3f
000001d0: a0bf 67ea 3841 f6bf 4f2a a28d ed3c cdbf
000001e0: 403c 77c2 652d c53f ed1c 8d4a 8ac6 f9bf
000001f0: e34d 2536 ab7e d3bf 47a4 742f c93a 94bf
00000200: 883c 370d 5c5e 523f 2533 e266 60c9 62bf
00000210: 247e 89e8 2ed9 9abf 6bcb bf5b e44d 8cbf
00000220: 67f0 924f 5a44 733f 0249 2410 6d02 a0bf
00000230: 192d d9ae fda8 8fbf be85 6a21 f165 893f
00000240: c919 6d52 0870 9dbf 90dc 15d5 dbb7 7abf
00000250: b8d6 8f25 e29e 68bf 7192 3e4a d24f 9ebf
00000260: 0160 be49 c347 8a3f c348 c6e9 78bc 833f
00000270: 389e ae96 370c 8cbf 38ad 2c2a 0678 9bbf
00000280: d3b6 e48d b64c 823f 6acc 6659 a067 75bf
00000290: d83b b1a9 6578 50bf 4b79 9d68 16e0 913f
000002a0: 8cd0 0bc7 5fd1 a6bf 669a 3acb 9394 983f
000002b0: b4ac 9d9a 734a 823f 3747 e7ad 0105 a0bf
000002c0: da76 bfa5 5748 8fbf a0b1 98e2 1ded 913f
000002d0: 19bd 8c22 a01b 9cbf ee67 7a21 cbde 82bf
000002e0: e93c e33c ca3b 7a3f a801 d0d6 9a58 9fbf
000002f0: c492 5f80 a06a 92bf a941 fe8a 57de 7a3f
00000300: 5703 1dca 506f 8cbf 4618 1d8c 8421 72bf
00000310: 8150 853c afe2 773f 7ebf 1c05 0415 a0bf
00000320: 77b8 e39b 88d8 563f 2f1a 0c31 b7c8 933f
00000330: d9f0 6090 96ce 95bf b8d0 b5b9 1349 8bbf
00000340: 5e3c 5b2f 5824 7b3f d2b9 8c91 815f 9dbf
00000350: a9c2 c7b2 0e2c 863f d133 1182 b689 7b3f
00000360: e123 5cc3 c48a 9abf cb47 6b53 9311 8f3f
00000370: 8148 7e6d 4ab4 983f 6c35 1c39 be97 86bf
00000380: e45f 2ea1 4e90 6f3f 37c8 a52e b787 833f
00000390: 3c0c cfb5 a85e a1bf 273a b775 008c 97bf
000003a0: 9f96 b037 9c52 833f 91ff 7686 d209 9abf
000003b0: aed7 233f f2d7 93bf b89d 8492 5493 983f
000003c0: 185b 2afc 30c4 96bf e9e0 3e74 3e4a 90bf
000003d0: 9216 7a8d ee30 7a3f bbd1 f04e e749 9bbf
000003e0: 50b3 2165 8eb8 4a3f b9a3 e10c eb6d 9b3f
000003f0: f22e 8d01 f45d 9cbf 87de 96e7 2b0d 95bf
00000400: baab 1980 486a a0bf 343c ae0f 7581 d0bf
00000410: 80e7 7583 e0ab c5bf 1e1c 7792 8a61 b2bf
00000420: 2e43 b87c 8ea5 dbbf 6828 ed5f 71a4 dfbf
00000430: 61c2 2c8a b114 c6bf bbfc d835 f680 d4bf
00000440: 8d0d 85f0 7ba3 e7bf 6d19 aef0 7c4f ccbf
00000450: eac3 9054 ec5e babf a96d d26f 87a0 e8bf
00000460: 3cfe a98b 2724 cdbf 8f8b 3cfa aaf1 d7bf
00000470: 0536 14b7 aeff efbf 4c04 a74c 75cb b6bf
00000480: e53b a4b9 3e81 dabf da7b 7d28 6d25 f6bf
00000490: 27f7 e6aa d940 bebf af44 a01d 43c5 d9bf
000004a0: bac3 2b27 e582 f9bf e3fb 5a49 6d95 ccbf
000004b0: fdba 9fb0 410c debf a8c2 706a e8f6 fcbf
000004c0: e2a9 b97d d625 d3bf b1ad d591 bf23 cdbf
000004d0: b3cd 3f1f 9bed f0bf 5074 eecb ae75 b8bf
000004e0: 789f 8630 bf76 cebf 8a90 75af c7c2 f7bf
000004f0: 2727 9e6d 00e3 c3bf 822d e97a 96d7 cebf
00000500: f3f7 7449 06dd fbbf 189a eb96 1be8 cbbf
00000510: 2b7c d41c 7012 d0bf 3e68 b4d1 ae35 ffbf
00000520: dd38 1b8f 3df9 cfbf ca3b 12a5 8ef4 b9bf
00000530: 1dd5 2cbb 2db5 efbf aa79 21e3 dbdc c0bf
00000540: 8553 4bc8 1ee4 b1bf 00f2 2920 0b06 f7bf
00000550: b3ef 2cd3 acba c7bf bbf1 6677 0468 b7bf
00000560: d6b5 1762 62fc fabf 484a 0c75 3ad2 cdbf
00000570: 25e6 7160 6f6b b1bf 428b f2c2 42cc fdbf
00000580: 2c83 3fd4 7ad3 d2bf ece3 566d 9ed2 b33f
00000590: 1983 5957 a118 edbf 0954 704a b490 c7bf
000005a0: 1afb a0e6 c0f9 b13f c412 c9dd fb98 f3bf
000005b0: cb0c 3223 bd6d ccbf 7398 7a71 c593 9c3f
000005c0: e743 8e7f 684a f7bf 3e06 16d4 07f1 ccbf
000005d0: b640 58d2 1009 95bf 41c5 f3fe c5dd f9bf
000005e0: d8cc b46e c39e d0bf 2a53 dc70 85f2 a3bf
000005f0: 0a6f c3b2 c2ef a53f 241c 7a84 c1b1 9dbf
00000600: e601 ec8d e6ce a0bf d48b 8c97 0bd9 9a3f
00000610: 3330 6a0f 197b 9dbf 8b2a 7d2a 4ccd a0bf
00000620: fdef 99ff b1db a03f 48db abdb 211f a1bf
00000630: 33a2 a8b7 bd44 a3bf 0356 6998 1688 8f3f
00000640: 15f0 bb3f 70bc 7dbf d08a 631d e485 96bf
00000650: ab66 9d97 72a5 a13f 20f8 bbad b39e a5bf
00000660: ff7c 7eee 9e0b 91bf 7623 3b57 6cb6 a23f
00000670: 2f8a 0ef8 179c a0bf a7bc 29ca 4936 a2bf
00000680: 0506 f1e3 500c a43f f5be 730c 5f05 97bf
00000690: 0e31 8ca9 6522 a0bf 2dcc 81c0 a24c 933f
000006a0: 9549 3d89 37d1 8dbf 6b0a 09dc b95e 93bf
000006b0: 2605 b87d 7136 943f d468 5754 8521 97bf
000006c0: adb6 494f 0de2 98bf ca6e 60b1 b262 9b3f
000006d0: 37d8 820a 4e03 a4bf ca7d 94a9 097d a1bf
000006e0: 4786 b128 6664 ac3f e7ec 43e8 bc69 87bf
000006f0: 8864 e16c 7307 9dbf 9b16 3276 492e 993f
00000700: 9da2 9db8 26d6 a0bf dcc6 c910 8d02 a0bf
00000710: 8575 5983 2335 9f3f 763b 119d 7afe 86bf
00000720: 6b66 16e4 e77f 8fbf c7d1 8a43 93a7 963f
00000730: de7e 3971 c617 a9bf fe14 ec15 e4f8 94bf
00000740: 0dbe fb91 088a a13f 833c e1e7 1551 9abf
00000750: 984e 4a2b be56 8fbf 7396 b1c5 4445 8d3f
00000760: 5c65 339d e25a 9dbf 8c60 536f 163c 88bf
00000770: c6db 62b6 11bc 943f a944 b552 e3a0 a6bf
00000780: 5102 48a7 fce9 94bf 14c4 e275 1a37 a03f
00000790: 9eb7 3ab2 651a 9fbf 6d3b 0a1f 4205 9abf
000007a0: 0c57 98fe a4c0 923f 86fa 14dc 8f41 95bf
000007b0: b306 b51b 8ffc 91bf 6b6c e16c 856f 993f
000007c0: 5287 76fa 344a 96bf 90a9 cbee 0eba 84bf
000007d0: 088e 851b 613e 913f 6799 2691 1ccb a1bf
000007e0: 8101 3228 2434 57bf ff41 5054 d938 a9bf
000007f0: 666f 545b 1bf5 a03f 2537 c8f2 2449 d1bf
-0.05024095777961304 -0.017259190225640847 0.009818886966536886 -0.21681091310538556 -0.15908778281166006 -0.07760116495294594 -0.3288857357317548 -0.5288455088792562
-0.10766696107705537 -0.2377270910552167 -0.7988774385123748 -0.1466251776334764 -0.07118149050400051 -0.7626689065719137 -0.19004464242565425 -0.28307242123101456
-0.9690937662889652 -0.09932654669147538 -0.3039864292015313 -1.372979623210656 -0.1303912028407537 -0.23756835915462193 -1.6153340989642093 -0.18274560891083808
-0.23711502281253197 -1.805187459393756 -0.2994010939353664 -0.13507737341365425 -1.0578521526581637 -0.07678531296290345 -0.12064356270047373 -1.4523272513389804
-0.11736382994566148 -0.15552882936086487 -1.7271586307620972 -0.17713804424221422 -0.1274180766206837 -1.970311352896628 -0.25129779747123615 0.04555852870473799
-0.9859012027687579 -0.09799247661140428 0.010095735172558247 -1.406997005695149 -0.15001121611943263 -0.014024039026840079 -1.6955004171958692 -0.26095565682487415
0.016113619134828703 -1.8781956905778059 -0.27137132326343033 0.108106279365341 -0.8979663317146729 -0.15894146039182813 0.11346385793899497 -1.1754108065877158
-0.19386177565094748 0.11214346373832144 -1.3909234196143885 -0.22842187324234195 0.1654479217090472 -1.6109717285306104 -0.30460624969165745 -0.01975550033708753
0.0011211298886910932 -0.0022932894563098155 -0.026219113295495103 -0.013820442247355754 0.004703858162596309 -0.0312685091213485 -0.015459043405960092 0.012401470024374524
-0.028747682600874378 -0.006522997589278337 -0.0030054490020983947 -0.029601369649429225 0.012832189262368844 0.009636826166375184 -0.013695177350952922 -0.026825043033722212
0.008935381131404274 -0.005225778927001471 -0.0010052674104092853 0.017456388602448396 -0.0445661478496798 0.024004277495487968 0.00893106761551219 -0.031288197020002455
-0.015274700875973424 0.017506091075277674 -0.02744913302302363 -0.009214007338687904 0.006404676429340153 -0.030611438141933484 -0.017984874568258716 0.006559698071115263
-0.013884192626962095 -0.004426496279682784 0.005831417577003007 -0.031410337089595494 0.0013943990775789042 0.0193203567205506 -0.021295883714842787 -0.013322977166105296
0.006626457665063061 -0.02868463946213657 0.010826220351164055 0.0067231301519088 -0.025919985221694367 0.015170241339919862 0.024125254567089364 -0.011031614415993395
0.0038529906973501105 0.009536200629302367 -0.03392531604142632 -0.02299500196914486 0.009434910249250193 -0.025428094346124978 -0.019378457168350564 0.02399952072405906
-0.022232785597760957 -0.015908218236035863 0.00639432129503849 -0.026649107163579915 0.0008154578483875272 0.026786492024630102 -0.02770215281934347 -0.020558057794657827
-0.03206087650035934 -0.25790144473370735 -0.16930776995632968 -0.07180086208164524 -0.43197977237382446 -0.49441179626285825 -0.17250651594942482 -0.3203712011199504
-0.7387065599108823 -0.22117578269917307 -0.10301091255747932 -0.7695958313010368 -0.22766584701092707 -0.3741252368656029 -0.9999612403641441 -0.08904202577015602
-0.4141384900003103 -1.3841373044631298 -0.11817703649918752 -0.40266492741745713 -1.5944568185916368 -0.22331014711195882 -0.4694980835765106 -1.8102802427130573
-0.2991844394479398 -0.22765345211824475 -1.0580092640565055 -0.09554569700999704 -0.23799886578967366 -1.4850537160755573 -0.15536504127913384 -0.24095421792513255
-1.7414610738192067 -0.21802086705356838 -0.2511253625434075 -1.9506061736669973 -0.24979371535886843 -0.10138789682444763 -0.9908665328754612 -0.13174007978791497
-0.06988708868023082 -1.4389754539871547 -0.18538437186532306 -0.09143093028155296 -1.6866172630064873 -0.23297816004977023 -0.0680455790005899 -1.86236835624068
-0.29415770270684294 0.07743253869456596 -0.9092566209838849 -0.18410352358537832 0.07021718626581866 -1.2248495734685756 -0.22209896296053552 0.027907452632142737
-1.455666063561006 -0.22610566955340688 -0.020542395437644877 -1.6166439017363958 -0.2596901494136552 -0.038959665324148254 0.042844852754312227 -0.02899839755130186
-0.032828526329470795 0.026218587040727062 -0.028789893689961054 -0.03281629580177022 0.03292614216931609 -0.03344064528021434 -0.03763382784774585 0.015396286512593177
-0.00725978705645149 -0.021995128911735773 0.03446539021269975 -0.04222642417697409 -0.016645892435573902 0.036548028610531455 -0.032440899877901656 -0.035570436409096566
0.039156463456048875 -0.022481427321451048 -0.031512429186564814 0.018847029685684347 -0.01455920589038299 -0.01891603856553063 0.019738934801357598 -0.02258880927352254
-0.02429981991229251 0.02674369056340601 -0.03908771398839444 -0.03415708727902318 0.055453484027350224 -0.011432147825408424 -0.028348735352072413 0.02459063323887865
-0.03288384441004164 -0.03126946287092178 0.030476145641264125 -0.011227567594827664 -0.015380679748705014 0.02212362384553204 -0.04900951511512884 -0.02048069366266691
0.03425623685859245 -0.02569994190008319 -0.015302167602647729 0.014292275698788636 -0.028667012066624906 -0.011833358070745946 0.0202486770219499 -0.04419622788066963
-0.02042383929256381 0.03167040528331469 -0.03037413502050123 -0.025410683769730925 0.018313005484819775 -0.02075791149877173 -0.01756499868975565 0.024839482088605907
-0.02176745203690384 -0.01012050310369686 0.016839520745078246 -0.03475274345264517 -0.001416240033705746 -0.049261848013092184 0.033120016955051665 -0.2700893755835401
