backend/FastApi/sign_language_data/B/B_6_aug0.npy (npy, 30368 bytes, 1 tensors)

array f8 [30, 126]
0	0x3f66059ca0a7e70a	0.00268822280235959
1	0x3fa302582d791f5b	0.03712726168720223
2	0x3f7eac6b746f68a6	0.007488651032838833
3	0xbfd26fb63d20c9f2	-0.2880683514551087
4	0xbfc65189ab17f63b	-0.17436333517245992
5	0xbfb66d9712a891ec	-0.0876097126534387
6	0xbfd8b76352f334a8	-0.3861931142863093
7	0xbfe29ba04157500f	-0.5814973140900309
8	0xbfbf21cab8d06d23	-0.12160937320770819
9	0xbfcc9322597c58e9	-0.22324017877026073
10	0xbfe8a6fb08eea37d	-0.7703833746391947
11	0xbfc69df08be33d8c	-0.17669493513538403
12	0x3f879bb2c16a6f73	0.011527439620571766
13	0xbfe78bdc26fc1fc6	-0.7358227502272647
14	0xbfd14c0f6a6ca025	-0.27026734726905693
15	0xbfce3b76bd015afe	-0.23618969181799082
16	0xbff1829cf3cb3340	-1.094387962645854
17	0xbfb5eded6aea38a3	-0.08566173420169547
18	0xbfce348bd37e737a	-0.23597858263829236
19	0xbff6cb76d18ff7ff	-1.4246738611250291
20	0xbfc4096fa29957a6	-0.15653796615032184
21	0xbfc48618495a011a	-0.16034225064869007
22	0xbffbcd2aefb50b5d	-1.737589775425213
23	0xbfc84dd26c4c2471	-0.18987493789635182
24	0xbfc49a0834fc2640	-0.16095068537861046
25	0xbffe65a841b6e8c3	-1.8998186652157052
26	0xbfd0ef79b9370909	-0.2646164234867148
27	0xbfa41963332f9a73	-0.03925619125202653
28	0xbff16f6d1260599c	-1.0897036283327912
29	0xbf9ea12ab4d65fca	-0.029911677634657775
30	0xbfb1f0820a8ea793	-0.07007611043687083
31	0xbff7d4ae5d6d1f69	-1.4894240998709967
32	0xbfb850e1a4086bb7	-0.09498415236195866
33	0xbfaffb28524146a1	-0.06246305469597969
34	0xbffcfb0a7f794daa	-1.8112893084952284
35	0xbfc9dcdd2ce83876	-0.20205273335199408
36	0x3fa35750aef59903	0.03777553687796067
37	0xc0005715601b9c5f	-2.042521239130607
38	0xbfd13cf1aaab9254	-0.269344727201575
39	0x3f97794982c789b4	0.02292361126627336
40	0xbff0d80adb34db42	-1.0527447283509024
41	0xbfba5c195780d527	-0.10296781908330797
42	0x3fc0116ec683b6f9	0.12553200429049818
43	0xbff727082b878a3a	-1.44702927592938
44	0xbfc432f703732c65	-0.15780532520725213
45	0x3fc185caa3ef2954	0.1368954945049362
46	0xbffb8dbdd81c11a4	-1.7221048776419616
47	0xbfcfc86ba4e68e9c	-0.24830384780681392
48	0x3fbf1014307bb8a1	0.12133909400629019
49	0xbfffa5ba4b6cace4	-1.9779608675260585
50	0xbfd2c022d2a23648	-0.29297705239955407
51	0x3fd0499bff61a2ee	0.2544927591284666
52	0xbfec26bfd2db9e56	-0.879730140525633
53	0xbfc84621166780bc	-0.18964017480812412
54	0x3fd0967e73b700aa	0.25918542194632244
55	0xbff3ebe5c5fd5368	-1.2450921758620215
56	0xbfcd107e688b9364	-0.22706585030314408
57	0x3fd0eabc4e1da46a	0.26432712200636976
58	0xbff78a9e119b7764	-1.4713421523842607
59	0xbfcef8ff8f22543a	-0.24197382439584364
60	0x3fcb5c65f6650606	0.21375727206218204
61	0xbffa7c6cbeced9dd	-1.6553771451414072
62	0xbfd4c41acfef5059	-0.32446928316244833
63	0xbf83379b4ab9b2c1	-0.009383404939592112
64	0x3f965e8c35e8051c	0.021845045843297148
65	0x3f9cb0e7562bf110	0.028018583902835792
66	0xbfa229c6a1209b54	-0.03547497479330866
67	0x3f927c3c740e30a3	0.018052048285924226
68	0x3fa1b70a3391147d	0.0345996082255988
69	0xbf7ca8aabf3ca0d5	-0.006996790867369114
70	0x3f88ff0e446effb0	0.012205230201175116
71	0x3f9c3a063c63b4cd	0.027565095363503645
72	0xbf93968645e5d31e	-0.01912889291402841
73	0x3fa0cdc8232ac559	0.03281999043737
74	0x3f95bd706e4c9942	0.021230465633516056
75	0xbf8d6bf42f62b083	-0.014366061874476315
76	0x3f6d8b2648eb0bda	0.003606390738555271
77	0x3fa2d0777dda95b1	0.03674672519018019
78	0xbf92cba5bfcf5009	-0.01835497840131953
79	0x3f943b49a9426caa	0.019757414775636896
80	0x3fa1bf139bd1a44f	0.034660923739303066
81	0xbf953dfbf7340e1d	-0.020744263613790993
82	0x3f8908f1c21a2af7	0.012224091278104405
83	0x3f98ea89d25ce207	0.02433219286396773
84	0xbf9f72cf77867d31	-0.03071140448593929
85	0x3f763f92fe75dada	0.005431722827202912
86	0x3f9eee176d7d1578	0.030205122049002026
87	0xbf99b1d61c1159b2	-0.025092454398270632
88	0x3f98091e17947853	0.023472280682760815
89	0x3f9c3b8dcdc1c3af	0.027570930179027616
90	0xbf9e888ffbfda010	-0.029817819361966313
91	0x3f9ced8fa6912a65	0.028249973813482394
92	0x3f8d0ff6a017a91b	0.014190603981621799
93	0xbf89d0e0e8066396	-0.012605435448493723
94	0x3f99a73f17325f47	0.025052057066744095
95	0x3f950ae95e69e454	0.020549436938811574
96	0xbf7bc1d90ed2706d	-0.006776664621750067
97	0x3f8943f7d6cb5a62	0.012336670153144162
98	0x3f99b0891bf1779e	0.0250874923043437
99	0xbfa46089415a56b9	-0.039799012401244345
100	0x3f8a0c66829341a0	0.012718964443053704
101	0x3fa3f56679969b06	0.038981630651781216
102	0xbf928a62e5398c9f	-0.018106026879092792
103	0x3f9bd92b71b5fa34	0.027195624175414504
104	0x3f9ef8bbc2ee9a08	0.03024571778555621
105	0xbf8a401a499b5520	-0.012817578669834406
106	0x3f9b92cccc713891	0.026927185037771088
107	0x3fa9f20251cc93df	0.050674507603879475
108	0xbf95dc238c1db631	-0.021347575594907468
109	0x3f8b1d67fdfd854b	0.013239681662244115
110	0x3fa130cc26097eda	0.03357542003936738
111	0xbfa0f006531865d8	-0.033081243175000885
112	0x3fa2c91eca952e92	0.03669067595418797
113	0x3f9d6d5e298003c2	0.028737517626726612
114	0xbf9a2c490eacbd11	-0.0255595603186381
115	0x3f9cbcb6371362db	0.02806362830310403
116	0x3f91b107ab3d8dc4	0.017276878191649706
117	0xbf8ce59119652c63	-0.01410973891019846
118	0x3f97d2713d57527f	0.02326371132751825
119	0x3f931784d6dcc74a	0.01864440499702561
120	0xbf79f471cce3d01f	-0.006336636097547226
121	0x3f9f30dc99873d2b	0.03045983016073454
122	0x3f97470965e42afa	0.02273192104716324
123	0xbf87dc7e05aee025	-0.011651024387774165
124	0x3f9811f8491ff2fe	0.02350604959791535
125	0x3f9394b0acaa3290	0.019121895350098728
126	0xbfb05a292f22d466	-0.06387574578077845
127	0xbfa49a20bb778b6f	-0.040238402256156706
128	0xbf916659c9fedb19	-0.016991999582127357
129	0xbfd1f13135a3cf7a	-0.2803462051226614
130	0xbfc3bec63af271ac	-0.15425947073243884
131	0xbfc124a9e49d19fd	-0.13393138563897358
132	0xbfd7e802c1d4f057	-0.37353581360708205
133	0xbfe0efa710f7ea17	-0.5292544680990571
134	0xbfc525c3b59f0cfd	-0.165214980776092
135	0xbfd1b18330c5c7c2	-0.27645950091311644
136	0xbfe9f0792ba67917	-0.8106046536011345
137	0xbfce9cc348dcb39d	-0.239159021928029
138	0xbfb91e12431a0b14	-0.0981151021788203
139	0xbfe720780a6c9664	-0.7227134898755136
140	0xbfd192fff128a69c	-0.2745971541467982
141	0xbfd1955899c3a628	-0.27474036232033194
142	0xbff05e98279d83ec	-1.023094324824565
143	0xbfb9b5940bc44a8c	-0.10042691504740214
144	0xbfd317acd85b1bc2	-0.2983200180864821
145	0xbff66b6b8483ce03	-1.4012255836831862
146	0xbfc4fd9d8c40dfb5	-0.16398972843466955
147	0xbfd3549db273d035	-0.3020395510386636
148	0xbffaf321c821c09c	-1.6843583886766629
149	0xbfcf620a35d780c9	-0.24517943982119153
150	0xbfd03848b4a822da	-0.25343530313743445
151	0xbffd62ec2d327e72	-1.8366510167615187
152	0xbfd0c73ff4f8a523	-0.2621612446115071
153	0xbfbd28d4e5146b98	-0.11390429108398192
154	0xbff0a8c6bbd6c5fd	-1.0412051522692984
155	0xbfc2d6f8d4a4e30f	-0.1471854246426791
156	0xbfbd63a231ddc667	-0.11480153768004585
157	0xbff817007526b27e	-1.5056156707970838
158	0xbfc2696f08334d14	-0.14384258175287157
159	0xbfc2aa2a6a6677cc	-0.14581804461789571
160	0xbffc272476befd7a	-1.7595562590139182
161	0xbfcd2dd5e1ba4b1d	-0.2279612877069547
162	0xbfbeefe432a3348f	-0.12084795223491283
163	0xc0000e18a0a32946	-2.0068829107086996
164	0xbfd172cec12bde3c	-0.27263230194464305
165	0x3f53223261596424	0.0011678211207224532
166	0xbff06f3992f06b16	-1.0271545162019655
167	0xbfc039beddcebacd	-0.12676225500532326
168	0xbf50e55fbc04cb09	-0.0010312495142669762
169	0xbff5c562b3811a25	-1.3606898319136544
170	0xbfc784de26f6c244	-0.18374230291876092
171	0x3fa82fd5cecdcd92	0.047239953512782
172	0xbff9fff9ba69908d	-1.6249940187199485
173	0xbfced0711e707cdd	-0.24073614107417188
174	0x3f9bf2b1fe30150e	0.02729299653949107
175	0xbffd8e3344d78a1e	-1.8472168625963898
176	0xbfcd826e02583346	-0.23054289926985855
177	0x3fc5c12895c48678	0.16995723069071622
178	0xbfed15b4abb59895	-0.908899627084582
179	0xbfc741e2f52d9f7b	-0.18169819804756657
180	0x3fc21d19186393ab	0.14151300135486386
181	0xbff3205540550cd0	-1.1953938019731147
182	0xbfcc492dbc38794e	-0.22098323526820213
183	0x3fc3089b9d6f75d7	0.1487001913764476
184	0xbff62ba5e61a186b	-1.3856562603337135
185	0xbfd14cc6844dc93e	-0.27031100197122615
186	0x3fc5080715de4269	0.1643074852732014
187	0xbff8eddb47cd1545	-1.5580704502802558
188	0xbfd298f6cdb33970	-0.2905861862936012
189	0xbfa83892b3b39db5	-0.04730661815284113
190	0xbfa286e0357b69a9	-0.036185270813536015
191	0xbfa25054feb1172a	-0.03576913460760374
192	0xbfa28cd75f0ccf96	-0.03623078379896964
193	0xbf9b7e61affec6cd	-0.026849295012374697
194	0xbf8bec20337c5605	-0.013633967944353573
195	0xbfa02d150b24a1eb	-0.03159394989990346
196	0xbfa20a4a16cc8ae6	-0.03523475197132146
197	0xbf963c51a41f54f6	-0.021714473383174636
198	0xbfa5118bec4eadd7	-0.041149494739638186
199	0xbf8a8654bfe1998b	-0.012951528650046359
200	0xbf82665fd2079c7f	-0.008984325978373285
201	0xbf98c47d5c5c4638	-0.02418704868529728
202	0xbf76d40f31de20fa	-0.005573329310103009
203	0xbfa09468cd82bbb5	-0.032382273756744885
204	0xbfa0010d7f87b7e4	-0.03125803167118571
205	0xbfa7d5475679d768	-0.04654906206717052
206	0xbf96f0a5bcfbfd06	-0.02240237203568276
207	0xbf9c1db637cee04a	-0.02745709148049994
208	0xbf9f64b28b5243be	-0.03065756774282468
209	0xbf93a95e831806fe	-0.019200779677709605
210	0xbf9eaa3a5a45aa32	-0.029946243057034923
211	0xbf99c5ed7e06f7d7	-0.02516909677228071
212	0xbf910da9fb0b97a5	-0.016653686473453572
213	0xbf84152bfa64c6a4	-0.009806006983669242
214	0xbf920ab98a7f1272	-0.017619036749027157
215	0xbf9203dad3dbda9d	-0.01759282987674259
216	0xbf98e5160e25fc96	-0.02431139432291881
217	0xbfa45201c20afaa9	-0.03968816274345006
218	0xbfa1a8c9d34d0e51	-0.03449087814672381
219	0xbfa2526baf7c1752	-0.0357850696291694
220	0xbfa1bc692b179383	-0.03464058543230577
221	0xbf8b40bc8fdd0f43	-0.013307068958631546
222	0xbfa148b3dbcf327e	-0.03375780161113527
223	0xbf9ee5bce281a30e	-0.03017325527653996
224	0xbf918b73b25b1f70	-0.017133529435141737
225	0xbfa330480f8a6411	-0.03747773351387463
226	0xbf9cea84384c4358	-0.02823835939040306
227	0xbf810629a3e9b100	-0.00831253558609335
228	0xbf9ccf4cc703ebd6	-0.028134536406451215
229	0xbf7913c1e751b699	-0.006122357784176601
230	0xbf8d502a70cf0f76	-0.014313060348179123
231	0xbf93aa34bd066886	-0.01920397189824332
232	0xbf97dc07d54adf6d	-0.023300287621821725
233	0xbf95400a687204c1	-0.020752108216133495
234	0xbfa24ea70bce0bc1	-0.03575632113554362
235	0xbfa2e4e21421902a	-0.036902489621553805
236	0xbf8787fbd22a8f6e	-0.011489837027802454
237	0xbf9ab7e7fcb59deb	-0.0260921714774706
238	0xbf9c43456fd860b5	-0.02760036940716822
239	0xbf76dbb654417b67	-0.005580627654210391
240	0xbf9a9d544838c36a	-0.025990788372101482
241	0xbf9d0e885b4fb89f	-0.028375750134664753
242	0xbf9483090278e816	-0.020031109596153916
243	0xbfa0e8c246e49ad5	-0.033025809434823174
244	0xbf9a6ed45eeafae4	-0.025813406270340247
245	0xbf54307cb7b7a874	-0.0012322633691561865
246	0xbf9fd6615bb6d5a4	-0.031091233465948456
247	0xbf9e4a3fe43632fe	-0.02958011465448162
248	0xbf8e7699d62e2647	-0.014874650810969515
249	0xbf908a5e89d1b331	-0.01615283695393827
250	0xbf93c63ea6b6d5bf	-0.019310931134631334
251	0x3f63169347ce1ead	0.002330100686268674
252	0xbf9c83baad2f0b86	-0.027846257038401066
253	0x3f956c07d7c81d20	0.020919916672963557
254	0xbf90facb430e51eb	-0.01658170315529787
255	0xbfd000e6d37918b5	-0.25005503322280315
