backend/FastApi/sign_language_data/B/B_7_aug2.npy (npy, 30368 bytes, 1 tensors)

array f8 [30, 126]
00000000: d35e e18f a32c 7d3f eaf2 d75d 34e1 5fbf
00000010: f849 0f9d 7b5d 9ebf 085c 61c9 98fb cebf
00000020: bf2f 8bce f9e1 babf a736 3474 7a91 aebf
00000030: 9f84 b5e1 121b dbbf 8ed4 b1dc b6c0 dabf
00000040: 970c a4fa 9372 c7bf cf77 1255 1492 d8bf
00000050: ccf5 33c8 21e6 e7bf 347f 2531 b7b0 c9bf
00000060: 2be8 2072 a1e9 c6bf 1cc0 ec38 f83d e8bf
00000070: 8ca6 be9d 810e d1bf 3193 a0f3 765c d8bf
00000080: 4ea1 20cd 8315 efbf a8bf 8801 464a b3bf
00000090: 94d4 6b94 fd2c d9bf c2b6 89e4 380f f6bf
000000a0: 8ed1 7a40 1ded c5bf 91ef 2ede 07da dabf
000000b0: 61b4 31b5 1313 f9bf 7a13 9a1e ea8c cdbf
000000c0: 6e3d 7624 eaa4 d9bf 617e 99ba 0d2e fdbf
000000d0: db42 76f1 10e7 d5bf faab 4837 8fd0 c6bf
000000e0: 5bb1 d925 c87d f0bf e16c 5c9d 3cd5 b7bf
000000f0: 6abe 5025 4a24 cdbf 25d1 921f 0a97 f7bf
00000100: 8021 d9dd c4b0 b8bf 6e9b 3636 7f21 d0bf
00000110: 236f 052f 7666 fcbf 3854 f3f6 fdac d3bf
00000120: 77d2 0dba bdc8 cdbf 0899 e8d7 c215 00c0
00000130: 8280 6d20 a32e d4bf 3ce2 4795 f4cc b2bf
00000140: aeb6 b5a5 f303 f0bf d8a0 ba90 1ae0 c1bf
00000150: 3bae c810 b61e b0bf 13bc 79ad 8865 f6bf
00000160: 30a6 e5e5 cc3d cabf 5d7f e1d2 c199 bdbf
00000170: 13f5 991a 22dd fabf 7147 de1b 92db d0bf
00000180: f2f2 0d69 a3f0 c1bf f3a1 d76b 0653 febf
00000190: 57e1 e355 174b d5bf ffd0 2296 4df6 c03f
000001a0: d0d6 4f85 4bfe ebbf 626b 0485 c690 cabf
000001b0: 024d c57c c94f b53f 7e06 64d6 ce43 f3bf
000001c0: 550c fb24 5544 cfbf 3043 df3b 5c52 b23f
000001d0: 9a5b 8389 1100 f7bf e18c 2082 9b73 d5bf
000001e0: 44e8 03c3 efce 773f 70f0 5deb 1d8b f9bf
000001f0: 042f 3847 4460 d3bf 44a2 3bdb 5dee 9d3f
00000200: 75e7 9769 baed 8c3f e532 2b8d c44d 75bf
00000210: 97b5 6582 7e75 943f 4599 d0c0 fc51 903f
00000220: a4a7 a6f2 a2ba 5dbf 3bd9 8466 152c 8d3f
00000230: 3897 1aef 26f7 883f 0840 f966 c5b5 883f
00000240: 3af2 4f42 fd35 963f eaef 78f7 83ca 73bf
00000250: 3868 56ca 249a 823f 7554 755b f418 a53f
00000260: 8cce 4284 10e2 8c3f 99d4 58ac ea3d 78bf
00000270: e53f c000 e710 8d3f 173c 684c 6676 92bf
00000280: 8836 0fc8 2b84 763f 8ae5 b0f4 359f 973f
00000290: 6f49 5529 c012 773f 2256 8f1e 3462 81bf
000002a0: b1d9 b01f b78a 9b3f ebb3 4580 0103 90bf
000002b0: b95e 88c7 fe52 763f 8ef9 5cd9 eecd 8f3f
000002c0: 2d43 e816 07ad 913f 76fe 7cab 4795 863f
000002d0: 02f2 0e73 6df6 a83f 7c17 6d73 6cb1 903f
000002e0: 89af ec28 de1e 89bf d653 e759 e042 a23f
000002f0: f576 c2ea eb52 953f 10d0 d689 6271 90bf
00000300: 4f92 6d1c c538 973f 985d 1245 5775 803f
00000310: 3a77 4b8f 4d3e 843f 584c 158e 7c0c 933f
00000320: 87f4 e2de 769e 833f 6912 80cb 775d 8a3f
00000330: b7bc f02e baf2 953f 8e86 15c5 8f78 613f
00000340: e85f 07f6 b25f 8ebf abed f44e 1795 933f
00000350: 629e 45e1 b5ee 603f 1739 64aa e5fa 8b3f
00000360: f98e d80e b00b a33f 2253 5f87 8927 6fbf
00000370: f235 b8df 1e41 913f 277c 87f6 bd4e 9e3f
00000380: 68ff 6304 a3b7 903f f0ad 5f64 1dc0 893f
00000390: 7924 4d24 9fa4 963f c751 f122 6e78 6abf
000003a0: dd64 e0c5 adfb 77bf 8f66 1d89 a13b 903f
000003b0: fcbd fe46 f463 873f e086 c4f7 9a9e 73bf
000003c0: c39b cea7 165c 883f 1658 c672 c872 74bf
000003d0: c743 50e1 59aa 933f 3f8d 1dcc 96de 7d3f
000003e0: 02c0 fd65 23f2 783f 9e31 38b9 f3f9 57bf
000003f0: 43c7 8354 014d 9a3f 383b 4a9b 6112 91bf
00000400: 6063 53af ecfc 703f 983b ff75 4a7a d0bf
00000410: 5cd8 0bb5 8e6f c9bf ecbe 47ee 691c b5bf
00000420: dc78 fd22 3665 ddbf 0902 6752 a524 e0bf
00000430: c636 c3b0 b3c5 c4bf 257f 1e39 4df6 d5bf
00000440: a328 3405 8216 e8bf 6ce9 5016 7674 cfbf
00000450: 36e1 bf7e c465 c7bf 7839 fab6 9a91 e8bf
00000460: 7c71 2699 40f7 d3bf 0276 b55a 23a9 d2bf
00000470: eb99 0880 9fed f0bf 566f 17b1 c55e b7bf
00000480: cd89 d246 765a d1bf 52cd b98f e8c1 f7bf
00000490: 83b3 c4a2 ef83 c7bf 5882 a174 2070 d0bf
000004a0: 591c 210f 4ba3 fbbf 45e4 beca c3ba cebf
000004b0: 109c 1d11 1bda cbbf ab0b 7b20 61fd febf
000004c0: 5cc6 b21d a664 d4bf 542e 54f2 9ef5 bebf
000004d0: 0cf4 9b3c c4d4 f1bf cc6c 4935 cc71 bbbf
000004e0: 4834 a7e0 7bd9 c0bf 8be6 b94f 3601 f9bf
000004f0: 30ed f096 c765 cabf d833 bff0 3008 bcbf
00000500: 92ca 44a1 cc3a fdbf e897 6890 e503 cfbf
00000510: dd9e 1799 f41d acbf 9cd2 a22e a347 00c0
00000520: dac1 a93e 6171 d3bf 1b78 144d a13e 9b3f
00000530: 403c e2b3 f47d f0bf 2aa0 78cb 3079 c5bf
00000540: f5b8 29e5 7b51 973f 4a07 ee31 cffb f7bf
00000550: 148b 1f9f e0bb cdbf c374 05a9 a304 973f
00000560: 14ad 61b4 dd47 fcbf 0765 87f7 58dc d0bf
00000570: 24ed 1048 a550 9b3f e9bb a3f6 b6f7 ffbf
00000580: dfe7 c364 4f23 d4bf 8c30 132d 3393 c23f
00000590: a676 9fac 08cf edbf 7460 1c8b 983b c9bf
000005a0: 6b5b 38d3 5fe2 c93f 4446 3247 a1bc f3bf
000005b0: ea80 665f 36f2 d1bf 9058 4825 38ab c83f
000005c0: 5a8c 4f8f e874 f7bf bf58 1121 de25 d5bf
000005d0: f1f0 fb78 a2dc c63f 9baf d6e4 98fc f9bf
000005e0: df71 e990 4f9c d5bf c518 a469 c4c9 95bf
000005f0: 3bcc 6eef 94e1 a6bf 1172 1297 d014 783f
00000600: 7f12 af2e 0026 94bf 7f86 ee64 98ec 98bf
00000610: 2395 300b d2c9 6b3f a909 feec 92d3 a0bf
00000620: 6ee6 dcf3 5d6e 91bf 1ff6 9965 8f13 803f
00000630: d8fe 5533 c8f0 9cbf 856d 7fcb 44e4 a1bf
00000640: 9ee4 189e c04b 7fbf 8ebd feee 80fe 8bbf
00000650: 5188 144c f24a 9bbf 09de 4c74 073c 9f3f
00000660: 01db a1ef a318 83bf 4a69 923e 1bf8 a6bf
00000670: 752f 2548 386c 993f 7312 0d6a 7ec9 86bf
00000680: 72f9 0678 dc53 a7bf 6408 d4f4 5a29 823f
00000690: d3b8 2cb3 8671 93bf 8f64 23e9 020d 90bf
000006a0: 6b4a ba86 adab 803f a5f8 1187 9871 91bf
000006b0: 02b4 3912 bb55 99bf c154 a96f b428 81bf
000006c0: 5f64 f82a c56e 9cbf 7ea2 7806 4a38 94bf
000006d0: c2f1 f9d7 f9af 7e3f 1566 cd49 7431 8ebf
000006e0: 59f8 69a7 1793 96bf b011 d344 2497 823f
000006f0: 7df9 006a 9564 7fbf 2f3a 2926 8262 97bf
00000700: b042 6876 551d 70bf 887b 010a 8fda 79bf
00000710: d622 914b 2868 9fbf b8b5 2f31 ca06 943f
00000720: 297a c672 a25e 7bbf eb19 1c39 7274 a1bf
00000730: d220 014b 7ec6 91bf 56bf b1f6 3700 90bf
00000740: 6121 eb28 1681 8dbf 729d ef19 0c2d 8d3f
00000750: 57fe 88dd f264 80bf f53b 53e6 3f2b 9ebf
00000760: 3a78 2f68 de7d 8fbf b9b4 06b5 3279 84bf
00000770: e211 3812 c86d a8bf ed39 75ca d271 6b3f
00000780: e02d 0695 be67 8bbf 6fee 67e5 2e58 a1bf
00000790: 750e cc8f 1aea 5cbf 12b7 5079 27e5 88bf
000007a0: 59b8 69b4 6ed4 a2bf c58d 22a8 886a 7abf
000007b0: 2175 0505 58c2 9abf 69e9 2d0d aa83 9ebf
000007c0: 47c2 cfbf e804 913f c443 fff5 5ef1 7cbf
000007d0: 93ae 9a21 c70e 98bf 1f54 b7cc 755e 633f
000007e0: 848c 851f 7193 2cbf 2c52 37c2 eeb1 a13f
000007f0: 1e88 e886 d3c0 92bf f930 823f 106e d1bf
0.007122649110975226 -0.0019457827942225788 -0.029653483830609034 -0.24205312569640136 -0.10501061718531356 -0.059703661618283825 -0.42352745096111194 -0.41801234771930573
-0.1831841443855395 -0.3839159804136871 -0.7468422804083104 -0.2007054319355973 -0.17900484154398674 -0.7575646507084488 -0.26651039509543106 -0.38064359466288794
-0.9713763243098954 -0.0753520730729621 -0.3933710050035384 -1.3787163665069078 -0.17129865311075004 -0.41955753991691674 -1.567157466687853 -0.23086287016135626
-0.4006905895302769 -1.8237435616537356 -0.3422281606699877 -0.17823972892196577 -1.0307084539918694 -0.0930974849874704 -0.2276699716762665 -1.4743748887386314
-0.09644728103842759 -0.25204448980587457 -1.775015052487057 -0.3074335967660917 -0.23268863281886684 -2.0106255405290803 -0.31534650961658184 -0.07343987125921897
-1.0009647820510668 -0.13965160433622859 -0.06296861562503235 -1.3997885490787254 -0.20501099801485756 -0.11562739752252811 -1.6789876021496795 -0.2634015342856549
-0.14015619878400504 -1.895269795664828 -0.33270820033751164 0.13251657324656915 -0.8747918704745761 -0.20754319663032123 0.08324870391998121 -1.2040546774518641
-0.24427284532257212 0.07156921827050833 -1.4375167247396576 -0.3351811190388628 0.005812584466406593 -1.5964640802403913 -0.30275065379167665 0.029229609018246686
0.014125305507139288 -0.005201118258537395 0.019979454716510494 0.015937756794437225 -0.0018145171439791575 0.014244239035730124 0.012190155193205862 0.012065450863843821
0.02169032780874345 -0.004831805701140704 0.009083068299151717 0.04120601288256235 0.014103058849605853 -0.005918423359209468 0.014192394934099137 -0.018029783643267985
0.005497141858496264 0.02306827836966855 0.005633116369909138 -0.008488089735617047 0.026896344479803328 -0.01563646645938725 0.00545024417126399 0.015529504784009853
0.01726161076846038 0.011026916428476623 0.048755092902386124 0.016301817460110155 -0.012265906928938157 0.03566647622543655 0.020824133113470606 -0.01605752912810493
0.022677497730358372 0.008036310000803223 0.009884458480367554 0.01860231988150604 0.00957959048934699 0.01287358846458027 0.021433743586553002 0.0021326835637161595
-0.014830968983844131 0.019123424715173403 0.0020669510214934997 0.013662142050205035 0.03719854527687789 -0.0038030325040189364 0.016849977879294493 0.029597252056074688
0.016325518744451456 0.01257346117559785 0.022112356749208282 -0.0032312537291920604 -0.005855253983122225 0.015852474206758557 0.011421116272543046 -0.00478992971719247
0.01189439487082023 -0.004992278100322897 0.0192045253534763 0.0072923555870574855 0.006090296053898216 -0.001463401805156562 0.025684376510020767 -0.016671681502482744
0.004147457647570046 -0.2574640419306262 -0.19871696319723042 -0.08246481006039702 -0.4593024579716152 -0.5044733628674872 -0.16228338366493328 -0.34315805986442377
-0.7527475453982969 -0.24574161615039303 -0.18279319943372635 -0.7677739690569032 -0.3119660850150223 -0.2915733705357014 -1.0580134393036313 -0.0912898595192336
-0.271146363413348 -1.4848409284866944 -0.1837138695495036 -0.2568436755155168 -1.7273665038099095 -0.24007460975352238 -0.21759355865216934 -1.9368602055335298
-0.3186431207678646 -0.12093537727576492 -1.1144449584528529 -0.10720516491840043 -0.13163708180801081 -1.5627959360412287 -0.20623106832668148 -0.10949998738870137
-1.82685530658333 -0.24230641890716176 -0.054916042030354474 -2.03497921404262 -0.3037951576179957 0.026606102304065 -1.0307509447773242 -0.16776094374768152
0.022771774160383413 -1.4989768934614909 -0.23229606408775594 0.022478635016672365 -1.7675454183725536 -0.2634489457391997 0.026674826167647173 -1.997977221904643
-0.31465515938145744 0.14511718464780576 -0.9315226909199807 -0.1971312216999227 0.20222089589580192 -1.2335522442921425 -0.2804084712643219 0.19272519894065399
-1.4660420988154983 -0.3304362605025623 0.17860823543004004 -1.6241692484863737 -0.33766545440246704 -0.021277493427100298 -0.04468980238689154 0.005879225545097914
-0.019676211213452973 -0.024340039406189447 0.0033921339431965 -0.03286418097470129 -0.01702257920189825 0.00784980801403906 -0.028262260564132585 -0.034944677201305153
-0.007640602505085385 -0.013669020932723066 -0.026653085607115937 0.03050243041363213 -0.009324341536041116 -0.044861651790784565 0.024826888469120918 -0.011126506434842675
-0.04556168523002925 0.008867941471639003 -0.018987755475955503 -0.015674634437207898 0.008139949487746287 -0.017034896129637506 -0.02474109934557945 -0.00837841954959584
-0.027766304729173515 -0.019745976109478473 0.007492042495524877 -0.014742763998287814 -0.02204548796952852 0.009077342367512425 -0.0076642834174535076 -0.022836717204251563
-0.003934224927903671 -0.006311949488092668 -0.030670766460647446 0.019557151081178253 -0.006682047427970996 -0.03409153887882951 -0.017358754470735267 -0.015625833923365327
-0.014406369327290393 0.014246077100280561 -0.008005044351306596 -0.029461859162264365 -0.01537679439018912 -0.00999679198215585 -0.0477125665893572 0.0033501736649335007
-0.013381470606666335 -0.03387590933195105 -0.001764799060027492 -0.012155826940297074 -0.036776980898921514 -0.006449254813705567 -0.026131987863995513 -0.029799134306338546
0.01662028952336161 -0.007066126767271311 -0.023493873048819735 0.002364378049359419 -0.00021801715753175601 0.03456064339448903 -0.018313698872710053 -0.272342741031721
