backend/FastApi/sign_language_data/B/B_8_aug0_mirrored.npy (npy, 30368 bytes, 1 tensors)

array f8 [30, 126]
0	0xbfaab6b3944bf852	-0.052175151684409685
1	0xbf5acb391099ce02	-0.0016353661798377277
2	0x3f8a978860ba1e21	0.012984338237642725
3	0x3fcb7dd7d6b93df9	0.21477792725134728
4	0xbfcb5025d449b661	-0.2133834158479884
5	0xbfc0e5b72fa60e31	-0.13201036287874637
6	0x3fd56d35e6968f11	0.33479068296786446
7	0xbfe101119ec6468f	-0.531380472284768
8	0xbfc50b7bddc757e6	-0.1644129593757377
9	0x3fcf8a267913fc76	0.24640351211562334
10	0xbfe84983370c9092	-0.7589737010171282
11	0xbfcdc1a8af306ac8	-0.23247250131756503
12	0x3f9cebe58f5cc6ce	0.02824362456812573
13	0xbfe52af9832f6521	-0.6614959299287514
14	0xbfce3ab7edf4cada	-0.23616694563823765
15	0x3fc83707bf8fa762	0.18917939046451254
16	0xbff078360fdfcb14	-1.0293484325490612
17	0xbfb65d04a547754b	-0.08735684428343864
18	0x3fc5465527173853	0.16620888146138899
19	0xbff5f89f206bbcaf	-1.3731986299933785
20	0xbfc50c85d13e175b	-0.1644446632091626
21	0x3fc81150a547e453	0.18802841253617206
22	0xbff9db271b8ee1bf	-1.616004092835382
23	0xbfc6ae4fbd86419d	-0.1771945643818186
24	0x3fc34db5a7b466d3	0.15080900849061737
25	0xbffcc0a8df5181e5	-1.7970360492109816
26	0xbfd16ba84d939c13	-0.27219588828887814
27	0x3f846f6cc6913b77	0.009978151140016085
28	0xbff0b4aaca4cc89d	-1.0441081907597785
29	0xbfad3e8025d89f08	-0.05711746656407796
30	0xbf62d7e01d5863b3	-0.0023002030600420497
31	0xbff7891fdd9e9f3b	-1.4709776551262184
32	0xbfbffac616806f5f	-0.12492025422437568
33	0x3f80ef55ff72612e	0.008268997057073148
34	0xbffb38a9d15cef8c	-1.701333825897538
35	0xbfc83fc0c748d463	-0.18944558840454126
36	0x3fa009e64d047aa6	0.03132552805094706
37	0xbffe859adc82502d	-1.9076183904298987
38	0xbfd0703137c7d7d8	-0.2568476719601427
39	0xbfa8d32a8c4ef428	-0.04848607027768309
40	0xbfef5f950634ad21	-0.9804177399832136
41	0xbfb1e2589a2b0d82	-0.06986001743194062
42	0xbfbc5c84f03df1d0	-0.1107867323425531
43	0xbff667ce60799ec4	-1.4003433006818549
44	0xbfc0d36bc47b62e0	-0.1314520558724075
45	0xbfc40f19cfbebb4b	-0.15671084064293903
46	0xbff9f5e36a84b0b6	-1.6225313340064935
47	0xbfc7c6fb38f06cdb	-0.18575992851479026
48	0xbfc4ce5e2534b619	-0.16254784409231673
49	0xbffd2cfec53b4ee1	-1.8234851555216027
50	0xbfd074bb02d661ff	-0.2571246650418572
51	0xbfc8460a27816a77	-0.18963744095784182
52	0xbfeb829bc2828353	-0.8596934126872874
53	0xbfc2b1ef84449108	-0.14605516394033935
54	0xbfd2c900b31b87a5	-0.2935182332131439
55	0xbff2e82838da70b5	-1.1816789837676371
56	0xbfcc73c6a5c09c65	-0.22228320210817568
57	0xbfd2dbd3f677c466	-0.29466723508000425
58	0xbff5a61bc8b2329b	-1.3530538406077202
59	0xbfce5e03a49f81cd	-0.23724408663021138
60	0xbfd211f600d224aa	-0.28234624939120556
61	0xbff8ccf10e3e0898	-1.5500345760670253
62	0xbfcb4a90757c375b	-0.21321302162726394
63	0xbfa0ecc5aca24760	-0.03305642826411659
64	0x3f6354edd7329501	0.0023598332714579455
65	0xbf4324559cec810c	-0.0005841653854510589
66	0xbf98484078a4e7a6	-0.023713118899855744
67	0xbf6cd9f73fcc36df	-0.0035219029508713885
68	0xbf79e9c1a936cc63	-0.006326443184138861
69	0xbf9f811edd8b6b04	-0.030765993377694492
70	0x3f74da5089349322	0.005091013520801354
71	0x3f857422e33b716f	0.010475418624473957
72	0xbf8d50d4462c7a09	-0.014314325706036095
73	0xbf8fec6e490bf6ac	-0.015587674717149134
74	0x3f903daa24fc2c77	0.01586023188341953
75	0xbf87bc745f2100d8	-0.011589917328933927
76	0xbf836bfeb4e25dd2	-0.009483327765606928
77	0x3f61d1d7d1e6cd05	0.002175256274506434
78	0xbf938d4a67dd1fa6	-0.019093668546048236
79	0xbf92657cf9d3a29b	-0.017965271709643998
80	0xbf8255bbec56f00c	-0.008952587270748345
81	0xbfa53756e5607b1b	-0.041437831401927215
82	0xbf8dc5be5f396890	-0.014537322312367956
83	0x3f74a88ccea59001	0.005043554332903711
84	0xbf9f47f816326125	-0.030547977785858955
85	0xbf8c7cbdfd5a0636	-0.013909801763705248
86	0x3f852bd338fd0537	0.01033749597229648
87	0xbf9ce09599f97ee8	-0.028200471423018764
88	0xbf9256a47c030fe5	-0.017908639973725732
89	0x3f9cd93ebd7bc4ea	0.028172474208024413
90	0xbf952bf99e74e079	-0.020675564094944286
91	0xbf76a798cd28cd19	-0.005530926590427109
92	0x3f87e6ee257f0595	0.011670933265011377
93	0xbfa0654e6bda730e	-0.032022905984581226
94	0xbf8addbaad3d657b	-0.013118227397785223
95	0x3f94a69e0e2ac24a	0.02016684495419189
96	0xbfa2f407ccb4ed45	-0.037018054712883365
97	0x3f87a8c1dcc1173d	0.011552347707162286
98	0x3f8ec7a865d6e2e0	0.015029254539386583
99	0xbf937b8e76e18620	-0.019026018148343593
100	0xbf996097d368f178	-0.024782535818518053
101	0x3f322e6ec8970129	0.0002774258105908861
102	0xbf9c068f5fdd23ce	-0.02736877462965364
103	0x3f81723bcf9a9571	0.008518664620462886
104	0x3f7fc56772374a56	0.007756618582294003
105	0xbf947c3574bdf3d8	-0.02000506901775964
106	0xbfa0850e3c534082	-0.032265133727947606
107	0x3f83a960b09874a3	0.009600406064288974
108	0xbfa171ce47e6e0ec	-0.0340713942309224
109	0xbf8d9d8e95f9250e	-0.014460672332591542
110	0x3f89cc0d326cbfe9	0.012596228696196437
111	0xbf9a4bd9d9165528	-0.025679973483041213
112	0xbf8d472b593a1e47	-0.014295900974743548
113	0x3f69dc6e89db0781	0.0031568678813024835
114	0xbfa23534ecee32fa	-0.03556218521325678
115	0xbf95d2ec8608ee9c	-0.021312423401680478
116	0x3f96c93a062b0753	0.022251993776769407
117	0xbfa3fbbdd12ca916	-0.03903001001738653
118	0xbf7b95dc8b618b46	-0.006734715940271146
119	0x3fa391517b1a2a68	0.038218065526128
120	0xbf9aeded83141340	-0.026298247456924218
121	0xbf892aa20fd9ca11	-0.012288347347952063
122	0x3f87364ade73ca05	0.01133402339335011
123	0xbfa44d38b7afd13c	-0.03965165369291632
124	0xbf71bda8fe4f6ae0	-0.004331264620271752
125	0x3f98835748133f5c	0.0239385259381487
126	0xbf94cea56225695b	-0.020319542041172905
127	0xbf93b8708af7f370	-0.01925826881596343
128	0xbf7502255dfd91c7	-0.005128999677115726
129	0x3fd065c523a492e3	0.25621155243633903
130	0xbfc5f55d42d1a830	-0.17155042421956201
131	0xbfb2bdda17866f8a	-0.0732094104227469
132	0x3fd8b24489f96172	0.38588059877431313
133	0xbfe0c4e7f0c45523	-0.5240363790968882
134	0xbfc1d892b07febc2	-0.1394217836203478
135	0x3fd52497e0c8699d	0.33035847617579767
136	0xbfe891be81512db0	-0.7677910352444339
137	0xbfca5039c302264c	-0.20557329198736551
138	0x3fc29a5a8f5af420	0.14533550262231731
139	0xbfe6b843a3b5019d	-0.7099931905177531
140	0xbfcc8e3126f40c72	-0.22308935548798875
141	0x3fd2fcedc4cf79d6	0.2966875478722647
142	0xbff0d0e200efd9a2	-1.0509967838857865
143	0xbfadf4262c826264	-0.058503334935441825
144	0x3fd3b5c35d9e4705	0.30796894209298414
145	0xbff757a9c3691c1c	-1.4589021332956298
146	0xbfc07631b3b1c86d	-0.12860699915069365
147	0x3fd3afc21ece528a	0.3076024342383695
148	0xbffabb949fc13915	-1.67079603580675
149	0xbfc63ebd9a278391	-0.17378969218318877
150	0x3fd276384046d5ad	0.2884655597402695
151	0xbffd6ad1f3c9ebc6	-1.8385791323660086
152	0xbfcf53581421a705	-0.2447309587762946
153	0x3fc4086e9adf5672	0.1565073257649377
154	0xbff14a6ee530d468	-1.0806721642268489
155	0xbfadeed69120d1d7	-0.0584628154905748
156	0x3fbeb4f8c29ac9a2	0.1199489092930777
157	0xbff7d8d30a60fc99	-1.490435638945007
158	0xbfc197f766412592	-0.1374501466073466
159	0x3fc3b9f243e15401	0.15411213221037204
160	0xbffcef206c5947e5	-1.8083805305836844
161	0xbfc2a80e0895026d	-0.14575362605139067
162	0x3fc0d53ec6227282	0.1315077273801713
163	0xc0002f10cc76a31f	-2.0229812596993635
164	0xbfd0003e96f25685	-0.2500149225319109
165	0x3fa1a7cfbc114769	0.03448342486139106
166	0xbff0cd21ada25439	-1.0500809462148608
167	0xbfc19f27ab4b5fd8	-0.13766952384935283
168	0xbfa416f6d467c345	-0.039237702778228946
169	0xbff6f3b7b9a51c60	-1.4345013858562865
170	0xbfc620bbde834095	-0.17287395825269827
171	0xbfa834fa400460d4	-0.04727918654879351
172	0xbffbcd2ad875a91d	-1.7375896888211806
173	0xbfc9b43cf94b067b	-0.20081293270600384
174	0xbf8d01c075729da2	-0.014163497528285888
175	0xbffe859ccbbcd13f	-1.9076202352999443
176	0xbfd14e116ee50245	-0.27038989858195733
177	0xbfc30105c78689db	-0.14846870653589303
178	0xbfee823bd90ba64d	-0.9533976782960935
179	0xbfc8eefc7cd841e6	-0.19479328247008637
180	0xbfcafd147eb1e354	-0.2108483904483146
181	0xbff3bbc9e535e508	-1.2333468392883464
182	0xbfc9363b57f6b76a	-0.19696752352814012
183	0xbfbf2c217608ce3f	-0.12176713115405223
184	0xbff6a0c873a2ce10	-1.4142536656407891
185	0xbfcc680a3bbf41fb	-0.22192504803980725
186	0xbfc5f159103e7281	-0.17142785351906656
187	0xbff99695abadf725	-1.5992638307793154
188	0xbfd22a1959413cb0	-0.2838195201520177
189	0xbf8a79240351084b	-0.01292637000199561
190	0xbf892805eb1da520	-0.01228336929098589
191	0x3f9d0630f8fbe40c	0.0283439304321043
192	0xbf9aa0d702233d7a	-0.02600418043658468
193	0xbf99dd0ee7606264	-0.02525733267984477
194	0x3f99da4f6af31060	0.025246849920918968
195	0x3f7b5d3ee9e1717e	0.006680722957835504
196	0xbf97fe12bfffd718	-0.023430150002204803
197	0x3fa30375736620bd	0.037135763489517505
198	0xbf88b97fcea81148	-0.012072561735302259
199	0xbf8d0043cb0935ec	-0.014160661348024704
200	0x3fa2a246b257fedb	0.03639431883857266
201	0xbf84277791e0c660	-0.009840902461380086
202	0xbfa00c9978b8ae3c	-0.03134612654352195
203	0x3f82856e9aeecc78	0.009043563941167884
204	0xbf74f62316f0ccde	-0.005117547100826429
205	0xbf9200f50e33453e	-0.017581776611057302
206	0x3f95ffb0c855d900	0.021483194568156172
207	0xbf9c38e875206d62	-0.02756083693394141
208	0xbf98fa28d2e52151	-0.02439178263856096
209	0x3f91dbf69276c676	0.017440655412150417
210	0xbf650fdc431eaeed	-0.0025710393901671098
211	0xbf910674598f8a67	-0.01662618443141142
212	0x3f8b46b02bc1df71	0.01331842072998743
213	0x3f6a7f240e71f2ef	0.0032344536044192
214	0xbf68b2fbae51ee96	-0.003015033306437885
215	0x3f9bac6beb627651	0.027024923555123263
216	0xbf99201f46ae7c83	-0.02453659886270688
217	0xbf920050d17e4ba4	-0.017579329287012904
218	0x3f88e054e6bfe383	0.012146628658216368
219	0xbf8aace97ba2eec8	-0.013025116048417287
220	0xbf87536b114161c3	-0.011389576400845485
221	0x3f8084cb565970f3	0.008065785000490133
222	0xbf7d4a36cab44146	-0.007150854139823365
223	0xbf93b6cb10284fbb	-0.019251988278554438
224	0x3f9efa453a7e400e	0.030251580901278934
225	0x3f736d327424b60d	0.004742810330112157
226	0xbf88e01b001df003	-0.012146197262829622
227	0x3f8544ed4b339525	0.010385373933284267
228	0xbf85503612b61baa	-0.010406897016549472
229	0xbf9278eafc577b0c	-0.018039390231815708
230	0x3f925274a10ac848	0.017892668084364766
231	0xbf301ad5e51a43c4	-0.00024574014705885613
232	0xbf940cdff4aaa983	-0.019580363567607072
233	0x3f9d4199863b7149	0.02857055551327051
234	0x3f6cb71fec1cb3e4	0.0035052894098925747
235	0xbf6f93d62cdb54a5	-0.0038546736821936816
236	0x3f92c25175aff680	0.018319390113893608
237	0xbf90c853bbf237bf	-0.016389187189410622
238	0xbf400bbfec63eec2	-0.0004896819234824978
239	0x3f8815b2734799fd	0.011760133879715967
240	0xbf82b6afc52b71d2	-0.009137509541170017
241	0xbf99c3f74b5b7591	-0.02516161343998175
242	0x3fa0d009e3cc3322	0.032837208802538834
243	0x3f65b4546004ed38	0.0026494644118010523
244	0xbf999a1f5b252998	-0.02500199312025017
245	0x3f972019c4dcd7d1	0.022583391800445277
246	0xbf7522fa7e528155	-0.005160311212563625
247	0x3f741ab17aea9dc2	0.004908269197279437
248	0x3f948779e25bcc2a	0.020048050347167536
249	0xbf941cc2c28fc53d	-0.019640963673684942
250	0xbf941fd649c2e0e4	-0.01965269875719934
251	0xbf62d898229f8b0d	-0.0023005458251516065
252	0x3f97acf3eb213f40	0.023120700098217428
253	0xbf998db089eb5031	-0.024954565446776825
254	0xbfa42b7ac10d70a6	-0.03939422232244398
255	0x3fcab30292c99bc4	0.2085879532562257
