backend/FastApi/sign_language_data/B/B_9_aug2.npy (npy, 30368 bytes, 1 tensors)

array f8 [30, 126]
000000 14 18 c7 96 43 7b 97 3f e3 61 ae 29 34 c7 ad bf
       0.022931152417889747 -0.058160429084811026
000010 28 29 63 57 d8 96 7f 3f d0 3b 0d 27 9b 26 d3 bf
       0.007712216456818667 -0.29923132718698486
000020 52 89 d1 89 44 b6 b8 bf fb 57 50 45 8e 1f b4 bf
       -0.09653118481359016 -0.07860650245888216
000030 15 79 b2 c1 a7 94 df bf 08 54 40 bf 1f 83 db bf
       -0.49344819942224777 -0.4298781745613387
000040 05 76 d9 59 ac 25 cc bf bb a5 d3 0b 89 5c db bf
       -0.21989969622784158 -0.42752290873485393
000050 69 9f fe 9e 50 a3 e7 bf d3 1c 79 e2 7d 19 d2 bf
       -0.7386859040607138 -0.2828058921481446
000060 48 8d c1 e2 19 39 c6 bf ba 3a d4 4d 78 72 e5 bf
       -0.17361758777688352 -0.670223381051833
000070 8c 12 35 f0 9b c4 d5 bf 2f a7 f2 3b d5 15 d9 bf
       -0.3401250692152551 -0.39195757726939723
000080 4b a6 c9 e8 79 3a ef bf 31 5d fe ab ea 87 ac bf
       -0.975888209022011 -0.05572446202784887
000090 4d c0 94 c8 94 47 d8 bf 34 56 e5 af 67 1a f6 bf
       -0.3793689688491256 -1.3814465399676807
0000a0 cb a6 74 20 8f d1 c5 bf 4b b5 05 ca d1 d5 d7 bf
       -0.17045773586987986 -0.3724255059122085
0000b0 47 a9 b8 21 f0 0a fa bf 07 23 12 7e 20 f7 ca bf
       -1.627670413707692 -0.21066671520045352
0000c0 67 d3 72 6f 26 6e d9 bf 7e 80 e2 0d cc 16 fe bf
       -0.39734803088804543 -1.8805656950353575
0000d0 73 8e eb 08 7e f5 d6 bf 7f 10 d7 a6 35 f3 cb bf
       -0.35873366232974674 -0.21835966726769482
0000e0 f9 a5 2a a7 f7 b7 f0 bf c5 fc 8c 61 03 e9 b8 bf
       -1.044913914675247 -0.09730549937829654
0000f0 cc d3 a4 bd cc 62 d0 bf db b9 36 5f 54 1e f8 bf
       -0.25603025932224166 -1.5074046820915246
000100 c0 96 ca 7e 33 e4 c3 bf 40 b5 0f c8 4f 4f d0 bf
       -0.1554016465280963 -0.25484079873315935
000110 40 14 c2 b2 87 a7 fc bf cd 38 67 cf 23 33 d0 bf
       -1.7909008963336106 -0.2531213307783105
000120 71 ab 2f 99 41 0c d0 bf c1 2d 06 39 10 5d 00 c0
       -0.25074806174841685 -2.0454410986910436
000130 87 5a fd ed c9 78 d1 bf 54 e8 ff 17 03 c1 b9 bf
       -0.2729973625295447 -0.10060138069084817
000140 bc 14 e5 97 ca 13 f0 bf 4b 7d 79 3d 00 63 c2 bf
       -1.0048318799393163 -0.1436462688607015
000150 ce 0e 06 ad 3f b4 b0 bf 38 08 9d 3a c8 a0 f6 bf
       -0.06525037740908177 -1.4142534532152364
000160 4e 52 1a 79 4e ce c7 bf 4d da 9f bb 61 93 ae bf
       -0.18598347581122926 -0.05971818366372315
000170 f0 77 3e 51 cc ad fb bf 56 94 f8 7a 14 a1 d1 bf
       -1.7299311803430975 -0.27545654305351286
000180 5f ca fc 8e 05 4d af bf ad ab a9 c5 f0 7c fe bf
       -0.061134504036449704 -1.9055030556871586
000190 9b 78 cb 40 e5 07 d3 bf 32 8a 77 d9 a4 92 b6 3f
       -0.29735690429323264 0.08817510899783867
0001a0 e8 c2 76 b3 82 23 ed bf d8 50 16 8a e0 a5 c5 bf
       -0.9105847840456507 -0.16912466757333422
0001b0 c1 c9 16 ae 5f ba b8 3f 5b d3 6d c6 a0 e7 f3 bf
       0.09659383774013632 -1.244049811471277
0001c0 0c 4b 4a 55 d7 a4 c9 bf 8e 57 31 70 1e 91 8a 3f
       -0.2003430525261013 0.012972104834414269
0001d0 9d bb e1 6b bf c1 f7 bf ef 0d 1e ce 34 29 d2 bf
       -1.484801694310341 -0.283765031134151
0001e0 f7 21 b7 dc 9a 7a a5 3f 62 db 17 ff be cf f9 bf
       0.041951026385110106 -1.6132192577913078
0001f0 f8 51 94 4d bc 02 d4 bf ef de 8a 48 43 0d 92 3f
       -0.31266696525679505 0.01762871866478027
000200 50 83 24 f0 41 15 7d bf f3 66 f7 a8 1c f4 7e 3f
       -0.007100350924049106 0.007557022050116424
000210 23 56 47 f9 eb 2f 95 3f 7e c2 6c 00 6f ab 89 bf
       0.020690619554292532 -0.012534014893021746
000220 08 19 20 36 2b fd 5b 3f 97 2d e0 cb c7 ae 89 3f
       0.0017083093630403962 0.012540398511211843
000230 30 4a b7 84 d6 2a 9a bf dd 94 29 0a 03 50 79 bf
       -0.02555403885873825 -0.006179820894066182
000240 89 81 a2 d3 ff 03 98 3f c1 5c 31 f1 ac 37 81 bf
       0.023452756206667345 -0.008406973944302345
000250 9e 14 ff c7 87 e4 76 bf dc 2b 58 da 0b bf 83 3f
       -0.0055890373186616975 0.009641735649912712
000260 b7 72 33 db 84 02 8d bf 43 03 21 c7 96 6a 86 3f
       -0.014164960803492261 0.010945489837583039
000270 15 88 e6 fc f3 92 92 3f aa ae 61 fd c8 26 8c 3f
       0.018138706503698716 0.013745851738540555
000280 a5 13 15 42 62 95 7a 3f 60 b1 bf 35 89 a0 72 3f
       0.006490119763218259 0.0045476302875438745
000290 90 f6 ef a1 7a b6 69 bf 49 46 70 54 07 6f 5c bf
       -0.0031387705962505133 -0.0017354556637240329
0002a0 c5 f9 e6 05 b4 0d 71 3f d3 20 f7 3d 51 87 9e bf
       0.004163459029256027 -0.029813069731773844
0002b0 5d 82 af 79 3c de 32 3f 8c 2f 94 f3 e1 a7 8a 3f
       0.0002879045147761489 0.013015523191391563
0002c0 4f 0a 03 f7 78 34 6b bf 8e d0 4a 99 1e ef 85 3f
       -0.0033209192843924105 0.010709990552051598
0002d0 24 03 ea b2 1a fd 83 3f f7 c2 ef 2d b4 b8 85 bf
       0.009760101876283019 -0.010606200839875053
0002e0 e2 4d cf 29 7f af 86 3f ad 48 64 a2 6d b5 71 3f
       0.011076920951302808 0.00432341409602281
0002f0 51 2f 14 95 c1 44 48 3f d6 91 60 90 d7 e9 98 3f
       0.0007406182504907465 0.024329536616407875
000300 18 91 c2 cd c6 e7 8d 3f 0f e6 da 95 03 7e 86 bf
       0.014602234987542803 -0.010982540140832801
000310 33 ee a5 cf ca 80 87 bf cc 76 42 f2 f6 0c 91 3f
       -0.011476120435637593 0.016651018654207303
000320 86 32 d8 75 05 85 3c bf 88 ec 9f c7 8e f8 88 3f
       -0.00043517478283731264 0.012192836253225772
000330 6e 5d c5 3e 22 3d 94 3f 15 df 4b 9f 61 a3 91 3f
       0.01976445682643429 0.017224812839201926
000340 ae fb 21 d7 a8 1d 75 bf 13 98 1b ad 42 05 8f 3f
       -0.005155238659539414 0.015146752269583208
000350 32 94 69 49 73 4e 84 bf 70 8d ab f5 cd 75 8d 3f
       -0.009915257146710574 0.014384850559003154
000360 ab 7a fa bb 23 e2 90 3f 73 3a fd 50 6d 11 76 bf
       0.016487654064457995 -0.00538771344856902
000370 fc 97 11 01 4d 6c 89 3f a3 da 19 12 f3 b7 8a 3f
       0.012413598628153714 0.013046168317697953
000380 3f ae 48 d1 eb 3a 7c bf b7 2c 8d c4 cd 90 9e 3f
       -0.0068921290990534 0.02984925758509568
000390 70 cb 7f 7f 68 48 7c 3f e9 a5 4a ad dd 2e 7d bf
       0.0069049913363298104 -0.0071247729544352345
0003a0 ae 81 a5 c0 b1 7e 89 3f 1e b8 ec 2a 9a 02 84 3f
       0.012448681537251396 0.009770588335950289
0003b0 e6 f7 62 6b 19 5e 93 bf 68 5e 3d 35 14 8b 68 3f
       -0.018913647822721112 0.002996005505263178
0003c0 b4 71 5d cb 6d c8 87 3f 14 03 b1 ed 03 f7 7d 3f
       0.011612756508548518 0.007315650315889117
0003d0 5f 81 77 94 1f 3e 95 3f bb 97 44 12 16 a4 9b 3f
       0.020744794308371946 0.026993126740442835
0003e0 9b 9e 2b b9 94 2c 79 bf c5 b7 7b a2 ce 2c 61 bf
       -0.006146031332469849 -0.0020965610345830854
0003f0 82 a6 4e a1 45 e1 9b 3f d6 ea 9e 63 53 9d a1 bf
       0.027226531954204443 -0.03440342513154852
000400 4c 3e 83 2e 5f 21 9e bf f4 2b b0 03 e8 44 ce bf
       -0.029424178327472725 -0.23647785358511408
000410 9d 87 5d 2e a2 38 c3 bf c1 9c 57 49 cb 99 bb bf
       -0.15016581787045605 -0.10781546154577183
000420 06 11 48 06 29 9a d9 bf 6a 64 3b 99 2c 73 d9 bf
       -0.400034195074355 -0.3976546760946521
000430 f3 d8 b8 ea 44 01 c9 bf b7 63 b6 c3 e6 74 d4 bf
       -0.19535123311079125 -0.3196350966696246
000440 1e f1 ea f0 7b fa e5 bf 47 27 e0 fc 7b e8 d1 bf
       -0.6868266778397218 -0.2798147172439837
000450 ce 3a c1 eb cc 63 c0 bf a3 88 01 f1 06 08 e4 bf
       -0.12804566871132866 -0.6259798724315896
000460 e8 2a 00 17 b3 61 d3 bf ce 7f ca ae fa 74 d0 bf
       -0.30283810850293813 -0.2571398455565913
000470 25 92 43 ff 36 55 ef bf a2 a0 98 19 b6 5f b0 bf
       -0.9791522012351989 -0.06396043896586659
000480 48 c0 9b 0b 4d 75 d1 bf 46 3c c7 86 6e 71 f5 bf
       -0.27278448232300834 -1.340193296887962
000490 53 89 0c d2 58 cd c7 bf b4 16 92 aa c2 d1 cd bf
       -0.18595419174477942 -0.23296387985845046
0004a0 d5 30 ee 8b 27 c4 f8 bf a8 b7 48 66 32 98 cd bf
       -1.547889277079823 -0.23120717996920104
0004b0 49 24 0d 16 87 5c cb bf bf 3e 94 b1 d3 9c fc bf
       -0.21376122071004236 -1.7882878243143947
0004c0 1d 32 ee 8c 8e cf d2 bf 53 55 9c 5c 6e bc c1 bf
       -0.293918264033694 -0.13856296083455763
0004d0 4c 17 5e bb ec d5 ef bf 57 8d da 45 b4 4a b8 bf
       -0.994863859131081 -0.09488989549077097
0004e0 62 4b ba c2 af de b4 bf fe f2 c4 81 e6 63 f7 bf
       -0.08152292732328939 -1.4618897503962098
0004f0 3d 6b 6a ee 1d 58 c8 bf df 4b ff ae bd 06 b9 bf
       -0.1901891149653582 -0.09775910875696024
000500 fb 13 65 c8 d2 c0 fa bf 54 5c d0 1c 0a 72 cf bf
       -1.6720760181353842 -0.24566770941666738
000510 bb 87 59 6b db eb b8 bf d9 e4 34 78 56 de fe bf
       -0.09734889384119942 -1.9292816825457548
000520 fa 21 e1 b6 f6 a3 ce bf 39 05 27 c6 4f 48 7f bf
       -0.23937877587947282 -0.007637321107212097
000530 02 ef c0 df ce 7b ef bf f9 7a 06 9a 7a 5a c4 bf
       -0.983863293665735 -0.15901119728820115
000540 df b6 61 c8 e4 2e 57 bf 4f b8 51 89 0a 2e f5 bf
       -0.00141498891892005 -1.3237405170471168
000550 76 39 06 7f 61 12 c9 bf 9e f4 4a 45 c6 84 87 3f
       -0.19587343885764213 0.0114837160011752
000560 69 00 98 91 2a 16 fa bf 14 5b 40 4b ce 06 d2 bf
       -1.6304116904502968 -0.28166539524811296
000570 81 5e a7 a4 fe c3 a9 3f c2 0a 03 cc 33 ee fc bf
       0.050323445891703684 -1.8081548661436249
000580 87 2e 25 be 65 2c d2 bf 8c 2f 10 0f 0e 4d c1 3f
       -0.28395980423804484 0.1351640294600397
000590 59 a4 b0 d9 d2 f3 e9 bf 1b b9 77 ae cb 6b c9 bf
       -0.8110136272199596 -0.1986021615879928
0005a0 3a 6a 9a 75 33 c9 bc 3f 51 1a 41 14 3d 00 f2 bf
       0.11244508382007093 -1.1250582495864772
0005b0 29 90 0a 73 95 ff cd bf 41 90 3f 58 89 24 c7 3f
       -0.23436229817628032 0.18080250557898306
0005c0 b2 4e 3c 77 da 08 f6 bf 61 6a 6e b6 64 0a d0 bf
       -1.3771614701881103 -0.25063436332280814
0005d0 c0 3a 4b 66 c6 ee bf 3f fc b4 e6 4e 6a 11 f9 bf
       0.124737167333687 -1.5667517740324106
0005e0 82 e5 32 b1 40 37 d2 bf 68 ea 90 cb ee 20 88 3f
       -0.28462235741206865 0.011781564318984653
0005f0 50 4a d9 ce 3b d3 5c 3f f3 f6 4d 72 11 25 7a bf
       0.001759346395733847 -0.006383007192992218
000600 01 07 0e f1 64 47 76 3f 0d a5 97 18 0d 4e 86 3f
       0.005439180663303623 0.010891058266639076
000610 85 01 1c 2d 3d c6 88 bf fc 12 7a bc 7a 63 90 3f
       -0.012096860827569564 0.016004483941759226
000620 22 e7 3e f5 3f 4a 9c 3f e4 70 2b 8f c6 b0 88 bf
       0.02762699064599084 -0.012055922741119614
000630 ff 0a 31 2d 9f cb 7f 3f 0f 3f bf 99 b5 1d 8f bf
       0.007762548240011879 -0.015193384890067855
000640 58 ef dc 79 e5 1a 94 bf 6c 10 c2 da 3d bd 8b 3f
       -0.0196338515881814 0.013544543493715554
000650 6e 76 4e b4 27 16 90 3f 9d 8c d2 fd 47 14 93 bf
       0.015709514980349608 -0.018632054202168836
000660 8c 47 fa 7f 12 6b 58 bf 29 cc 7d b3 4b ba 82 bf
       -0.001490371767350204 -0.009144393363135066
000670 4d 25 33 99 b9 11 80 bf a6 cf 4f 9e 3f f6 80 3f
       -0.007846307742868897 0.008282181757728168
000680 8e cb bb 23 fc 0d 96 3f 4a 6b e7 6a e2 67 86 bf
       0.021537723237041777 -0.010940331351709926
000690 d0 c0 91 28 c1 0a 78 3f 48 d4 ee ac c6 71 8b 3f
       0.0058696313145533835 0.013400604393476581
0006a0 cf b8 2e 95 e2 d0 62 3f 83 ab c5 c0 28 5f 40 bf
       0.0022968697971555772 -0.0004996251096093116
0006b0 7d fe 75 cf cd 8d 7d 3f c4 16 06 bf 0b 7c 91 bf
       0.007215312907078106 -0.01707475999275833
0006c0 cf fa d0 bc be 49 8f 3f cf c7 39 6e 74 b5 98 3f
       0.015277376305787098 0.024129695155757077
0006d0 2f 57 47 14 98 3f 74 bf ba dd 6b 77 14 a5 a0 3f
       -0.004943460521152506 0.03250946004657913
0006e0 04 92 bf b5 11 15 95 3f bd b2 9f 7e 11 6f 87 bf
       0.020588185041463106 -0.011442314793350556
0006f0 e3 5e 6d 89 ac 93 8c 3f b9 06 44 1f e1 ec 61 bf
       0.013953540748544884 -0.002188148204482623
000700 86 da c1 c7 e2 e0 8a bf 20 4c e8 ad 10 d0 78 3f
       -0.01312424823866577 0.006057801393143186
000710 a4 a0 aa 7e 74 a4 79 3f 3b 75 9f f5 33 0b 81 3f
       0.006260352189805616 0.00832214921313811
000720 88 19 ec 3a 08 8a 8d 3f 7d ac 10 2f b1 8f 5f bf
       0.014423431680836499 -0.001926348715879183
000730 a6 39 3f 1c cf 24 7b bf 8b a6 56 fe 60 f6 8e 3f
       -0.006626900696529969 0.015118367921633144
000740 70 e8 62 a3 b9 f0 71 3f 82 b1 c3 5c b1 19 79 bf
       0.004379964017227164 -0.006128018209193066
000750 1a f5 83 89 51 f3 90 3f b4 91 62 55 53 cb 83 bf
       0.016553186434056767 -0.009665156405682086
000760 89 5a 79 46 8e 83 7f bf 04 b8 bc 6e 28 f6 7e 3f
       -0.007693820727203823 0.0075589732548859735
000770 e1 01 3f 26 9d 98 82 3f 36 b2 ca fe 34 f8 58 bf
       0.00908015034644988 -0.0015240209133181699
000780 a8 51 d8 b3 3e 89 88 3f 31 c3 20 3c a4 e5 7b bf
       0.011980523932870593 -0.006810800116043223
000790 47 e4 4f e3 0a 4e 91 bf 92 2d 90 01 dd f9 81 3f
       -0.016899271129634987 0.008777357683377205
0007a0 6e f1 f7 a5 0e 99 6c bf f6 50 2c 11 e1 bf 7a bf
       -0.00349095211981714 -0.006530646484652394
0007b0 eb 43 15 f8 05 07 7b 3f 5e 93 b3 5b 96 f3 70 3f
       0.006598494831750105 0.004138552986863468
0007c0 82 d8 b0 fc 70 aa 91 bf 99 29 51 c0 1c b7 61 3f
       -0.017251744673750576 0.002162510065805989
0007d0 95 d2 1e fd 9e f6 85 3f d4 99 90 0a 80 18 64 bf
       0.010724298572179417 -0.002453088837245357
0007e0 88 f2 08 85 dd 9a 90 bf f1 5f cf f1 f4 df 83 bf
       -0.016215764279183392 -0.009704507474381759
0007f0 42 94 e0 29 90 44 62 3f f4 8f 39 64 1c 64 d1 bf
       0.0022299590773564868 -0.2717352846868828
