backend/FastApi/sign_language_data/w/w_0_aug1_mirrored.npy (npy, 30368 bytes, 1 tensors)

array f8 [30, 126]
0.01900922802383426 0.008498779028613446 -0.05972923109330845 -0.4570080293096316 -0.5922436878057108 -0.10092589014566691 -0.6358651280619853 -1.2909379629554858
-0.22766216492576985 -0.4665114019486791 -1.721362595541923 -0.3389767485488173 -0.18555682518105082 -1.995628650599842 -0.45621516839277787 -0.5922148343026061
-0.9450360510675659 -0.6650795089255376 -0.8964848817390803 -1.5076872865644242 -0.8532541387761267 -0.909032758107813 -2.098407820436334 -0.9452707628254081
-0.8008364269122781 -2.498409506777657 -0.9400072454764793 -0.17366433652045635 -0.748239948109306 -0.6659067827742093 -0.13603655354787922 -1.5350135665968967
-0.876633087619129 0.018222347733385227 -2.2364412308692296 -0.8836538264569644 0.09228600398023502 -2.548855681141966 -0.9503074167026176 0.22305483346320912
-0.5997179679876573 -0.7097274466461855 0.3567966630555456 -1.5206960659939823 -0.873581522227264 0.26778870124766163 -1.8299349471135775 -0.792727713790915
0.22196091576966048 -1.7351320575382017 -0.7390270910703033 0.6585682639991444 -0.5806964402311604 -0.7102586733888449 0.748540162147727 -1.5017939630916217
-0.8531733820080715 0.6916976510882562 -1.7227649588644232 -0.812108948144526 0.5321938035348537 -1.638745970546325 -0.7207289104626871 0.018935254299301936
0.022148200963377142 -0.016304405420466524 0.02924360638942417 0.0021295174598232216 -0.035690352670903036 0.006735589954378572 0.017122939445220416 -0.01775521597682508
0.0062691569159920475 0.03461423912609714 -0.03754020048409501 0.02772311863874668 0.01364753240521897 -0.023309099601523275 0.010837643714961069 -0.0009059373384930463
-0.030086217059235993 0.04819804216681128 0.014819333967820411 -0.016077815345388782 0.023095045024227726 0.02024148885304441 -0.011182414169634142 0.04265571558678252
0.03170849530608037 -0.025243987023763223 0.01880499940589597 0.01502958491184227 -0.04443273125505458 0.029387442584619946 0.020659201043362392 -0.010973999604522394
0.009924261778417586 0.011730027517113419 -0.0314165763580501 0.017468934542027262 0.01860615795608703 -0.014878804480510136 0.036494406010065386 0.028979952473429407
-0.012645203462679201 0.028338631341882435 0.014782848397842217 -0.014026176773241304 0.01664413559756224 -0.0020014797650549933 -0.02572027021518498 0.016756453283531404
0.00043361919936935967 -0.022516247101143083 0.024571744366273164 0.014214337616712938 -0.0408250892950704 0.005480202919101395 0.025427669986919102 -0.013491555371395202
0.009319929207042194 0.008871257905442935 -0.02608532616212127 0.010776757997681977 0.014900038643863214 -0.02554449450219334 0.003363187359726343 -0.043196561753857554
0.0025143585880302963 -0.4608811861266191 -0.7229762870786611 -0.0860317992899701 -0.6835408273841941 -1.4185303825797946 -0.29105791846555945 -0.5024122500657066
-1.8646512560645738 -0.38942915481130974 -0.15792269019886995 -2.088330615862016 -0.5159518243593216 -0.6677661370583858 -1.0791250873052554 -0.685355596120865
-1.0090811794416181 -1.629213698727223 -0.9520552249493712 -0.9377785909002821 -2.2577938009747154 -1.0139451018028551 -0.8179588756199593 -2.7461490045445243
-1.1094289802277113 -0.2803845269507727 -0.7692701326462501 -0.7308949921272448 -0.10268531720451433 -1.6680002772512843 -0.9198416684389604 0.010090531875523008
-2.3849432420554586 -0.9718237403502276 0.16826458672056988 -2.7714778210713074 -0.9840159468992127 0.24968525206183476 -0.607515908514015 -0.778320860098568
0.3515546044720201 -1.6109099096445456 -0.9213081695888216 0.26608134283120216 -1.986020076237346 -0.8400088826746934 0.25098685632464013 -1.8273479404257482
-0.7550915384478437 0.7353317623638486 -0.6336276517777513 -0.7803247776896215 0.8281166598960943 -1.5731686904939173 -0.8999367221307658 0.751565801169626
-1.8517321879505007 -0.8484181246410804 0.5130904881537837 -1.7061295094162037 -0.7472224208324172 0.005496172333224503 -0.0073423339259253125 -0.02803534082704032
-0.0007750087159391473 -0.04151667425597366 -0.029324910481174186 0.008436443810430527 -0.021140094279904074 -0.036604042515531066 0.02568176701765763 -0.02832955769585198
-0.016172554997082818 0.0004393277566080553 -0.028122037263439637 -0.011611593251810411 0.00924391377547561 -0.015907725179368438 -0.012925275227467394 0.012127533242749504
-0.011006175088847095 -0.03471484469656145 0.0030106181940837314 -0.035670337169114705 -0.04460216653795395 -0.0026949625231107712 -0.0042554179017111554 -0.02445447515395175
-0.0006223362211282793 -0.038252452362291814 -0.01542761090094619 -0.0063649639946905855 -0.023764451427198546 -0.026461479411332426 -0.0037324971713292208 -0.015033353610229266
-0.026778696595004422 -0.012398669762020498 -0.03629023170336273 -0.028632107361321067 0.01230467392774062 -0.014002710415658684 -0.030634527214335475 0.008179997915907188
-0.027153686525785946 -0.029531267120722047 -0.021439379262102102 -0.022998917787883186 -0.01798072265616179 -0.010137362156546075 -0.017782017716294233 -0.042327913344268324
-0.00024447378992789907 -0.009034486937619183 -0.024324938294757844 -0.016930123993789792 -0.024427694679756154 -0.02052239693307705 0.0125340434670741 -0.017421350035454593
-0.0164954453806185 0.008431850895870152 -0.02352908764956385 -0.01272284572355265 -0.0014348326718648487 -0.014167423758202008 -0.01962892228385579 -0.45801683732379944
00000000: 3101 bdb2 2777 933f dadf decf ce67 813f
00000010: c66c 526c d494 aebf d63b f99a 9e3f ddbf
00000020: 2f6a cc08 a9f3 e2bf d2cd 7e75 47d6 b9bf
00000030: b32d 36d3 0159 e4bf 51f0 c090 aea7 f4bf
00000040: 4c45 72a8 0824 cdbf fc29 a5a3 52db ddbf
00000050: 5290 4681 b38a fbbf 10c8 4788 cbb1 d5bf
00000060: c6e1 d977 53c0 c7bf 4697 d44e 18ee ffbf
00000070: 4ae9 0b1b a132 ddbf e224 3186 6cf3 e2bf
00000080: ae09 9c3e bc3d eebf c765 82d2 5448 e5bf
00000090: 5ab0 0d10 01b0 ecbf 173a 46b4 7c1f f8bf
000000a0: 230b a79f db4d ebbf 821a e2dd cb16 edbf
000000b0: bc8e 130a 8ac9 00c0 3967 8678 a83f eebf
000000c0: 4e14 e1b6 73a0 e9bf 1401 9d1f befc 03c0
000000d0: 7d62 2a13 8a14 eebf 7d1f eb0a a23a c6bf
000000e0: 2c16 56e7 94f1 e7bf ce64 c6bd 1b4f e5bf
000000f0: 9b3b 4652 a569 c1bf 2833 b762 6a8f f8bf
00000100: 194d 3dd5 600d ecbf 54f0 480e e1a8 923f
00000110: 1a13 d04c 3be4 01c0 04c6 b363 e446 ecbf
00000120: 2940 f938 0ea0 b73f 11d4 8572 0e64 04c0
00000130: 9f49 7c19 eb68 eebf 0538 788f 0f8d cc3f
00000140: f993 6abc e330 e3bf 0d68 8d55 16b6 e6bf
00000150: de4f c9ab c1d5 d63f a699 e965 c554 f8bf
00000160: 5264 8b3c 61f4 ebbf 9835 8638 7323 d13f
00000170: 9c90 fadd 6947 fdbf acac ab82 065e e9bf
00000180: 8846 1c1d 3769 cc3f 5fe2 15d5 19c3 fbbf
00000190: af28 6024 1ca6 e7bf 0aea 81c0 fd12 e53f
000001a0: 5749 76b3 1095 e2bf 51f9 bc65 70ba e6bf
000001b0: 4458 857f 0af4 e73f a0f0 4c1b 5907 f8bf
000001c0: 315b b143 324d ebbf 4c9c c41c 6322 e63f
000001d0: 9c47 50fd 7190 fbbf fa3a a2e7 cbfc e9bf
000001e0: 0c1d aa4c bb07 e13f 032c dfb1 4d38 fabf
000001f0: aa01 7713 3610 e7bf 72e9 d367 c363 933f
00000200: 0a36 369b 04ae 963f a21b 3f20 1ab2 90bf
00000210: 091b 3d34 09f2 9d3f a715 14fb eb71 613f
00000220: 102b 0283 0146 a2bf cb53 2c29 c796 7b3f
00000230: 8fe5 b603 ad88 913f 07c6 d05f 6c2e 92bf
00000240: f4c4 d7fe afad 793f 8a86 0b22 f5b8 a13f
00000250: 009c ba1a 7838 a3bf e60f 96ff 7263 9c3f
00000260: 76e7 cfca 3cf3 8b3f 8074 f331 57de 97bf
00000270: 6f58 92ea 0b32 863f 6bd2 da9e 8daf 4dbf
00000280: c5b0 51d9 ebce 9ebf d7e4 aced 69ad a83f
00000290: 781d ec55 9959 8e3f 24f6 65ec b376 90bf
000002a0: 3498 503c 3aa6 973f b7ae 9552 2fba 943f
000002b0: 70f5 3039 cee6 86bf f48b dd4e f8d6 a53f
000002c0: d6a1 b08c 183c a03f 6c37 c04a 8fd9 99bf
000002d0: df69 cc25 9e41 933f 0abd 59bd d4c7 8e3f
000002e0: a68e 390f e3bf a6bf 8f8e 41e3 bd17 9e3f
000002f0: c2f4 5e83 af27 953f 830d 434b 8979 86bf
00000300: 59b4 33de 2b53 843f d496 89a4 e905 883f
00000310: 652d 0560 d515 a0bf 6444 375a 60e3 913f
00000320: 89d1 b31f 7e0d 933f f5cf 2d55 c778 8ebf
00000330: c2b0 9910 65af a23f d7b9 73b0 ebac 9d3f
00000340: 1479 967a bae5 89bf e6a0 4e5b cd04 9d3f
00000350: 5f9e 4853 7846 8e3f 1f5d 3b94 c1b9 8cbf
00000360: 5433 3f08 290b 913f 83f6 4d44 6865 60bf
00000370: e38b ac1d 6a56 9abf ca1c 668b 9a28 913f
00000380: a8c8 bb47 ec6a 3c3f 8056 b6c3 7f0e 97bf
00000390: bad3 d5d9 5529 993f 68ad 9519 681c 8d3f
000003a0: c9d8 c1ae 06e7 a4bf bffb 01c5 6872 763f
000003b0: 3479 070c b609 9a3f ec0f bde8 75a1 8bbf
000003c0: 5089 29b9 5316 833f 2f46 a014 182b 823f
000003d0: cd53 169b 1cb6 9abf 486f 41f9 1f12 863f
000003e0: 2eea 7955 e983 8e3f 6749 eb01 5628 9abf
000003f0: 7111 0d77 1d8d 6b3f f09e 1018 dc1d a6bf
00000400: 1902 fefc fd98 643f 685a 70cd 137f ddbf
00000410: d629 992a 9f22 e7bf 2ad0 5d14 2e06 b6bf
00000420: 9211 6303 91df e5bf 5a00 19ea 4cb2 f6bf
00000430: 574a 4364 b1a0 d2bf 218b e4da c213 e0bf
00000440: f6e1 338e 9cd5 fdbf f780 0143 68ec d8bf
00000450: 88a9 d98a cf36 c4bf 37e7 92ae e6b4 00c0
00000460: 11ea 7d66 ad82 e0bf 3c58 0117 575e e5bf
00000470: b64e e4aa 1844 f1bf c807 efdb 6eee e5bf
00000480: ac5f 8b4e 3225 f0bf 6da8 2362 4211 fabf
00000490: 5497 e484 3c77 eebf 17c8 593f 4802 eebf
000004a0: 2c62 4232 f60f 02c0 26ec c27f 1e39 f0bf
000004b0: 4d57 8817 b82c eabf 89b1 23f8 1cf8 05c0
000004c0: 9e00 359a 38c0 f1bf 43b6 63f1 d1f1 d1bf
000004d0: d02a b065 dc9d e8bf ebe4 ffe4 7d63 e7bf
000004e0: ff3a 2cbf 9549 babf 1036 080f 21b0 fabf
000004f0: 6b30 6ecb 576f edbf c4a7 3c43 58aa 843f
00000500: 258e 5b1f 5d14 03c0 ddfa c819 2e19 efbf
00000510: 4818 85a8 b189 c53f 8fb9 5890 fc2b 06c0
00000520: 4096 d502 0f7d efbf 9b15 f3b3 aff5 cf3f
00000530: edc1 db33 c570 e3bf c65f fd25 01e8 e8bf
00000540: 6fcb 3de2 de7f d63f 379c 2b78 49c6 f9bf
00000550: d57d 3d45 5b7b edbf 2d4a 620a 7a07 d13f
00000560: a438 cafc bcc6 ffbf 70fe ed4e 5ae1 eabf
00000570: b6f8 e82c 2b10 d03f 2baa a831 d13c fdbf
00000580: 87d5 e3ba b529 e8bf 3d02 e279 d687 e73f
00000590: 4641 477f ad46 e4bf c1ee 0dab 6bf8 e8bf
000005a0: ecd8 7082 ee7f ea3f 4933 ccee b22b f9bf
000005b0: adac c018 48cc ecbf 4019 1ab9 d30c e83f
000005c0: b42a 43ee b1a0 fdbf d158 55c4 3d26 ebbf
000005d0: 2c4b 50be 3c6b e03f 0eee da74 4e4c fbbf
000005e0: 9405 8afe 3ee9 e7bf e741 ca86 2783 763f
000005f0: fd1a 69c1 fe12 7ebf e9f9 efdf 4bb5 9cbf
00000600: 71c3 668b 3e65 49bf 2810 566c ac41 a5bf
00000610: 4e2a e66d 5907 9ebf 862d 1552 2047 813f
00000620: 4924 44b6 bfa5 95bf f0dd 02db c3bd a2bf
00000630: b3fe c635 524c 9a3f 7c5c 416f 6c02 9dbf
00000640: c28e 38cb 898f 90bf dc98 cb58 b2ca 3c3f
00000650: 7d9b 5ff9 05cc 9cbf 91f7 2aaa d1c7 87bf
00000660: 7a5a d21a 79ee 823f fdb8 985d 1d4a 90bf
00000670: a171 2613 9178 8abf fc24 45f5 51d6 883f
00000680: 1b35 7cd0 678a 86bf 599d 50e5 24c6 a1bf
00000690: a80c e655 b9a9 683f 9e43 28e7 6143 a2bf
000006a0: c7f6 385d 18d6 a6bf 3e96 d2fc be13 66bf
000006b0: 19a4 7f0b 216e 71bf 8ab7 1b0c 980a 99bf
000006c0: da23 c2db 8864 44bf 2293 c64f d395 a3bf
000006d0: 2227 33e2 8298 8fbf 259b 2803 2612 7abf
000006e0: e8b0 bf56 b555 98bf 31a9 b3d2 b718 9bbf
000006f0: 6b8f 1029 9d93 6ebf b652 d790 cec9 8ebf
00000700: 5f92 6be8 df6b 9bbf ad5e 2249 7964 89bf
00000710: ab10 a91c a294 a2bf 6603 ee32 bc51 9dbf
00000720: 0f58 dc60 3133 893f b52c 53fa 73ad 8cbf
00000730: 2454 0e52 a85e 9fbf 86c9 3dbc acc0 803f
00000740: 3658 600e 2dce 9bbf 99c5 f8c9 713d 9ebf
00000750: 71ec 1b63 34f4 95bf d92a f83e 078d 97bf
00000760: 9e0f 11df 8969 92bf 56ca 70b7 e5c2 84bf
00000770: 9189 3102 7335 92bf 2f09 0b17 01ac a5bf
00000780: 3a52 b6ee 9605 30bf af38 774f ac80 82bf
00000790: 6f14 d0f9 a2e8 98bf 0072 7b63 2156 91bf
000007a0: 849d 10d7 9203 99bf ce02 a7be d203 95bf
000007b0: 42c8 38d6 72ab 893f 1227 9e02 e7d6 91bf
000007c0: f655 c599 2ee4 90bf 3376 bdde b744 813f
000007d0: e09f d657 0218 98bf 0392 5b72 6f0e 8abf
000007e0: 2f36 a8d9 1f82 57bf 3d2f ae6d cf03 8dbf
000007f0: 573e 0fad 9a19 94bf 31ad 54da 2550 ddbf
