backend/FastApi/sign_language_data/w/w_11_aug0_mirrored.npy (npy, 30368 bytes, 1 tensors)

array f8 [30, 126]
-0.053109540834092944 0.0071060742098484776 0.021777127730274227 -0.43641170100815707 -0.5716061643488884 -0.034198927480550895 -0.543249934466071 -1.1978413937347747
-0.12182755200695662 -0.3337265969155904 -1.6757270791233183 -0.2782045764364345 -0.0509093909584358 -2.009289521115991 -0.44332394372133455 -0.663538409898781
-0.9496958076777038 -0.5563308678032655 -1.0017542199056206 -1.5870671330957005 -0.7979468767379098 -1.0205206847228498 -2.1291477348411263 -0.9021890436227401
-0.960349815473994 -2.5962959483849204 -0.9420196912908376 -0.2878871660967099 -0.7547891636633518 -0.5941589090265065 -0.2585148858931104 -1.6707520785243344
-0.8107187400260925 -0.1287493914830295 -2.3662059016801713 -0.887293505922769 0.03678751826712005 -2.722879353755655 -0.8834222007901924 0.12465941504450799
-0.6649330145702115 -0.6951659819587793 0.21438030373284642 -1.6324108080366042 -0.7833465479029234 0.16999003229042892 -1.8287028073091824 -0.7103082593924843
0.09907846923284223 -1.650905013337216 -0.6365886151573862 0.5913275536797684 -0.6745438667422456 -0.6542728654927918 0.6478056315041117 -1.525647586434343
-0.7692377414426819 0.5219751268844165 -1.6873811196803927 -0.6962058851349228 0.3806103063691451 -1.4674228222558643 -0.6043473362466598 -0.0017386476597938754
0.01869498323601616 -0.0174208563521766 -0.019909601870593225 0.00659308425130533 -0.010482908798799461 -0.003701291740842293 0.0319469187640373 -0.0024414048690659476
-0.002838318354462913 0.025161505105458375 0.008851223695740765 -0.03383285820330099 0.0276212468158338 -0.0090085840524003 -0.017623456493226542 0.029856392869760915
0.0019443141332610282 -0.01495984299820154 0.02141504605737743 0.004781316555535018 -0.017889712921957655 0.0023030211100349856 0.005223489174558107 -0.014155851451312438
0.026089926931871853 0.00048340317826279144 -0.0009267662550871365 -0.0011781520600208954 -0.007773077297607608 0.004952090627187645 0.008642209497049158 -0.0047423650939783495
-0.0008557999326894411 0.015392625559426974 0.019436650114414908 -0.015349853375950196 0.0062170024090209604 -0.001119985395536941 -0.004573743266165661 -0.007650989082542516
0.006343479432839714 -0.008671401349024926 0.010376319024976969 0.006771545102510242 -0.006889492478447316 0.014472571193571933 -0.0075839499991123905 -0.02452911700350685
0.022221252650124125 -0.005208299908822243 -0.017184428832377637 0.0205831734189665 0.00018084978491782975 -0.019827956131322613 0.013828243696333285 -0.010165042874959503
-0.010461967641793956 0.018806957207474193 -0.0009927197914554964 -0.006700823800522823 0.02174525743374888 -0.016492440205987516 -0.004425208708683626 -0.007466529122492697
-0.016251668160464618 -0.4310793867664599 -0.626888114882703 -0.0466580399239711 -0.4321734077766934 -1.389584103175479 -0.1640829717843565 -0.2506215444618786
-1.8298690290586876 -0.22226184106388033 0.08475487275913304 -2.135212460493511 -0.45983960657292705 -0.6142651315094292 -1.0936738274802777 -0.5761006845990977
-0.833649439777831 -1.7712014811323191 -0.7922979226644525 -0.8193630203072972 -2.3305412379152215 -0.9380409184067252 -0.6311202164094679 -2.811561665703724
-1.0130417867267218 -0.22406218846546697 -0.8778913718147071 -0.6703545627451298 -0.07066172210693451 -1.7091800659678986 -0.819068053401302 0.17012972779260005
-2.427173092623955 -0.7775515598989452 0.3545149833076855 -2.849648731003716 -0.8959093197264545 0.2510364359207968 -0.7208129269589301 -0.6322260532099355
0.4552130888751531 -1.6961863443168346 -0.7659566059379329 0.37701522711576435 -1.8127567403814295 -0.7118309313611294 0.29689388998871613 -1.6066376590448808
-0.702723096426615 0.7190972975106344 -0.6473681346965227 -0.6990306659499315 0.8873524797428899 -1.5562190645025884 -0.7617220735964904 0.7518943259290861
-1.673895975625671 -0.6795805666652727 0.6288720580744531 -1.4352313006822452 -0.6087983484851907 -0.030124642101184797 0.019112960930569158 -0.007934039915161931
-0.027180199024576315 0.010981862776079007 0.0007211993188004903 -0.029905374386233825 0.023802745890466694 -0.013999367916585136 -0.03152516896138036 0.0366896517763796
-0.00857214047835184 -0.017808731255104467 0.024545651094653474 -0.008264770392333882 -0.01977389274089393 0.012293295717806029 -0.006462157142921665 -0.019170325901249792
0.012679217910323965 -0.020829289733402152 -0.015126774630651102 0.002124102213895023 -0.004864106046489148 -0.027647966856548245 0.032319175773950194 -0.0011999482314712063
-0.03256250143016898 0.038703847683189026 0.022048872131159355 -0.05258255563371918 0.010278407866777792 0.00985200208723734 -0.040798906311785614 0.0337860434270529
0.015280901336460595 -0.01715408769298332 0.018862850396435222 0.0013618240709793613 -0.036641009252091565 0.020604758213282927 -0.016033536771470527 -0.02898212502889644
0.019627770416327888 -0.02396103519504587 -0.02269968599021867 0.025933490498888295 -0.013334819887418399 -0.0325973923032337 0.042643684934340106 -0.008967916748265319
-0.010375248896056625 0.01979109403978945 0.00987089668715899 -0.04981546333495957 0.023235022522579123 0.007065782397552835 -0.03302027976818649 0.0419954116344498
0.008068615228817895 -0.019535290386533365 0.031613601537479497 -0.014072193312673434 -0.031413953504184855 0.04323956508506148 -0.02776430243837987 -0.3969780238917425
00000000: e4db f979 2c31 abbf b214 5945 421b 7d3f
00000010: adff 9b4d be4c 963f 32fe da57 2bee dbbf
00000020: 5941 c202 994a e2bf f4aa 2c96 8582 a1bf
00000030: d7bf c2af 4d62 e1bf b72c bebc 5b2a f3bf
00000040: 5922 9f27 1730 bfbf 93b3 e3cc c65b d5bf
00000050: 3ab3 9d32 c7cf fabf d416 5991 1ace d1bf
00000060: cc96 73b2 cb10 aabf 061c 6b62 0613 00c0
00000070: b447 f463 6b5f dcbf a3f6 44e7 b43b e5bf
00000080: 2af8 6376 e863 eebf e60c 5f64 76cd e1bf
00000090: 7ffe d16e 2f07 f0bf 7e3d 9381 a064 f9bf
000000a0: fb1b 71e3 c788 e9bf 2e6b 5c7f 0d54 f0bf
000000b0: 00f6 8b9b 7e08 01c0 f969 a58e bbde ecbf
000000c0: 28c6 4589 2fbb eebf 8067 68cf 36c5 04c0
000000d0: 7c07 c97a 0625 eebf 0bb4 d44a be6c d2bf
000000e0: afe5 a99a 3b27 e8bf 16ab 5c8b 5903 e3bf
000000f0: 492a 1c05 828b d0bf d2c6 0f88 66bb fabf
00000100: 1853 556d 68f1 e9bf 6e56 e62c dc7a c0bf
00000110: 588c 1a5c fded 02c0 f786 bc59 b564 ecbf
00000120: e670 b747 d0d5 a23f 58ac 7af8 74c8 05c0
00000130: fc88 9ea2 fe44 ecbf e330 c1ee ade9 bf3f
00000140: 1283 f399 2147 e5bf f7bf b9ba cc3e e6bf
00000150: 2735 b854 d070 cb3f 6577 a2cb 5a1e fabf
00000160: 84ae 95c7 2c11 e9bf 12ac aabe 3bc2 c53f
00000170: f6f0 f7df 5d42 fdbf c46b 0563 d8ba e6bf
00000180: b7c1 17e1 345d b93f 625f 1160 1b6a fabf
00000190: c16b 6316 ef5e e4bf c0e7 08c3 27ec e23f
000001a0: ae02 ec04 dd95 e5bf b874 fea5 cdef e4bf
000001b0: 7531 2fe0 d2ba e43f 344f 8f71 0d69 f8bf
000001c0: 100c cb77 989d e8bf 9b68 692e 05b4 e03f
000001d0: 73a4 4e58 83ff fabf c1fd 7d90 5147 e6bf
000001e0: b110 9854 eb5b d83f 28e3 6f5a 907a f7bf
000001f0: f254 9339 d056 e3bf 2121 a3b5 6a7c 5cbf
00000200: 034f 6416 c724 933f 5e22 34e1 c5d6 91bf
00000210: a56e a4c3 2e63 94bf f878 d393 5901 7b3f
00000220: 1390 a933 1078 85bf b11d 5bdf 2b52 6ebf
00000230: 3d59 99b6 585b a03f d5b3 3442 ffff 63bf
00000240: 07fc 4190 6240 67bf cb2f 2f06 f0c3 993f
00000250: 821b 6c22 9720 823f 25da 0657 8a52 a1bf
00000260: 66b8 fe7e be48 9c3f e44a 1baf 1773 82bf
00000270: cda0 1f25 e20b 92bf 9900 cf9b ac92 9e3f
00000280: 3976 6467 0bdb 5f3f cace 7123 44a3 8ebf
00000290: c0c7 d569 d3ed 953f e437 cee3 9295 733f
000002a0: 6911 bd4f ae51 92bf e5e7 2f0b c9dd 623f
000002b0: b6d1 cfb2 3965 753f 654d 3e38 befd 8cbf
000002c0: 63ad b55b 51b7 9a3f 5660 67d7 28ae 3f3f
000002d0: d36f d960 475e 4ebf 8cff 5124 874d 53bf
000002e0: af23 858c a9d6 7fbf 344b a6b4 a448 743f
000002f0: 2d74 3db9 01b3 813f becf bfef ba6c 73bf
00000300: e65e 855c f80a 4cbf 72bc 043b 2b86 8f3f
00000310: 6c40 5782 33e7 933f 871c fc71 be6f 8fbf
00000320: 4614 6ae0 ff76 793f 4342 5529 8f59 52bf
00000330: fcc7 f9db eabb 72bf 35e2 43be a456 7fbf
00000340: 5771 4fcb 9efb 793f 56ec a2c9 4fc2 81bf
00000350: d5cd ebf6 2d40 853f a283 23cc 7abc 7b3f
00000360: 2b73 180e 2838 7cbf c42f b99f cba3 8d3f
00000370: 09ef 8713 5910 7fbf 30bc 512d 291e 99bf
00000380: 2a3d a205 2bc1 963f a41d 6b5c 4c55 75bf
00000390: af8d 577f cb98 91bf f5bb ba62 c113 953f
000003a0: 1ebf cbd2 4fb4 273f c4af 859c c74d 94bf
000003b0: 7fb5 7e73 fb51 8c3f 5ee0 aef5 68d1 84bf
000003c0: b98c fc86 156d 85bf 69d0 9288 2142 933f
000003d0: 2909 75c2 c443 50bf f0a5 45b1 5272 7bbf
000003e0: be8e 1586 6344 963f e488 43ed 64e3 90bf
000003f0: 4088 e8ea 2a20 72bf 11f1 5426 3995 7ebf
00000400: 5ac0 04fd 46a4 90bf 4b11 09ff cd96 dbbf
00000410: 7c83 f5a9 770f e4bf 3f49 2307 90e3 a7bf
00000420: 6783 26a7 baa8 dbbf fce1 628a bc3b f6bf
00000430: 7c78 d2ba ab00 c5bf fbc0 48f2 2e0a d0bf
00000440: 4d53 3cbf 2447 fdbf 9f51 4275 1373 ccbf
00000450: 9657 adce 7eb2 b53f 8ca6 3e45 ea14 01c0
00000460: f7b7 e819 036e ddbf 14ff 5c59 0fa8 e3bf
00000470: 934d 9820 b07f f1bf 80cd f1b3 6a6f e2bf
00000480: 8d95 0597 41ad eabf ef70 415d d756 fcbf
00000490: bd0a 512c 815a e9bf 28b1 f8cb 3838 eabf
000004a0: 139a f6cd f2a4 02c0 ebbb 5b63 6e04 eebf
000004b0: e556 2a06 2332 e4bf 0714 e70a 147e 06c0
000004c0: 1690 f74d 6b35 f0bf f75b dddd 11ae ccbf
000004d0: d14f 6ca5 af17 ecbf edde 7669 8b73 e5bf
000004e0: 3d40 87f9 e216 b2bf 7cea 6432 cd58 fbbf
000004f0: bad2 d134 ce35 eabf 2c2a 7998 cfc6 c53f
00000500: 9568 f4b9 d96a 03c0 3b08 17cf b3e1 e8bf
00000510: 58e7 cf9c 5fb0 d63f abfd 45a2 14cc 06c0
00000520: ee03 8d05 4aab ecbf 1797 9820 fb10 d03f
00000530: 1453 7a45 e610 e7bf 12e8 c621 323b e4bf
00000540: e083 5b14 3622 dd3f 9c33 cc4a 9423 fbbf
00000550: 1913 956d b782 e8bf 1d99 a379 0421 d83f
00000560: 39ab 3836 0d01 fdbf cf45 4fa9 51c7 e6bf
00000570: 7c8f f83a 4f00 d33f 8bea a1b0 c9b4 f9bf
00000580: 317a a925 b57c e6bf b067 ee55 d802 e73f
00000590: 91cf df60 3db7 e4bf 6afe 248f 755e e6bf
000005a0: 99a5 1007 3165 ec3f 8f34 37f6 45e6 f8bf
000005b0: 979f 57f8 0660 e8bf 7d3a 7db0 840f e83f
000005c0: 097e 8325 47c8 fabf 4162 9abe 1fbf e5bf
000005d0: 2089 594b b81f e43f 3803 aa18 b5f6 f6bf
000005e0: 5c49 93ac 467b e3bf 5a5f 8382 fed8 9ebf
000005f0: 878e 8118 5992 933f f5ac afcf b83f 80bf
00000600: 7426 a347 20d5 9bbf ab83 c7ab a87d 863f
00000610: f38d 7bbe dba1 473f 75a2 dab3 839f 9ebf
00000620: 1a43 9e3c bf5f 983f a665 ee5a b3ab 8cbf
00000630: 1148 6123 1124 a0bf 0e5d f66c fcc8 a23f
00000640: 7204 1738 458e 81bf 72b3 4bb9 733c 92bf
00000650: e69d d7c2 7e22 993f ca28 5ab4 1eed 80bf
00000660: 8408 8c7a 9b3f 94bf 4655 8b38 3a2d 893f
00000670: 9987 7219 1078 7abf e2b7 32cb 62a1 93bf
00000680: 2a0e 1cd2 8ff7 893f 82c3 d0f8 4554 95bf
00000690: e32e a952 c9fa 8ebf f164 58b1 9066 613f
000006a0: 1a9b 4d86 62ec 73bf a08f cca5 bf4f 9cbf
000006b0: 7530 f795 238c a03f 71d6 4e9a f2a8 53bf
000006c0: 08e3 6f3d 08ac a0bf d1ac 0ea0 fdd0 a33f
000006d0: 3f39 dec2 fa93 963f c2e7 92c9 19ec aabf
000006e0: 385f 248d d80c 853f b753 1e56 492d 843f
000006f0: 2fb4 a420 98e3 a4bf db2d 297f 674c a13f
00000700: a0b0 f2db 974b 8f3f 1f4c 8956 d790 91bf
00000710: c584 3f76 c850 933f 4bbb 4176 e74f 563f
00000720: cf3e dc40 9cc2 a2bf 0a12 acea 6919 953f
00000730: 746c 4a70 186b 90bf c8b7 ab7c 7dad 9dbf
00000740: fb47 2060 4d19 943f fb02 2ada 3d89 98bf
00000750: 0570 d423 963e 97bf 6862 4116 4f8e 9a3f
00000760: 171f 843a 494f 8bbf a529 c1fb 9ab0 a0bf
00000770: de0b 59a0 64d5 a53f a928 2d69 c55d 82bf
00000780: 6246 9255 9e3f 85bf 8ea0 9cd6 1d44 943f
00000790: f2da a053 3137 843f 91ac b793 6981 a9bf
000007a0: 1bda 6cf7 ebca 973f f51b 1785 02f1 7c3f
000007b0: 4713 6bbb 08e8 a0bf 57a2 1a2f 6c80 a53f
000007c0: 1716 4134 4786 803f 86e5 4f25 0f01 94bf
000007d0: 00ac 6c71 a82f a03f d5c4 7cd0 e1d1 8cbf
000007e0: 2088 e05d 7d15 a0bf 2601 de0b 7f23 a63f
000007f0: 565a e0cb 3e6e 9cbf 9e20 7683 1668 d9bf
