backend/FastApi/sign_language_data/w/w_14_aug1_mirrored.npy (npy, 30368 bytes, 1 tensors)

array f8 [30, 126]
000000 67 31 a2 4e 61 39 88 bf dd 49 f6 62 df 9f 8b 3f
       -0.011828193866926196 0.01348852654226545
000010 30 fd 8a 4a c8 69 99 bf 9e a8 b5 e3 24 21 d6 bf
       -0.024817590284098745 -0.34577295529619245
000020 c7 3e f4 a4 b3 b8 e3 bf 0b e0 86 15 5c 40 70 3f
       -0.6162965986022407 0.003967628196214444
000030 f0 56 8f 16 23 b9 d4 bf 31 b7 6c ef f5 a6 f5 bf
       -0.3237998695670816 -1.353261885883921
000040 de f0 28 20 1b f0 c3 bf 47 64 4d 95 1f 16 b9 bf
       -0.1557649523764501 -0.09799382586551629
000050 68 34 ec ed b0 75 fd bf 85 4c cb cc 2d 46 d1 bf
       -1.8412331861357192 -0.2699083805029619
000060 5d ae b3 fd ca b6 c8 3f e1 64 cb a9 5d 51 00 c0
       0.19307839763438298 -2.0397294297405186
000070 82 49 a1 50 8e 7c db bf 4a 24 c4 26 98 49 e1 bf
       -0.4294772899057976 -0.5402336842681816
000080 ce 24 3c 48 8a e1 f0 bf 8f f1 1e e8 0b 8d e2 bf
       -1.0550635167767726 -0.5797175916300591
000090 aa ad ff 0e e4 03 e7 bf 83 e9 21 5b 2d 14 fd bf
       -0.7192249577469074 -1.8174260673391422
0000a0 c7 15 70 3b 1c d7 e8 bf 52 a9 41 05 44 c6 e3 bf
       -0.7762585793395197 -0.6179523565927332
0000b0 25 c2 a2 19 38 1d 03 c0 8d 92 6d f3 28 3f ea bf
       -2.3892671587748446 -0.820209956593844
0000c0 e6 72 42 1c 3d 4d e1 bf 9d 34 e0 78 63 f0 06 c0
       -0.5406785537666934 -2.8673772281095595
0000d0 3f 26 26 62 3e ea ea bf b6 72 6e 89 9d a0 c8 bf
       -0.8410941998456066 -0.19240159235495974
0000e0 f2 32 1e 29 67 d9 ea bf 60 5a 93 96 e0 15 e4 bf
       -0.8390384486279727 -0.6276705685548443
0000f0 ed 27 b1 e9 67 33 a0 3f 0e 29 9a e9 c6 7e fb bf
       0.03164219596563087 -1.7184514165006166
000100 a0 a6 e8 7b 06 33 ea bf e2 8a 37 f9 cb 51 d1 3f
       -0.8187286777585605 0.2706174787291912
000110 c4 a1 9f 75 90 5c 03 c0 86 2c 0a 29 56 d2 ea bf
       -2.4201974095669545 -0.8381758500630816
000120 33 8e be ce 70 5b db 3f bb 14 4d c0 01 09 06 c0
       0.4274560946452965 -2.754397871353459
000130 44 26 95 8a 4b 69 eb bf b3 7b ca fc 1b a0 d2 3f
       -0.8566034037296011 0.29102229773155414
000140 ea e9 2d 38 80 9b e6 bf b3 dc 1a f5 06 e6 e4 bf
       -0.7064820382359447 -0.6530794894414583
000150 b9 53 16 14 e5 23 e0 3f 46 b7 f6 04 ec 0f fa bf
       0.5043816940620821 -1.628887195005022
000160 0a 46 86 e1 39 04 ea bf 23 03 bb df 76 24 e0 3f
       -0.8130158810401451 0.5044512147652295
000170 c8 b1 d8 f2 92 91 fd bf f6 ce 01 c3 42 64 e5 bf
       -1.848040531748767 -0.6684888657314036
000180 b4 21 7a 5b 8e 9c d9 3f 89 ee 0f 88 c0 fd fa bf
       0.4001804250078991 -1.6869511904650685
000190 03 57 e8 7d b1 e4 e3 bf e2 c0 bb be 81 59 e9 3f
       -0.6216666659481408 0.7921761250745727
0001a0 6c 64 d0 b8 69 82 e3 bf cf 36 79 10 29 86 e5 bf
       -0.6096695527695721 -0.6726270028827573
0001b0 38 b7 95 de 45 4c ed 3f 80 7e cc fc ff 9e f7 bf
       0.9155606601104642 -1.4763183474496202
0001c0 ec c2 82 8c 05 89 e9 bf c6 9f fa 31 04 a8 e9 3f
       -0.7979762787200264 0.8017598129417756
0001d0 d7 29 39 5d 71 58 fa bf 21 aa 0b 01 f2 80 e6 bf
       -1.6465924874815892 -0.7032403965398012
0001e0 6f 90 20 a4 b3 40 e5 3f 9c 7d f3 53 3d ba f7 bf
       0.6641481595620585 -1.482968643125651
0001f0 c1 cd 53 a0 cc fa e2 bf 8a b1 b6 a2 e5 b8 92 3f
       -0.5931151515382497 0.018283451133969154
000200 cc 31 3c 39 4b a3 7e bf 62 1c d0 c9 b2 91 67 3f
       -0.007479947893227434 0.0028770915946583634
000210 1e 31 38 39 e3 84 4c bf b8 9a 8f 3c e4 e0 6d bf
       -0.0008703336229145852 -0.003647275709670463
000220 12 88 2a f4 44 a8 a1 3f 94 e5 28 dd f0 e8 99 3f
       0.03448691826385199 0.02530266141750344
000230 c1 47 73 6e 18 2f 80 3f aa 4e 67 b2 d0 63 72 3f
       0.007902327414203715 0.0044897224638195486
000240 a6 69 1e 27 4c eb 68 3f 7f 3c b1 3b 1b 09 85 3f
       0.0030418860778358035 0.010271275290646862
000250 8e 8a 1d 5f 6c 32 50 3f f7 6c 4a 73 a8 b6 8b 3f
       0.0009885843578209294 0.013531986254113877
000260 67 80 6f 06 1a a8 35 3f 8f 1d ed 1e 9c bd 56 bf
       0.000330454210084602 -0.001387979947780813
000270 47 75 5c b4 67 0b 98 3f 24 db 94 7d c0 89 7f 3f
       0.023481006987926347 0.0076997298395358495
000280 b9 a1 98 06 46 3e 7e 3f 51 08 41 d3 63 fa 8c 3f
       0.0073836074239256805 0.014149455913983785
000290 a7 cb 84 fe e8 2a 83 3f 66 4d 5e ba 5f 81 9b 3f
       0.00935918833474665 0.02686070990564584
0002a0 2b 59 59 96 c0 22 83 3f 4c 0a d7 6e 27 b2 22 3f
       0.00934362849072253 0.00014263850554925778
0002b0 11 7e 71 e4 45 f7 81 3f aa 1d da 66 f2 6f 4a 3f
       0.008772417100941817 0.0008068021395083909
0002c0 2d 65 47 aa 7c ba 94 3f cf 7f 69 1d 19 1f 96 3f
       0.020242641346930036 0.02160300485627414
0002d0 4c 81 4d ea 20 2d 70 3f da 0a 69 71 6f 05 87 3f
       0.003949287963081648 0.0112408358082851
0002e0 bd 0c ce b7 25 e2 69 bf 5e 3d e8 09 1e eb 79 bf
       -0.0031595932654809576 -0.006327740992232959
0002f0 b3 f1 11 1f c3 14 87 3f 47 dd de 8e 2d f8 88 3f
       0.011270069490131407 0.012192111895145031
000300 ed 2e 13 25 a8 c3 84 3f 58 ab 3b f3 d6 00 78 bf
       0.010138810759961337 -0.005860175751631079
000310 24 8d 82 ca eb 39 7a 3f 11 04 ad 7c 3c 9a 5d 3f
       0.006402894076163155 0.0018067923253541932
000320 fd 8a 4d 5e 67 f7 8a bf 17 2f 37 3a a9 90 75 bf
       -0.013167197766681843 -0.005264912647770867
000330 90 3b 44 18 87 a9 86 3f 6d 45 4b f6 d7 6d 78 bf
       0.011065535953574984 -0.005964130021952269
000340 5f f5 73 6e ec 31 46 bf 63 81 c6 03 15 36 82 3f
       -0.0006773380709145619 0.008892215898243355
000350 33 6f 37 67 ba ec 65 bf 60 b6 00 7c 25 36 88 3f
       -0.0026763573348328683 0.011822026106609929
000360 6a 18 3d 6c f4 e3 99 3f 96 77 97 97 c5 c8 8c bf
       0.02528364096294703 -0.014054816902838312
000370 aa 7c a5 6d 54 99 7a 3f e8 b3 18 d4 5e cc 91 3f
       0.006493882940360832 0.017381173796980592
000380 45 6b 8e 4a 71 eb 7f 3f 8a ec d9 ff c4 e6 92 3f
       0.007792894882096506 0.018458440891191454
000390 3a 57 4a f2 7d f8 82 3f 90 f0 c6 e5 f0 cb 50 3f
       0.009263023335090648 0.0010251858248997749
0003a0 00 bb eb 0b 90 7b 80 3f 9c 10 fd 74 42 df 80 bf
       0.008048177112383481 -0.008238333888251063
0003b0 36 1e d3 fd 4e 8f 4a bf bb 80 12 29 c2 e3 97 3f
       -0.0008105407429405745 0.02332976699528964
0003c0 57 e2 f6 e8 af 39 7d 3f 19 fc 56 97 a4 3f 41 3f
       0.007135092876915459 0.0005263856571032815
0003d0 48 f9 5f 8a e5 ec 63 bf 81 01 f8 f5 16 a1 79 3f
       -0.0024322970593850003 0.006257142725644705
0003e0 b3 67 cb 78 84 c1 93 3f 96 ae 5b c7 3a bf 91 3f
       0.019292898056711482 0.017331045549254208
0003f0 86 57 e4 54 d4 8b 91 bf 90 57 a3 c1 ed 48 80 bf
       -0.017134969407457422 -0.00795160052477309
000400 cd 3e 6b bd 0b be 69 3f 12 e7 a5 d9 64 66 d6 bf
       0.0031423787398593196 -0.34999963049595906
000410 27 70 66 d7 bb 70 e1 bf 23 69 7f 8e 8b d2 a7 bf
       -0.5450114447626263 -0.04652820696328976
000420 82 d8 81 6d 6c 0f dd bf 88 ae b7 52 e6 44 f4 bf
       -0.45406637853682963 -1.2668212157394994
000430 5b 16 86 d3 df e2 c6 bf 34 65 df 00 b5 35 d1 bf
       -0.17879865482625487 -0.26890301785677484
000440 a3 b6 8a 76 f4 f1 fa bf ef f8 df fb 5e 1f cd bf
       -1.6840710287610043 -0.2275198678834793
000450 3a 3e 07 47 20 35 9a 3f 1a 8d 04 74 0c 42 ff bf
       0.025593284926627137 -1.9536251575416999
000460 b9 c2 22 2a 82 dc d7 bf 34 75 1e 1f 62 51 e3 bf
       -0.3728337680322898 -0.6036844833176134
000470 cf d5 00 ee 2a bb f0 bf bb 6c aa 95 f8 03 e0 bf
       -1.0456952378275337 -0.5004847453268647
000480 c3 2d b7 21 e9 e3 eb bf 41 ba da 2f ef f6 fa bf
       -0.8715711267954521 -1.68528670018317
000490 b7 38 ed 0a 27 3b e7 bf 53 4d a8 51 a2 1c ea bf
       -0.7259707654391353 -0.8159953684684446
0004a0 98 37 6f 28 0f 3e 02 c0 cd c0 59 45 52 49 e9 bf
       -2.2803023489895615 -0.7902003626350279
0004b0 35 06 0e 24 fd f8 e5 bf 07 06 39 40 07 59 05 c0
       -0.6866441444582906 -2.6684708611871915
0004c0 59 3b 0e 61 90 b4 e8 bf 8a 08 61 13 40 8e ce bf
       -0.7720415015809109 -0.23871613451234835
0004d0 de ba fa dc 91 e7 e9 bf b3 7e b0 08 9f 51 e3 bf
       -0.8095177951816728 -0.603713528605985
0004e0 d9 9a b7 9f 06 45 c0 bf c8 41 b6 2a de 04 fa bf
       -0.1271065025204823 -1.6261884373126225
0004f0 66 44 64 ad 3d 10 e8 bf b1 26 e8 25 76 ab a9 3f
       -0.751982535033801 0.05013627255182252
000500 ad 8a c6 ef a4 78 02 c0 60 cc 61 56 50 1e e8 bf
       -2.308908341642868 -0.7537004172467157
000510 fa 91 67 9b 3c 7f c5 3f 28 31 2f 76 a0 8b 05 c0
       0.16794545734514071 -2.693177150073229
000520 40 b7 0b 73 26 a7 e8 bf 8a 1b 6f 28 24 fb c9 3f
       -0.7704040762889477 0.20297672247235382
000530 5b d5 12 e3 52 96 e8 bf 04 c1 e4 39 e9 26 e4 bf
       -0.7683500704794527 -0.629749882768039
000540 7b 56 f2 f0 57 1e d3 3f f4 c6 20 d1 fa 8e f9 bf
       0.2987270215029196 -1.5974071663917444
000550 64 d4 c4 1c 0e 00 e8 bf fd 13 af d3 b2 10 d6 3f
       -0.7500067293064032 0.34476919815307366
000560 e0 e2 7a f9 19 bd fc bf 69 b5 c0 df fd 3d e6 bf
       -1.7961673493684245 -0.6950673456355335
000570 8d 55 e4 6c 9f c2 cf 3f 24 38 a6 3c 1f 8d f9 bf
       0.24812691514004506 -1.5969536179650357
000580 90 cd 66 d1 8a 80 e4 bf 83 0a 1d 90 88 f0 e4 3f
       -0.6406911935686583 0.6543619932857186
000590 aa da c6 7a 5e 60 e5 bf 0d 6d a0 6c 92 46 e4 bf
       -0.6680138013824337 -0.6336147424330264
0005a0 7e a6 42 f2 c0 b7 e7 3f a0 27 69 d8 f8 a3 f8 bf
       0.7411808711669463 -1.5400322392983767
0005b0 94 d1 23 18 91 f6 e7 bf de 41 12 e7 e6 6b e4 3f
       -0.7488484832270381 0.6381716263877555
0005c0 21 1e 3c 00 26 27 fb bf 19 bf f9 c1 78 a0 e5 bf
       -1.697057724873851 -0.675838831766643
0005d0 54 98 eb 99 fb 55 e0 3f db 50 ae 43 51 96 f8 bf
       0.5104959493880963 -1.5366985935007083
0005e0 4c 0a d8 86 96 78 e3 bf aa 9d 8b de 0a 2d 80 3f
       -0.60847021424008 0.00789841167120538
0005f0 61 9e f9 27 ab a2 75 3f 19 ec f4 98 34 c9 96 bf
       0.005282085970612722 -0.022251912914026038
000600 ed 71 be 04 38 9e 88 3f be 6a a9 cf 3b 32 84 bf
       0.012020528454564217 -0.009861438059649227
000610 41 6a 34 94 79 b8 8b bf aa e4 ad 07 8d c1 91 3f
       -0.013535451732015537 0.017339900582986324
000620 62 17 4d 22 82 12 61 bf 23 2c 31 34 ea cf 93 bf
       -0.002084020774790683 -0.019347819743682614
000630 72 c7 8e 63 61 14 78 bf fb d7 8a 59 2c e1 5a bf
       -0.005878811288242735 -0.0016405995467443357
000640 81 3d 3e 80 d7 1e 80 bf 87 13 63 da 2f 1e 85 3f
       -0.00787132606617891 0.010311483242171139
000650 7c c8 13 1b a0 39 94 bf e8 4a 6e da e1 a5 98 bf
       -0.01975107350603665 -0.024070290524444454
000660 cf 0f e7 2e 50 97 73 bf 00 6e 1a 36 d2 c8 81 3f
       -0.004782975402523661 0.008683817173099406
000670 36 b8 c5 ab 2a 7e 83 bf ef a0 4d 62 bc 38 85 3f
       -0.009517987601352567 0.010362121343590462
000680 35 f9 9f 83 61 03 8e bf be 71 10 0f ed a4 88 bf
       -0.014654886083005006 -0.012033321401809679
000690 0e ef 7f 49 e1 54 84 3f fe 38 b9 23 54 a1 59 3f
       0.009927520804914571 0.0015643426585430493
0006a0 b2 f9 e5 02 a4 78 98 bf e2 72 99 03 33 50 7a 3f
       -0.02389770763101646 0.0064241402374960194
0006b0 36 33 1f a2 c8 89 8a 3f 30 f0 0a ea bd 4f 91 bf
       0.012958114097182265 -0.016905753526529732
0006c0 70 da 73 a7 92 32 74 3f a4 a4 93 22 28 01 89 3f
       0.004931042544959227 0.012209237628172005
0006d0 d5 be fd d6 7d f0 92 bf c4 e0 c4 13 ab 01 57 3f
       -0.0184955275030337 0.0014042063404087627
0006e0 fa c6 3a 96 b1 95 86 bf 77 f7 15 43 e1 c5 9b bf
       -0.011027705571311486 -0.027122039527504662
0006f0 ba 19 2c 71 e8 b4 60 3f 7d 9c 7a 06 56 93 83 bf
       0.002039388645587806 -0.009558364937517045
000700 33 4f 53 53 0b ee 88 bf 4a b5 db e0 4c e1 9c 3f
       -0.012172783356085048 0.028203202461488254
000710 12 75 ab 6b 40 5c 97 bf 4e b9 ad e0 bc 98 92 bf
       -0.022812849589958502 -0.018160773480695717
000720 2a 4b a7 5b 1b ae 91 3f fe e2 8f 84 5d 2a 4c bf
       0.01726572749050629 -0.0008595425252898301
000730 8d 72 dd 24 0c 21 8a bf fe 5d 47 cd 05 aa 75 bf
       -0.012758345484763534 -0.00528909937243993
000740 b4 b4 f5 09 32 db 48 3f c8 5d e6 ab af 03 92 bf
       0.0007585520105927363 -0.017592186800895054
000750 c8 06 ce 23 10 57 7b 3f e7 84 85 8a 79 8e 6a 3f
       0.006674826666200402 0.003241765389404894
000760 63 af ce 47 21 95 83 bf 9c f1 4f 2c 7e 42 7a 3f
       -0.0095617866553181 0.006411068786288967
000770 a6 1f 37 0c 8e ed 3b 3f 23 30 0d 32 53 d2 7f bf
       0.0004261466785604413 -0.007768940908885499
000780 2e 6b 47 8f 80 1c 86 3f 5c 0a d1 e2 dc bb 7b 3f
       0.010796551106002274 0.006770956836649047
000790 17 cc ca 5f 7f 34 92 bf 23 d4 90 07 26 e2 79 3f
       -0.017778387281122656 0.006319187691635117
0007a0 46 6e c7 cd e2 1c 8c bf 30 a5 fd 0a 97 78 97 bf
       -0.01372697058189155 -0.022920951886964136
0007b0 d1 a2 16 6c 82 87 7e 3f 69 da 62 bf 39 7b 51 bf
       0.007453450643347196 -0.0010669769231249854
0007c0 c3 f1 22 bc f2 ab a3 bf c6 2f 95 b7 fd cb 58 bf
       -0.03842123552883294 -0.001513479014039186
0007d0 81 11 c1 e2 a7 42 8f bf a0 d4 21 14 e9 66 98 bf
       -0.015263854606140327 -0.023830072263497315
0007e0 13 f0 b0 f5 e1 be 90 bf 09 d8 c8 ab e9 6b aa bf
       -0.016353159542845285 -0.05160455915431334
0007f0 14 de d0 68 0f 5f 96 3f 92 57 02 07 3a d4 dc bf
       0.021847000858739987 -0.4504532879303663
