backend/FastApi/sign_language_data/w/w_15_aug2_mirrored.npy (npy, 30368 bytes, 1 tensors)

array f8 [30, 126]
0.020711982597558385 -0.00012246061708848677 0.03956594750639105 -0.4700477199595705 -0.6911190726376646 -0.07822298071306208 -0.48342057144191175 -1.4241358301080962
-0.2114379443685387 -0.26659212979732666 -1.891904959182086 -0.3458956740204002 0.17116471168325073 -2.063669503680001 -0.4753447505331605 -0.5669410084709707
-1.0254306121796255 -0.5921626864830039 -0.8212894115639892 -1.6158758366910966 -0.7692011537847486 -0.8042949424272712 -2.1628080076094753 -0.8391733551993211
-0.76747870514604 -2.61629058640432 -0.9260601540424394 -0.07975363222238309 -0.8220046319043562 -0.5865258976815594 0.0815927346912769 -1.6387096320177
-0.7844007916001395 0.21356334314302416 -2.352562146197267 -0.8742020391990373 0.35350662049386733 -2.7819763888784537 -0.9425016338632919 0.39087669043682305
-0.7585800917598268 -0.575745748404517 0.516961761368634 -1.6861742466138867 -0.7530376300040216 0.35169241911446153 -1.7429850412307908 -0.735495984395755
0.25778937130361046 -1.4640501530800145 -0.6666465389465539 0.8176753309074931 -0.6950922848573152 -0.6083883665609774 0.8252888587959317 -1.5395810348877554
-0.6906270569833362 0.6700413585299975 -1.5860556735614089 -0.638063821445327 0.5033720642172514 -1.2965507300172308 -0.5446115898399027 0.006945728526807366
0.00016663308753719268 -0.0027893013422919766 0.015266531790607302 -0.005854065719716153 -0.02085348881956952 0.028128979825065913 -0.00099081738079828 -0.008328280627888452
0.00010776035610323388 -0.012347814457043834 0.0033797451473648486 0.017307868719559957 -0.01197387490661228 -0.017699345096111693 0.013627701731731636 -0.02422276447186174
-0.033238096174131516 0.025555428955240017 0.008125161550447327 -0.006413212905639451 0.023231248353935356 0.011952537818420735 -0.014305795452241267 0.003553602839356005
0.013559428736664346 -0.0009295395143803409 0.0007277593336336852 0.004169763617181873 -0.017679031560940275 0.017663731709784584 0.0035537661388699384 -0.018889590989873733
0.012695748125464642 -0.009142456550010081 -0.023197434894866028 0.01550208800589296 0.001696201611631272 -0.0027755021856043427 0.01623614988621364 0.003041497679748093
0.005091287700582978 -0.0008999827654110158 0.008131384182020886 -0.008402094548647569 0.009022318269278037 0.0021850892227198984 -0.01495892641115421 0.01363341321474148
-0.015349112127292747 0.003760287086025164 0.018335709658454248 0.008822364243166098 -0.03775893863462459 0.026977154205919614 0.007197988279930515 -0.0007664585367848107
0.020476557196738247 -0.007351324926171183 -0.0133288573082353 0.004157431411081706 0.005378805867174076 -0.031247828072462243 0.049016527423546695 -0.005088603585110753
0.024844079895576663 -0.3012570320193249 -0.694592536206282 0.020435687900312218 -0.2908398197990762 -1.346085590500581 -0.12335599400257899 -0.02273548674449183
-1.7352067464056589 -0.15280353600357865 0.3277238144347671 -1.8167566419417533 -0.2736109972062676 -0.35238653618005616 -1.1357967992207296 -0.34184170624313986
-0.5160081801596279 -1.6069807609423665 -0.48232371846704175 -0.4907163081711799 -2.04481648708816 -0.5895716240908272 -0.4055090239124387 -2.4039634381485446
-0.6604463851759226 0.09205323596128898 -0.9517679992176581 -0.41590054131804866 0.3051840307892347 -1.6740985682476859 -0.5223056009660029 0.45114492195842576
-2.1531043534143626 -0.5671355770279806 0.6138979730917277 -2.4885041209970624 -0.6607599824328592 0.46961478290540026 -0.8516777963435286 -0.41239559330335035
0.553787994235259 -1.5588122548735288 -0.4932243361439651 0.46692027987083523 -1.4928463528198113 -0.4691107922522779 0.4081629739854307 -1.287245288625606
-0.45889175734514676 0.8383188135671067 -0.7940184243518631 -0.43102919035528925 0.9032602551790809 -1.391868754278966 -0.41571832118746094 0.7659673703408251
-1.3328702464101958 -0.3766578228017377 0.6368066129353145 -1.1246572100847805 -0.34917155989802395 0.05065459403229316 -0.034087368205962455 0.012596285682651472
0.020020355278487455 -0.0051249646789780605 0.00037183145312408154 0.021925879993358495 0.0035493850609586253 0.020571036313488746 0.03500667738809046 -0.029070246742166742
0.01710150934043776 0.03913278538862621 -0.020087995481059544 0.007225318146772496 0.03849229537083806 -0.02378021687067607 0.019249286594816662 0.03227941694798567
-0.021202659113267013 0.019008584953746507 0.018940422461796984 -0.03205857086770293 0.006822524675761821 0.020250534519381143 -0.013545766215781093 0.017860062646720326
0.020019176585318783 -0.019983189745537706 0.03582398816283036 0.016356908896720267 -0.030514559264138756 0.01819499976234005 0.0222272886685022 -0.012445945703407815
0.025767598288081596 0.009712225247305313 -0.01101329550478016 0.025370577808389885 0.04519201268583654 -0.0014758846001904013 0.026195725745857476 0.030895498197472813
-0.04520590610101117 0.009845873255055024 0.029227628163967376 -0.020087018327800618 0.04410893830023436 0.0204671589769297 -0.01164404482173611 0.03128164389897285
0.036472753261497376 -0.028798351611106273 0.024311025768309322 0.04244577174948539 -0.03893843701147538 0.014428454083917009 0.03924445578146249 -0.0463640264133492
0.02025824692903479 0.0531495698283348 -0.014027923008094422 0.011840024279028558 0.0007710000008638963 -0.017486802465184022 0.014876884701633647 -0.37725300633364767
00000000: 093d 919f 8535 953f a4e8 ddb0 180d 20bf
00000010: eb80 26e5 fc41 a43f 4449 3208 4315 debf
00000020: 1adc d3be a51d e6bf 3e4f f5d7 6b06 b4bf
00000030: 08a0 23d6 5cf0 debf 7204 f6a6 42c9 f6bf
00000040: b421 1908 6610 cbbf ad6e b66f d80f d1bf
00000050: 843c 6d22 3e45 febf 34b6 ef9b 2723 d6bf
00000060: 9354 74ab b9e8 c53f 1a77 2028 6582 00c0
00000070: 7c5f 7763 0c6c debf 4a9c 4478 6124 e2bf
00000080: 5d0f faed 2968 f0bf 6064 8b29 fff2 e2bf
00000090: 47fd 66bb 0048 eabf 23c2 0f9f a0da f9bf
000000a0: 7ba1 f1bc 4b9d e8bf d206 42bf c8bc e9bf
000000b0: 4bad e148 6e4d 01c0 7f2e 8814 82da eabf
000000c0: 4151 5f80 2f8f e8bf 8483 4bc2 29ee 04c0
000000d0: 44b6 77e7 48a2 edbf 81e1 21ea bb6a b4bf
000000e0: 4112 66a8 dc4d eabf 3194 99f5 d1c4 e2bf
000000f0: e619 17ef 42e3 b43f dc7f 5297 2738 fabf
00000100: ad21 5cb0 cf19 e9bf 483c 362b 0b56 cb3f
00000110: 75cc 3d1a 0cd2 02c0 a09a 0e8e 76f9 ebbf
00000120: 8133 7c3b da9f d63f 2dd1 43d6 7c41 06c0
00000130: 2ad2 bb2f f928 eebf c478 8caa 1f04 d93f
00000140: 112a b0c1 4946 e8bf 94ab 0659 826c e2bf
00000150: ff8b 4b64 f38a e03f 7b06 c9d8 91fa fabf
00000160: b2c9 305f e218 e8bf 5541 96eb 2082 d63f
00000170: 2a0e 5848 44e3 fbbf 0536 eadf 2e89 e7bf
00000180: 9a58 c0fd 9e7f d03f 57eb 72da bf6c f7bf
00000190: 968b 581f 2b55 e5bf 12cc 9f74 652a ea3f
000001a0: 2f40 e52c 323e e6bf 25ae 34e1 ea77 e3bf
000001b0: 9803 492e c468 ea3f ea27 26b9 1fa2 f8bf
000001c0: ae3c efe9 9d19 e6bf eb51 3b93 fa70 e53f
000001d0: d64d f9e9 7b60 f9bf 73ca bbd1 046b e4bf
000001e0: 360f 31bb 9f1b e03f 8176 70fa abbe f4bf
000001f0: 7e51 ec48 756d e1bf 479a e9cd 1f73 7c3f
00000200: 1483 a352 47d7 253f 5714 67c1 96d9 66bf
00000210: 70ad 1c36 0f44 8f3f 107c 09cd 6efa 77bf
00000220: 0641 f3f1 9d5a 95bf c38b ace1 d7cd 9c3f
00000230: 612d cc0f ca3b 50bf adf5 6de7 6a0e 81bf
00000240: 82f5 31d2 ac3f 1c3f 511f 299a cf49 89bf
00000250: 264f 0edc d6af 6b3f ecb4 7468 27b9 913f
00000260: 00d8 0a49 c285 88bf 9cc7 64f1 c61f 92bf
00000270: 6e37 0f2a d7e8 8b3f f5c3 e634 dacd 98bf
00000280: 6d30 1970 9504 a1bf 085c 64ce 332b 9a3f
00000290: d533 12b9 eca3 803f 7d75 12bb bd44 7abf
000002a0: ae9d b3af eec9 973f b149 4678 927a 883f
000002b0: 2798 e25c 5b4c 8dbf e2d4 4bff 711c 6d3f
000002c0: 2cb3 cfb7 0bc5 8b3f a4eb 44e8 8a75 4ebf
000002d0: 85c0 c644 e3d8 473f 56b3 e265 5014 713f
000002e0: 774a 84b9 731a 92bf 914b 13f8 7016 923f
000002f0: 15b1 02ab c91c 6d3f 1b32 25fe ca57 93bf
00000300: 1e1c fa77 3a00 8a3f 2d62 19bf 47b9 82bf
00000310: 7fed e580 11c1 97bf 164a 0a08 8fbf 8f3f
00000320: 539f c29c 62ca 5b3f 6eab bf63 a6bc 66bf
00000330: d1d2 1893 35a0 903f 7b93 17a2 7bea 683f
00000340: 7d4d b222 9ada 743f 5b07 af45 9a7d 4dbf
00000350: ce5d 10e9 2fa7 803f 6f4a 6f0a 1e35 81bf
00000360: 4b89 340f 4b7a 823f 3e79 03d8 76e6 613f
00000370: 63e0 c01d c9a2 8ebf dd10 1fbf d5eb 8b3f
00000380: caf7 dff4 5a6f 8fbf 098a dbc1 e4cd 6e3f
00000390: 0afb 53a5 98c6 923f d0b0 2eaf 7511 823f
000003a0: 1780 22bd 2355 a3bf ffdb 362c e69f 9b3f
000003b0: 4410 2644 a37b 7d3f 1398 b32c 851d 49bf
000003c0: 4189 fa7d cef7 943f fb27 3e42 6c1c 7ebf
000003d0: 81f9 daf1 284c 8bbf f7a5 22ff 6107 713f
000003e0: 681f a834 1608 763f 92ab 913e 6eff 9fbf
000003f0: 13c8 7ebc b118 a93f f58c af9f c9d7 74bf
00000400: 7954 9afa b970 993f 35a2 0d93 cb47 d3bf
00000410: 57a7 6120 1a3a e6bf 77fa cfcc 17ed 943f
00000420: 1757 9a9e 1e9d d2bf cb11 4d0b 9189 f5bf
00000430: beb3 0128 4294 bfbf 10dd 1ab0 f847 97bf
00000440: 20c6 3926 68c3 fbbf 989c ecf6 108f c3bf
00000450: 5b88 474e 6df9 d43f cae3 9e69 6f11 fdbf
00000460: 62eb 34b3 d782 d1bf 836b 1c42 808d d6bf
00000470: 48df b843 392c f2bf ad47 2e09 bce0 d5bf
00000480: 6821 4896 2383 e0bf 4ec7 5875 31b6 f9bf
00000490: e5aa 394d 64de debf 7d61 cd5f e567 dfbf
000004a0: 0aec 12bf c85b 00c0 a7d4 834f c5dd e2bf
000004b0: a2f4 fb1e dcf3 d9bf 9105 dd2e 513b 03c0
000004c0: b8f1 2275 6022 e5bf 56d8 f105 cd90 b73f
000004d0: 3f9d c029 e274 eebf be61 d64d 1d9e dabf
000004e0: fd13 e099 2288 d33f bf77 8e94 1bc9 fabf
000004f0: db54 553c bab6 e0bf a758 64f3 8edf dc3f
00000500: be51 76c6 8e39 01c0 e976 7782 f925 e2bf
00000510: 1f4f b05c 0da5 e33f 1d26 3dd9 74e8 03c0
00000520: d0bf 611e f224 e5bf 54ff 9229 2b0e de3f
00000530: 31cb 40cb f140 ebbf 6d27 907c b064 dabf
00000540: 4e0d 8599 a1b8 e13f bb92 741e e5f0 f8bf
00000550: d618 55ce fc90 dfbf 159a f898 05e2 dd3f
00000560: 0206 75db b2e2 f7bf d425 bb45 e905 debf
00000570: 4d27 2d98 571f da3f a23b 0984 8e98 f4bf
00000580: 4ce3 8c88 7b5e ddbf 448d fcf9 81d3 ea3f
00000590: 0e68 a053 9968 e9bf fda0 0c75 fb95 dbbf
000005a0: 20aa f80c 82e7 ec3f 1c3d bf2b 1845 f6bf
000005b0: 6548 7604 219b dabf c557 ad00 ce82 e83f
000005c0: c34a 62c0 6f53 f5bf 61d3 ad69 291b d8bf
000005d0: ece0 0d43 b860 e43f 4f65 088f 98fe f1bf
000005e0: ee23 9dab d358 d6bf e78e 8521 66ef a93f
000005f0: ad79 4d47 e673 a1bf bee8 76d8 14cc 893f
00000600: 439d b34c 3780 943f 8ca4 073b eafd 74bf
00000610: e663 48ee 4b5e 383f e2ac 07e6 bc73 963f
00000620: 574f 3f98 9913 6d3f 3755 d8e0 9210 953f
00000630: 6c04 0c2d 65ec a13f a151 2d3c 97c4 9dbf
00000640: 2353 51dd 0e83 913f 531d e462 3609 a43f
00000650: fe8b 888e f291 94bf e51d 4c92 4b98 7d3f
00000660: ab0c 881b 43b5 a33f 955f 0157 d759 98bf
00000670: 0d93 95c1 15b6 933f a447 4080 ed86 a03f
00000680: 3e3b eb5d 26b6 95bf 4cd9 e08a fc76 933f
00000690: 2bf1 2e3c 1e65 933f 32d7 dd22 fb69 a0bf
000006a0: f39e bc85 eff1 7b3f 92f4 f25d 8ebc 943f
000006b0: cb17 2bf7 e1bd 8bbf d881 e383 e849 923f
000006c0: 753c e832 e87f 943f 6217 b529 7976 94bf
000006d0: fcae 2493 8557 a23f a3aa 1993 ddbf 903f
000006e0: 8e85 5d68 353f 9fbf 3a4c b8c3 b5a1 923f
000006f0: bdce a317 c0c2 963f 6e86 1c8e 427d 89bf
00000700: 3a6d c63f d262 9a3f 44ef 77ce 00e4 833f
00000710: 8b1c 1d80 238e 86bf b7e1 dea7 befa 993f
00000720: 055b 0d51 6823 a73f 618d ca05 4f2e 58bf
00000730: dc67 7e65 0dd3 9a3f 1937 68c9 11a3 9f3f
00000740: 716c 9480 3a25 a7bf 7855 0cbd 122a 843f
00000750: b961 6aec d8ed 9d3f cc10 2bfb b091 94bf
00000760: 75ec eb5e 7295 a63f 53b2 cac9 57f5 943f
00000770: 0dc0 9e3d d5d8 87bf d6bc 05cb 2504 a03f
00000780: f40a e884 8eac a23f afc5 64a9 507d 9dbf
00000790: 19ac 6d52 fde4 983f 71f8 08c3 73bb a53f
000007a0: c214 0b23 bdef a3bf 7aca 6053 aa8c 8d3f
000007b0: 0ceb 426c d917 a43f 69fb 4f92 06bd a7bf
000007c0: 2553 23f0 93be 943f d817 6ba0 6b36 ab3f
000007d0: 0692 67f4 abba 8cbf 5289 7f28 953f 883f
000007e0: 5d8a fbe4 9d43 493f 0f5e cc72 0fe8 91bf
000007f0: 903b 14aa c577 8e3f 1c53 21cb e924 d8bf
