backend/FastApi/sign_language_data/w/w_15_aug0_mirrored.npy (npy, 30368 bytes, 1 tensors)

array f8 [30, 126]
-0.014896762736879636 0.021291612159299488 0.05991237103150604 -0.41769439800888425 -0.7187755757563624 -0.055404836602396 -0.39482495133451995 -1.4485352661966087
-0.1641366186178556 -0.13090516805351007 -1.864142662906442 -0.31387539788841873 0.30887470531219036 -1.9990887651514813 -0.4737137456586001 -0.47844155313138614
-1.049128614547307 -0.5766502015643982 -0.6999014234867726 -1.632919072807116 -0.7572331014023096 -0.6506077241794054 -2.1967016356798292 -0.8344374947748597
-0.5568369179741846 -2.6472682927156126 -0.9296480040496395 -0.034786471776340214 -0.7746606009694679 -0.568399455408201 0.18565900982419803 -1.6085656339537526
-0.7681010737910814 0.3905308268329377 -2.3304096422782865 -0.8840697109657962 0.5766696646131889 -2.721216796107196 -0.92688517776931 0.4255977526279816
-0.7002918877904841 -0.5561817524164007 0.6373247008612387 -1.6126872469559517 -0.7310094305135537 0.47749925914199015 -1.6629230300319884 -0.7464974252807461
0.3566740084651384 -1.394624089333515 -0.652896916489029 0.8567436218954264 -0.5908674775462126 -0.5720178798808242 0.9332662023383437 -1.439096120294138
-0.6657518107979673 0.7760698081137332 -1.4914730218738779 -0.6363683891134011 0.5735731750372616 -1.2256652342637968 -0.5160535332471284 -0.026230337282776097
0.020489108672911465 0.008570088549578853 -0.003940663708440394 0.016153501336753324 -0.0028804953859712574 -0.027861275969007025 0.02967111581076343 0.005798962605633769
-0.017602451623394973 0.04316874148236413 -0.0038733031681772523 -0.003829758451902427 0.028117240028958032 -0.0013761479150248134 -0.03739032821192724 0.03950914236738511
0.00314136154637004 -0.013813580001315658 0.031420080563624095 0.015056896713150913 -0.014917865343619009 0.03112212561196684 -0.0023644598617210263 -0.0172446517534198
0.019312222216897778 -0.009956975389684502 -0.040041451927206914 0.030505638301557395 -0.02039593384065968 -0.01775023050470009 0.018573467546740077 0.007614208565799404
-0.024006697801133237 0.02772999953625266 -0.0002725741800117993 -0.027028485631312108 0.04646170393137069 -0.00962870960057128 -0.010115913528561556 0.032623049455213576
0.010298533630450876 -0.02656090471045148 0.016746178128414346 0.008235514282409451 -0.011798237100115955 0.03131807714555431 0.007269670803823725 -0.02499155664489068
0.025769348691622018 0.01874052255526079 -0.010435675383408213 0.00846898696781703 0.026878751755883803 -0.01182295420549116 0.03897687597949553 0.0011084481202244816
-0.02246398084746924 0.025735476157092135 0.003023924162397783 -0.02911158214151597 0.024976359408053848 0.008321496562275751 -0.004527537940017979 -0.008818797631296785
-0.02179963157859134 -0.4079320022901512 -0.643653372763398 -0.00990434725632069 -0.43407748588136147 -1.2537034672612661 -0.10142927790150953 -0.20536661022489117
-1.692590059505558 -0.19994598453313456 0.12498567755200905 -1.797824558727477 -0.29508679087151807 -0.48795036705498956 -1.0753421908372194 -0.3350355039533911
-0.6632990006294756 -1.5018418878922315 -0.5024437062857106 -0.6941294312285178 -1.9188342428589682 -0.5824964895393728 -0.641800298416472 -2.2923479294153313
-0.6622438248298138 -0.03416633666899093 -0.9306789956042423 -0.43589556302563404 0.08256394567647896 -1.6405573190431997 -0.505941229430069 0.20119104639424007
-2.1191448171158584 -0.5869078328406713 0.33285109979281985 -2.4323016401032085 -0.6530377095292268 0.370500656511699 -0.8814359566813111 -0.40012722560418407
0.3511644627830632 -1.5496543701738845 -0.5328070370686332 0.28474212503729324 -1.475816334851156 -0.4825796795507421 0.24306667831548198 -1.2696301848084652
-0.4704720470097458 0.7031419017183733 -0.8270826281317993 -0.4407204306734486 0.6943441251437907 -1.4111276266971133 -0.45425358881289196 0.5853333186614885
-1.3676231443542415 -0.40021676952005103 0.48656921822611426 -1.1603962735323885 -0.344629498139233 -0.017060694205944842 -0.037251929162420865 -0.008455603147505979
-0.013882441641057402 -0.027152227770635553 -0.0036948428381108093 -0.0013744665602121117 -0.023551795315214688 -0.012263459160651623 0.0042200709357013404 -0.021593994618902376
-0.02854291261907564 -0.004777059192055043 -0.029425743729077834 -0.0029788817221103898 -0.007997616687407512 -0.029453409403592576 -0.00713454172431181 -0.027627105674814592
-0.030570644733215645 -0.004611630713582463 -0.015906445712643703 -0.00228626731388793 -0.010643826796424165 -0.00502499675601492 -0.03389735398051721 -0.010194514866926366
0.002580383952658215 -0.021558186772782286 -0.02003733766374329 -0.010284955582123381 -0.024238898041489754 -0.015196478022623377 0.004580340548666369 -0.025941894542637536
0.007650550179163674 -0.01081929117775926 -0.03596567950303859 -0.012970502431993032 -0.02694234636187237 -0.014671464445509848 -0.012179969001989545 -0.009275588942489404
-0.02687726208040572 -0.01102884713377169 -0.009286701789708342 -0.005527278193225804 -0.022523555969806344 -0.017996024895776362 -0.020870168606734584 0.00039757767531759485
-0.015074968609942667 -0.009110015467891827 -0.011845166939676698 -0.00915652753819865 -0.03194394698324449 -0.0167653944438909 -0.0060328209943928835 -0.016465571099308456
-0.0021502791455678323 -0.012160333321173708 -0.012881513220962496 0.002192296500531007 -0.05714996745312925 -0.025942443755527875 0.026541198623671672 -0.3677891263424134
00000000: e95a 2ba6 3182 8ebf 93fc 9ce7 77cd 953f
00000010: b08a 6994 d5ac ae3f 8bea ca48 81bb dabf
00000020: 4f30 e1a2 3500 e7bf 3bba 7ed2 055e acbf
00000030: 7919 68df cf44 d9bf 65ac b650 332d f7bf
00000040: 5e15 85c0 6d02 c5bf 2167 d523 80c1 c0bf
00000050: 302f c441 87d3 fdbf a3c8 3cd6 8816 d4bf
00000060: e128 7869 9ac4 d33f b406 4280 44fc ffbf
00000070: 053d 5175 5351 debf c0ca ef51 c99e debf
00000080: a174 0c16 3bc9 f0bf c26d 9e1f eb73 e2bf
00000090: ca95 89ab 9765 e6bf 0f8a ebbf 6f20 fabf
000000a0: 1d17 bfe9 403b e8bf 6104 3c4a c7d1 e4bf
000000b0: 3f84 a24e d892 01c0 79a7 d342 b6b3 eabf
000000c0: 22f2 fca7 9bd1 e1bf 499c a7ff 9a2d 05c0
000000d0: 84ea c52b adbf edbf 82c6 3e4d 88cf a1bf
000000e0: f83b 5507 05ca e8bf 9e5b 010e 5430 e2bf
000000f0: cc8a b3a7 acc3 c73f 62d0 7451 afbc f9bf
00000100: d090 feb3 4894 e8bf 98f2 5402 75fe d83f
00000110: 47f2 7ecf ada4 02c0 bc6e ff8f 4c4a ecbf
00000120: 657c c3f0 1374 e23f b7d9 c44f 0dc5 05c0
00000130: 9952 b51a 0ba9 edbf 2a73 325b fe3c db3f
00000140: fbda 7688 ca68 e6bf 4755 a8ac 3dcc e1bf
00000150: 5f39 64c5 f664 e43f 27a2 8524 91cd f9bf
00000160: 0ef2 a3e3 6d64 e7bf cb42 780d 598f de3f
00000170: b70a dc2d 559b fabf d620 8491 4ee3 e7bf
00000180: 4a39 6c38 bfd3 d63f 6f6b 5e59 6150 f6bf
00000190: 1259 ff12 88e4 e4bf 471e a399 716a eb3f
000001a0: 8897 8ae9 62e8 e2bf ba17 da70 f84d e2bf
000001b0: 752b 3015 51dd ed3f be6b 47a7 8906 f7bf
000001c0: 5d29 d4bd d64d e5bf 0a5e a859 90d5 e83f
000001d0: 9808 bdd0 12dd f7bf 8868 6e3d 215d e4bf
000001e0: c7bb 9421 b65a e23f 6f1d 1026 539c f3bf
000001f0: 6703 09b3 8283 e0bf 3798 2b23 20dc 9abf
00000200: 6b87 b2ce 18fb 943f bda7 5ad0 318d 813f
00000210: 985c 09dc 1524 70bf c538 d41f 8b8a 903f
00000220: 2d2d 542f d698 67bf a665 7294 aa87 9cbf
00000230: 4117 2ce0 1a62 9e3f afeb de2b a7c0 773f
00000240: 3226 3588 6006 92bf 8ca1 c099 361a a63f
00000250: 1200 eacd e7ba 6fbf 8e15 aee9 955f 6fbf
00000260: 8c3b 8309 c4ca 9c3f bd01 8792 fb8b 56bf
00000270: 02c0 b639 d324 a3bf 6fcb b8d4 8a3a a43f
00000280: 3c08 69a3 e9bb 693f de48 c552 4b4a 8cbf
00000290: 0eba eaf4 4a16 a03f 40a7 b277 26d6 8e3f
000002a0: e73e 37fe 418d 8ebf e8d9 bd7e 7ade 9f3f
000002b0: 9ee6 ebb8 a15e 63bf d854 3ffd 94a8 91bf
000002c0: 43b1 564b 95c6 933f 2980 539d 5264 84bf
000002d0: d6fe 052d 5080 a4bf 412a 65bb de3c 9f3f
000002e0: 0e9f 44f3 abe2 94bf ef7c 0ece 1d2d 92bf
000002f0: 270b bf4e ec04 933f 6f87 668c 1330 7f3f
00000300: f066 c337 3695 98bf e054 81c4 4065 9c3f
00000310: 53bf 5a30 09dd 31bf 8137 63f7 5aad 9bbf
00000320: eba7 cd15 d4c9 a73f c473 b286 37b8 83bf
00000330: fed6 31ee a6b7 84bf a409 03e5 f7b3 a03f
00000340: 8bc8 1dc9 6517 853f 2291 5524 c832 9bbf
00000350: b3ff 93fd e825 913f cdcb 1104 c8dd 803f
00000360: 7daf f693 ac29 88bf db3e 3a4a ec08 a03f
00000370: b486 ae65 cdc6 7d3f 941e ddf9 6297 99bf
00000380: 539c 7ab7 4763 9a3f 386e f02d b730 933f
00000390: 5806 dea3 4c5f 85bf 2ec9 7430 3058 813f
000003a0: 97cb fe7e 1a86 9b3f 37ce 3c0d a236 88bf
000003b0: 43ad 43ef c6f4 a33f 024a 3e1b 2b29 523f
000003c0: 1bb8 4f3c cc00 97bf 9b4c c491 665a 9a3f
000003d0: 9736 42ec a0c5 683f 3a36 ee34 6dcf 9dbf
000003e0: b9ab 521b 6793 993f f8c2 b55c dc0a 813f
000003f0: c1f2 23b6 778b 72bf 02ea 54fb 960f 82bf
00000400: 8493 c782 a452 96bf e5fd 34d4 8e1b dabf
00000410: 1453 3ff5 ce98 e4bf edd8 6efc ba48 84bf
00000420: 1595 72ef ecc7 dbbf 994d ec5d 2b0f f4bf
00000430: 0da2 71e7 44f7 b9bf ce9a 4dfd 7349 cabf
00000440: edc6 7150 d914 fbbf 9ea6 447c d497 c9bf
00000450: 4fe5 8db5 0fff bf3f e0e1 3aaf e3c3 fcbf
00000460: b195 11b5 b3e2 d2bf cfa1 242d 943a dfbf
00000470: 427a 5a03 9a34 f1bf eaa2 1ec1 3871 d5bf
00000480: e189 65d3 be39 e5bf 1829 045c 8b07 f8bf
00000490: 4280 d2d2 0414 e0bf 7e29 caec 4e36 e6bf
000004a0: 1563 f888 8bb3 febf bb67 93ad cfa3 e2bf
000004b0: 9160 88c7 a089 e4bf 2723 df82 ba56 02c0
000004c0: 73e7 33f6 1931 e5bf 4f21 3c05 407e a1bf
000004d0: 1a38 2651 1fc8 edbf a8a9 ea80 b6e5 dbbf
000004e0: c85a 8226 e922 b53f 4e10 0808 b93f fabf
000004f0: ab34 43a9 ab30 e0bf 9e71 41d2 a0c0 c93f
00000500: 0d01 a832 02f4 00c0 3124 7aef f2c7 e2bf
00000510: 0d0f 03b3 6e4d d53f e800 f28f 5a75 03c0
00000520: e872 af56 afe5 e4bf 4f50 b762 48b6 d73f
00000530: dbde ee2d b934 ecbf 4763 0d39 af9b d9bf
00000540: 2fec ca82 7a79 d63f 4701 8061 62cb f8bf
00000550: e53a e957 c10c e1bf b409 b508 3739 d23f
00000560: ad69 d196 f19c f7bf 3e9d 58e1 95e2 debf
00000570: 6761 0e15 cf1c cf3f ca44 9cbd 6750 f4bf
00000580: b7b2 e5c9 361c debf 307c 0a72 2380 e63f
00000590: 4c4e ddfc 7577 eabf cff9 1a77 c334 dcbf
000005a0: aa31 b52b 1138 e63f d456 f28f fa93 f6bf
000005b0: 2bb0 02a5 7d12 ddbf af20 9df0 0cbb e23f
000005c0: 0411 64ce c8e1 f5bf 968f 19cc 269d d9bf
000005d0: 675f e137 f323 df3f d18c d3ae fb90 f2bf
000005e0: 6bac efe1 680e d6bf cb77 a5ce 5b78 91bf
000005f0: d756 ee52 af12 a3bf 5c56 e4d7 2b51 81bf
00000600: 631d b2c6 656e 8cbf 4758 2729 cbcd 9bbf
00000610: c6d8 e9a4 a544 6ebf e551 3c3b ee84 56bf
00000620: c450 903a f61d 98bf f923 3fa0 951d 89bf
00000630: 9e7d 7daa 1049 713f 4f76 b672 bc1c 96bf
00000640: 6c12 ed70 5a3a 9dbf e5d1 0310 1c91 73bf
00000650: a94f e83b c821 9ebf 445a 67f2 2a67 68bf
00000660: 4466 f2f0 0d61 80bf 8c96 93d8 0829 9ebf
00000670: ecbd 0bf6 1b39 7dbf 1405 6dad 474a 9cbf
00000680: 731e 633d e94d 9fbf 517c 8931 a5e3 72bf
00000690: cd8e 8680 c749 90bf 0d5e fa6a a6ba 62bf
000006a0: fc9d f53f 6ecc 85bf bf66 ac4b 1795 74bf
000006b0: e3d5 8875 fe5a a1bf 48c4 9d9f dce0 84bf
000006c0: b060 0216 7523 653f 77c3 996c 5913 96bf
000006d0: c5d6 dbf7 aa84 94bf 7ba2 ed5e 4710 85bf
000006e0: 2d61 84e9 14d2 98bf 49ef f8c0 541f 8fbf
000006f0: d5eb c6cd d5c2 723f c7ac a012 8390 9abf
00000700: cefc 0ded 2e56 7f3f c0ec 31ae 6c28 86bf
00000710: 69e9 7cf2 176a a2bf f795 105e 4790 8abf
00000720: d0c9 0142 c696 9bbf d1b8 d29f 120c 8ebf
00000730: 271c 3dc4 cff1 88bf 96e6 4579 14ff 82bf
00000740: 97c1 9086 b685 9bbf 2c5e 04ce 4a96 86bf
00000750: b4c7 cb03 e804 83bf cd78 3671 c5a3 76bf
00000760: 97a9 1e41 6a10 97bf 269c 8ac9 8c6d 92bf
00000770: 5300 834e fd5e 95bf 5fb2 f41c 3f0e 3a3f
00000780: dceb 5709 a0df 8ebf 8b54 0194 45a8 82bf
00000790: a6fa f864 4742 88bf 9067 9252 a8c0 82bf
000007a0: 5846 32ff f45a a0bf 9c3c 5d93 f22a 91bf
000007b0: b204 fa0d dfb5 78bf fea5 86c5 59dc 90bf
000007c0: ad83 7053 769d 61bf 7819 624f 84e7 88bf
000007d0: 6863 0e70 9f61 8abf 2cba bb38 94f5 613f
000007e0: 9c78 5bb2 c242 adbf d982 08ee a790 9abf
000007f0: 845b 57b0 9d2d 9b3f d5c3 5d67 db89 d7bf
