backend/FastApi/sign_language_data/w/w_16_aug2_mirrored.npy (npy, 30368 bytes, 1 tensors)

array f8 [30, 126]
0	0xbf912070a61370ef	-0.016725311409445828
1	0xbfa0d1cb264158b8	-0.032850597781974356
2	0xbfa17749bc6b98bc	-0.03411322045376283
3	0xbfd84d48d1386d22	-0.3797170680206411
4	0xbfe2c6050fc0df53	-0.5866723354037994
5	0xbfb269c76c57306a	-0.07192655940088036
6	0xbfe03047b32662f7	-0.5058935641310133
7	0xbff164a12383a407	-1.0870677363657266
8	0xbfc6810701d6acd3	-0.17581260289930487
9	0xbfd4166fdadfffdd	-0.31386944174300685
10	0xbff7af650181079a	-1.4803209360838765
11	0xbfd207b094e7a88a	-0.2817193464421811
12	0xbfa1c600774cab4d	-0.03471375900547589
13	0xbffb6942635a7a70	-1.7131980782502545
14	0xbfda33e5ad3faf61	-0.4094175521738546
15	0xbfe0d8421a4add48	-0.5263987077259253
16	0xbfef4121bcbe62aa	-0.9767006575012449
17	0xbfe044fbcf14ae2b	-0.5084208530947242
18	0xbfe9dde515bd5760	-0.808336775264916
19	0xbff5cd2713b4eaa3	-1.3625860948365378
20	0xbfe631d4d7f2d790	-0.6935829370256545
21	0xbfeb90bde4ac85af	-0.8614186731612586
22	0xbffc9fe0d3406dfb	-1.7890327693957022
23	0xbfe960443c3651c5	-0.7930012870806925
24	0xbfea6d0b75bb7ced	-0.8258111285648774
25	0xc000e34792fb9f18	-2.110976360610845
26	0xbfed2a3bfc18850e	-0.9114055560823162
27	0xbfcd4a5adb043f6b	-0.22883163160485806
28	0xbfeb1368dbf79458	-0.8461193367226185
29	0xbfe1894f710b99af	-0.5480115135113034
30	0xbfbce87ad99bf4e5	-0.11292236149525399
31	0xbff7eb905ba51a10	-1.4950107173805272
32	0xbfe6780b801bef82	-0.7021539213305774
33	0x3f7f2ebe041d0296	0.0076129362585680895
34	0xbfffb2b009e12653	-1.9811249147336596
35	0xbfe866f7cd3b9018	-0.7625693329287087
36	0x3fba098cdd6e1841	0.10170822530753389
37	0xc002e748c5037444	-2.3629317657164695
38	0xbfeaa8cb9e41dd2d	-0.8331049052202723
39	0x3fc480d74749c441	0.1601819131933855
40	0xbfe9ce7d338df8a9	-0.8064561850476554
41	0xbfde7ea59b7213f1	-0.4764799135230638
42	0x3fd3035f353e4e46	0.2970808048205281
43	0xbff72f12ef5a3343	-1.448992667169663
44	0xbfe3697a7ec4dc95	-0.6066257930714466
45	0x3fc49a4a076d25fb	0.16095853197684548
46	0xbff71269f0fe3bb3	-1.4419955648224743
47	0xbfe20aeb6f5fb24a	-0.5638329673070726
48	0x3fb4ee7b311988d2	0.08176393460010736
49	0xbff407d8eefbb077	-1.2519158683089964
50	0xbfe034613ef2c197	-0.5063940267046289
51	0x3fe32f7361b4bc79	0.5995423229523019
52	0xbfe989f9f47c6346	-0.7980928206553493
53	0xbfe0b90f09184faf	-0.5225901773105671
54	0x3fe14ef648990784	0.5408889215398038
55	0xbff4ff0fab44333f	-1.3122708025068304
56	0xbfe2e9f9926f0b20	-0.5910613880190319
57	0x3fddf6e38cc03ca2	0.4681939005394701
58	0xbff53fe8604f24f7	-1.3281024705959774
59	0xbfdec2d390b13466	-0.48064126138780805
60	0x3fd6873252bd396a	0.3520017440795501
61	0xbff22a3f943e5aa5	-1.135314539982269
62	0xbfdc16c61c2b2232	-0.43889000655011323
63	0xbf9565ef3b93dbcb	-0.020896661769224594
64	0xbf97cbcc6a311ae1	-0.02323836706298266
65	0xbf9545452d7de38b	-0.02077205743941905
66	0xbf99c8f8357d5704	-0.025180700554606097
67	0xbfa4c0cb33d28ecc	-0.04053339965437672
68	0xbfa29efe886e5f92	-0.03636928000849972
69	0xbf9bd221d4f64a73	-0.02716877806012481
70	0xbf95f81459b8f6f7	-0.021454160667636803
71	0xbfa13a418f46eb0c	-0.03364758371340856
72	0xbf978902c8c0e504	-0.022983592513104348
73	0xbf9ca7d274a7c7c6	-0.027983940477447587
74	0xbf8903204882c7a8	-0.012212993824821286
75	0xbf998eddb93c7d11	-0.02495905345051336
76	0xbf9c433ddaba02ad	-0.02760025641919366
77	0xbfa1efc102d3ca7c	-0.035032302470331594
78	0xbfa117749ed5b770	-0.03338207663442361
79	0xbf980b2e5f9197ae	-0.02348015268616848
80	0xbf9068db20a556df	-0.016024993770165415
81	0xbfa33a48ea9ac585	-0.03755405296159168
82	0xbf96677db9ba774c	-0.021879162274323335
83	0xbf9a004195cbb8f4	-0.025391602294740204
84	0xbf9ad56e368767d9	-0.02620479781931082
85	0xbf8b07cc43f98d0d	-0.013198467087198762
86	0xbf9e472131e9af53	-0.029568213149487942
87	0xbfa177339c3d7595	-0.034112561056399184
88	0xbf9cc5dd39283e5a	-0.028098541844938964
89	0xbf8f3f72388cfa43	-0.015257732725897038
90	0xbf9c7fb002863512	-0.027830839304035022
91	0xbf6ab50a7bf0c61d	-0.0032601551788722497
92	0xbfa2d6bceec4b9a8	-0.036794571062603254
93	0xbf96c8f0094cc714	-0.022250891273137688
94	0xbf9691acc5de90c0	-0.022040080620755687
95	0xbf9ac65c70681e14	-0.026147312508355183
96	0xbfa4d5f5317c5a24	-0.0406948683650408
97	0xbfa1badb9af43c83	-0.03462873713044081
98	0xbf92de6e3cdb5a58	-0.018426630463034804
99	0x3f554f2d36bf8a6f	0.0013006154576876946
100	0xbf7677bfbf862a02	-0.005485295311141504
101	0xbf91df4e72af00c9	-0.01745340895627193
102	0xbf83736854bc3d88	-0.009497466169277727
103	0xbf9db1a79e536cbf	-0.028998011625714023
104	0xbf9f24fa450da55a	-0.030414495911292284
105	0xbf805200cfce6ab4	-0.007968908635850404
106	0xbf9cc0d8cc25601d	-0.02807940240867889
107	0xbfa20e620bb7470c	-0.035265983514945004
108	0xbfa0035edb6be265	-0.0312757151459138
109	0xbf8e70e1dc653c95	-0.014863743341861283
110	0xbfa325334c1a3b26	-0.03739319137559098
111	0xbf9d7179acdfbcc3	-0.02875318639410974
112	0xbf9985fcfac61084	-0.02492518692589886
113	0xbf736ab866a57d77	-0.004740448299656356
114	0xbf9d88a597c6c919	-0.02884157885427738
115	0xbf9dc4a97e474b34	-0.02907051881067986
116	0xbf90cfc122bb4fcf	-0.01641752027974502
117	0xbfa114be0c647626	-0.03336137677454713
118	0xbf928f418a8b2e4f	-0.018124603348765252
119	0xbfa2002525f67e20	-0.035157357105387144
120	0xbf9e510cc003758a	-0.029606055469107363
121	0xbf87f0567f64c6b7	-0.011688876879449734
122	0xbfa23fd44c160f95	-0.03564322880541152
123	0xbf93280ae98304e6	-0.018707437994412233
124	0xbf92e426224da81f	-0.018448444217405432
125	0xbfa63d7516fd847b	-0.0434376326145491
126	0x3f75f0c2e9358621	0.005356561060894134
127	0xbf8ff30789d2060e	-0.015600260632939313
128	0xbf893fad74fef8ee	-0.012328486569341792
129	0xbfd571890630d5e8	-0.33505464176718514
130	0xbfe377007732f124	-0.6082765892129243
131	0xbf9e3c3243284ed0	-0.02952650580307542
132	0xbfd6f41441e85c73	-0.35864740787787425
133	0xbff29a97cf4f1bd3	-1.162742433358052
134	0xbfc1aec5ab425ccd	-0.13814612257258432
135	0xbfbde7cfb01e0446	-0.11681840944039931
136	0xbff99027a0a938d7	-1.5976940418072922
137	0xbfd12a50bcd42649	-0.2682077259092677
138	0x3fc5fb7e5aa9ce0f	0.1717374746982476
139	0xbffc9f9d6fbcc446	-1.7889685024968158
140	0xbfd5a31dfb511539	-0.33808087866448805
141	0xbfd9dd75a3a5138f	-0.404141816911129
142	0xbff04639dab8500e	-1.0171450179814232
143	0xbfda41accdfe26f9	-0.4102584849975837
144	0xbfe3b1ae3fed6402	-0.6154395340519161
145	0xbff71545491f231c	-1.442693029052129
146	0xbfe4804d1928ed8f	-0.6406617633251005
147	0xbfe315742853925d	-0.5963688647867219
148	0xbffe87b168a8dc3c	-1.9081281746164356
149	0xbfe7991431f45435	-0.7374363876030033
150	0xbfe0b75beb10f9d2	-0.5223826972140222
151	0xc001ec9bc76d1d0d	-2.240531499879245
152	0xbfe8ff1a7de40a7c	-0.7811405619434733
153	0xbfac626a6bfa8710	-0.05543835228060179
154	0xbfec7eab34cbbe3d	-0.8904624968690268
155	0xbfdb8d77f1be8b23	-0.4305095539840968
156	0x3fc24ac68a59489b	0.14290696864424465
157	0xbff86a74b61aa1e2	-1.5259902108610892
158	0xbfe4f40559a125c1	-0.6547877073837115
159	0x3fcece00e7691da9	0.240661728852712
160	0xc000b493768adbd4	-2.088171888458854
161	0xbfe5aa6a5b598f3b	-0.6770526680161092
162	0x3fd87752b389b477	0.38228290112494484
163	0xc003405b9ab96498	-2.4064247215106427
164	0xbfe87c0eb7cb1dfc	-0.7651437368121488
165	0x3fd5752077918375	0.3352738540325427
166	0xbfe93b0b655342f7	-0.788457582379208
167	0xbfdd29dcd8fe9534	-0.4556800955854954
168	0x3fddca329dccc1f1	0.46546616945400304
169	0xbff707096a30d6db	-1.4392179630353243
170	0xbfe3e595fcc65048	-0.6217756211285712
171	0x3fd8350248626a96	0.3782354075316702
172	0xbff7b0ff6dc7178c	-1.4807123459044957
173	0xbfe13db41ba81d63	-0.5387821712655917
174	0x3fd30afe6e91af8d	0.29754601285707666
175	0xbff548fc9e8df0d1	-1.3303190415891104
176	0xbfdf76196f0a40d0	-0.49158321231608415
177	0x3fe56a71aace911d	0.669243653876524
178	0xbfe719e0b6eb791c	-0.7219089100506468
179	0xbfde2a9cd97aa3ed	-0.4713508724040015
180	0x3fe90bbe3bec2a74	0.782683484111955
181	0xbff43cdc834c290f	-1.264858734970918
182	0xbfe00fd4bb221acf	-0.5019324927278265
183	0x3fe518476095702c	0.6592137228394725
184	0xbff4e93d023cbbfc	-1.306942948092682
185	0xbfde59566f1f1490	-0.47420273639392807
186	0x3fe07af635e1baca	0.5150099804285102
187	0xbff1bdc3479313e1	-1.108828811252572
188	0xbfe06354d57160cd	-0.5121254128271403
189	0x3f92e95d0cead811	0.01846833602277093
190	0xbf92fa4d87c497e4	-0.018532954608552546
191	0x3f8baf22e23a2eaf	0.013517639664562734
192	0x3f90dbaaf188e5dc	0.016462965957748085
193	0xbf7689dbe9928b8a	-0.005502566368849391
194	0x3f94072c78f6a506	0.01955861557295171
195	0x3f9dac7b97926581	0.02897828209515785
196	0xbf92da95629b4c30	-0.01841195501658549
197	0x3f9cd08f0f7388fc	0.028139338796685273
198	0x3f98dfacce5c18c3	0.024290752501678236
199	0xbf97db3812e2ced1	-0.023297191765506767
200	0x3f7e0a929e865012	0.007334301692385041
201	0x3fa531b9945647f2	0.04139499603037668
202	0xbf7d9be550d96517	-0.007228751912032003
203	0x3f90e8bf02ad0316	0.016512856043166733
204	0x3fa0679f55314f2c	0.03204057612370401
205	0xbf8872bf5f1f0456	-0.011937613573424748
206	0x3f97efb82b052b4e	0.023375394464248793
207	0x3f9afd467e237c37	0.026356793831720373
208	0xbf938c1118d2bec8	-0.019088999881829577
209	0x3f80d9150eaa7871	0.008226551542346723
210	0x3f8a6e91f0ce948e	0.012906208192200699
211	0xbf9219e2185069ac	-0.017676861509338046
212	0x3f927cd380f1becb	0.018054299111496513
213	0x3f9e22c77aa7633a	0.029429547177502992
214	0xbf6b6bbf6cccc833	-0.003347276570274915
215	0x3f7d239e99aaffd4	0.007114047558104592
216	0x3f9a966c01f9cc7b	0.025964439030258007
217	0xbf9961894e8d49fa	-0.024786134166172126
218	0x3f92a9fc004a99e3	0.018226563947473805
219	0x3fa1bb91f0c5be6f	0.03463417114369071
220	0xbf6fa192bb5f2386	-0.003861223779470571
221	0x3f948f3ea0273dbe	0.02007768490312655
222	0x3f904de861387bb4	0.015922194417836003
223	0xbf8c9206d2416fcc	-0.013950398723117895
224	0x3f947977d1449f06	0.019994613788326475
225	0x3f938d217d0dd34e	0.01909305883187367
226	0xbf80193fcc8c1785	-0.007860659055505934
227	0xbf880459c7df4a65	-0.01172704831325184
228	0x3f9cd302993c9289	0.028148689844913952
229	0xbf9380b88c3cfbb9	-0.01904571872659819
230	0x3f84a0f856bd7b96	0.010072651049709152
231	0x3f9959bb8749386b	0.024756364948466485
232	0xbf9348e5c818c166	-0.018832769716199314
233	0x3f9897bf6591b85c	0.02401637132100408
234	0x3f9e9a57ae706b27	0.029885644933624136
235	0xbf98f70186ec019e	-0.024379752979258755
236	0x3f989b8d59ea71eb	0.02403088437368865
237	0x3f9494cd161e95fd	0.020098881220880205
238	0xbfa1776510b9cd80	-0.03411403493091836
239	0x3f759a42a82a2a31	0.005274067286004811
240	0x3f8a724f0feb2915	0.01291333930329989
241	0xbf99150246a37ae9	-0.024494205056607852
242	0x3f9cdf92030f98a0	0.028196603237937823
243	0x3f9ecb1fa9fad245	0.030071730375043754
244	0xbf8bff728b6b827f	-0.013670821075210114
245	0x3f94da7bbcdf3f75	0.020364697840534036
246	0x3fa1109acce8d57d	0.033329808724753975
247	0xbf9408ed344ead2a	-0.019565302198015257
248	0x3f902ce2c6ba3cb6	0.015796225909579596
249	0x3fa68566d5f43a49	0.04398652421706523
250	0xbf8546c547fa9896	-0.010388890513535903
251	0x3f89f782596a5f5e	0.012679117540116355
252	0xbfa435c68871103b	-0.039472774653888064
253	0xbf82d7f3b4a6ee36	-0.009200958204807024
254	0xbf99e1716399e063	-0.025274059013526428
255	0xbfdc86a98a031efa	-0.4457191322112376
