backend/FastApi/sign_language_data/w/w_17_aug2.npy (npy, 30368 bytes, 1 tensors)

array f8 [30, 126]
0.09250477532798987 0.03578946704886479 0.004197111684080084 0.3958868751873194 -0.6657591597372945 -0.0485764951643342 0.38276505202807737 -1.458607624244407
-0.21638312785494096 0.09422917966928585 -1.863471762795655 -0.35342221299132476 -0.24997117351809256 -2.0720993434339072 -0.4419664199039123 0.5988579706519407
-1.0950116463908586 -0.5867853168523889 0.7871748018280409 -1.6634362843721622 -0.7624724288389564 0.7641041001946035 -2.2415313187508517 -0.8470803211148437
0.6762227613156772 -2.692228795213652 -0.9211206502571041 0.1763741666970442 -0.8587267655636048 -0.6039396714733226 0.00513234557893102 -1.6834775295416367
-0.7529097653661742 -0.20190058799798297 -2.368818815342206 -0.8584433016635823 -0.3842196927306804 -2.777664865542759 -0.8683598606722619 -0.27274416022773346
-0.7743936712808026 -0.6155328768561887 -0.5106500905917947 -1.6316584361918347 -0.7786197075512277 -0.4148104578459399 -1.7476073300321107 -0.7708170583709977
-0.3070016833087345 -1.5673249403153517 -0.6519705241812593 -0.7279483672373306 -0.7033584373535642 -0.6242711632526636 -0.8733561795196098 -1.471569333286256
-0.7011079253709409 -0.7267441756802876 -1.5795197768640745 -0.7068191758134784 -0.5344910752592578 -1.378311496300674 -0.6127873661336116 0.010204543800046382
-0.008876868550378517 -0.03036540030668152 -0.0008030058596738716 0.009441715545780945 -0.021906319491913927 0.003904391951485162 -0.005674924160032136 -0.017139586030227437
0.03883219433430271 0.0020645084388969917 -0.01536702404122912 0.0370452219514965 0.02241116324798468 -0.03673137764294053 0.024854667455288776 -0.0004953230871113617
-0.03505795571061972 0.02666692306447932 0.0003415783800751847 -0.012346242398062646 0.04025621844988662 -0.007732442075318573 0.0075851480502004175 0.019669603181773482
-0.021127372067180808 -0.017770708721840337 0.040604438418889166 -0.00034796490509369626 -0.022631591849057633 0.015179863362306633 -0.005878768412832831 -0.028947859318579287
0.01277028402199151 0.007918243241937826 -0.014558231358052832 0.02307911436625698 -0.004965504281071513 -0.022371325041009367 0.03686270620232264 -0.015147145116988286
-0.03843233914792697 0.012566688592724822 0.0011231922392719719 -0.012897167025570748 0.02802765261696122 0.01069095229062036 -0.006215440717354121 0.01886865175119089
-0.005556852219124266 -0.03221926555342202 0.046565933117871716 0.011035319740259454 -0.002726020205572882 0.02501934927273923 0.022557467973178206 -0.009742786823520803
0.016487159295466052 -0.0002695727779350479 -0.0038484856449058384 -0.00016880352874466752 -0.00262754322282034 -0.026822724413665462 -0.03682721101183679 -0.033069708706996104
0.005213952688530837 0.4319093603327648 -0.7870466208438174 -0.07186346555999867 0.46529303397109684 -1.5777429612306133 -0.16123658057561222 0.14874557496297008
-1.9877678635559106 -0.2842353716375938 -0.21326309112397077 -2.1470006151560055 -0.3774701938625746 0.5573642887864132 -1.1736928096731087 -0.4585371901175289
0.7776103502445032 -1.7018443159561758 -0.6586069702399087 0.799900478494098 -2.284795481982967 -0.8195443896009776 0.7370031627190285 -2.720581282283846
-0.8412184322831305 0.11663087822312364 -0.9603579304890756 -0.49221659264637585 -0.03711654593117858 -1.7478970040523283 -0.7187730219041633 -0.16851331763975272
-2.502576761540664 -0.7293435219804115 -0.26714677632620343 -2.8994735789758437 -0.8490539513796387 -0.3423097569839151 -0.8139432329625708 -0.5444817846021688
-0.5106438981206408 -1.7916363552921952 -0.7008893737571097 -0.3819176073466115 -1.9107185238304993 -0.6708511057774474 -0.2557841970403309 -1.6981738259177128
-0.6106345174231806 -0.7804966481492496 -0.8278584983859784 -0.604011906773862 -0.8534839956716821 -1.6152823112092227 -0.6355445221233728 -0.7159143800681963
-1.7051021518812193 -0.6369693543111479 -0.6062102783875863 -1.5664920417271184 -0.5906907446328806 -0.017195232347535963 -0.04388880682082628 0.010153520461243957
-0.012094311952162934 -0.03889558508425469 0.004589114864969523 -0.010537243429543873 -0.0318015299625761 0.022854097412508597 -0.00123254971364991 -0.021437579094663744
0.01787600414666197 -0.024905554174505944 -0.022493977482552094 0.0029212757455715378 -0.009864018867031043 -0.021947802801369994 0.03083644554716501 -0.028109719636106277
-0.04144145823246892 0.02007601629367701 -0.007824123769440165 -0.026954448106836167 0.035565510839442045 -0.03396543436006022 -0.02712605204271148 0.031907325057682547
-0.023662247132862017 -0.037220023317347674 -0.002944331010263139 -0.01953926453244058 -0.03713040320946299 -0.010221480223955031 -0.005199054633952872 -0.056342361341567185
0.03153436177320561 -0.02911995365165033 -0.04339064609472608 0.01486685243320275 -0.01808072916394049 -0.033686181263632126 0.02329178200074436 -0.013327293751595956
-0.020047735265578407 0.009731172403069803 -0.025516820577752338 -0.02906696664519538 0.003009135032314317 0.0014038423451124408 -0.02510187654391557 0.003140678845114123
-0.018753193028718293 -0.04483321970677872 0.01946307236590682 -0.00794777844483368 -0.04373961735268322 0.015645949414679186 -0.0318471580127977 -0.025363622252064746
0.012446012310572721 -0.010803543340110154 -0.03406082483026946 0.019960717797354987 0.004695091986550396 -0.035367738629069945 0.03667310040629384 0.44863288338660534
00000000: 6aee c198 64ae b73f 0444 083d ff52 a23f
00000010: 6c87 bb96 fd30 713f 4717 76e7 3556 d93f
00000020: 1cb1 4227 e64d e5bf 8794 2bb4 04df a8bf
00000030: 07ca 20fd 387f d83f 3c37 bdf2 7456 f7bf
00000040: 3486 c53c 71b2 cbbf 742c 024d 671f b83f
00000050: 01a1 63c4 c7d0 fdbf 6992 9e33 789e d6bf
00000060: 3afa 992f 0eff cfbf c5e4 10d2 a893 00c0
00000070: 6eb8 da85 2d49 dcbf b7c4 dc30 d829 e33f
00000080: 40ce 9fee 2a85 f1bf a2ed 3400 f2c6 e2bf
00000090: 62c6 c235 8930 e93f 28bb 855d 6f9d fabf
000000a0: 52e1 3e94 2c66 e8bf 1969 2271 8a73 e83f
000000b0: 10f5 d7f8 a7ee 01c0 f4bf 8830 481b ebbf
000000c0: 372c 95ea 9da3 e53f 4156 2640 af89 05c0
000000d0: d6c8 9003 d279 edbf f059 e9be 6d93 c63f
000000e0: 1475 c98d b07a ebbf 5784 374a 7953 e3bf
000000f0: 5bca 9c86 a705 753f 4eea 4e22 86ef fabf
00000100: abc6 6238 d617 e8bf 014c 3fe3 e0d7 c9bf
00000110: 995a 7047 57f3 02c0 efb0 4316 5e78 ebbf
00000120: eb79 b031 0e97 d8bf fc08 665b a838 06c0
00000130: 2de3 579e 9ac9 ebbf 2d99 16ec a374 d1bf
00000140: 6a2c 8c3c d5c7 e8bf 5ab9 f600 72b2 e3bf
00000150: 7951 d9db 3e57 e0bf a1fb 5ae0 451b fabf
00000160: f383 7ee0 73ea e8bf 9f2c 9f29 418c dabf
00000170: 01ce 8b1a 33f6 fbbf 1ee0 1c89 88aa e8bf
00000180: 8f30 6863 eaa5 d3bf dfc0 0d51 c313 f9bf
00000190: 4510 ea49 f1dc e4bf f6bf ce5f 5a4b e7bf
000001a0: 3c93 b98d e981 e6bf b431 c084 07fa e3bf
000001b0: b57a 99a8 88f2 ebbf 082d 0449 8c8b f7bf
000001c0: 3ee8 4de3 796f e6bf bb5e 6300 7d41 e7bf
000001d0: 3f43 9087 b645 f9bf fdbe 893f 439e e6bf
000001e0: a2c1 0707 8d1a e1bf dafe 045b 900d f6bf
000001f0: 5244 1e40 f49b e3bf 6567 22af 1ee6 843f
00000200: c80a eb20 092e 82bf b613 fd84 1b18 9fbf
00000210: 951c f1f3 1950 4abf a4ea e59b 2d56 833f
00000220: a68a 2c37 9c6e 96bf e1b1 c177 1afc 6f3f
00000230: 8d3c cbda 963e 77bf 3602 de25 0a8d 91bf
00000240: 0c3f 6539 d0e1 a33f 79af 4687 96e9 603f
00000250: 7628 8d0d bf78 8fbf 1f6d 8261 97f7 a23f
00000260: ca94 dcb4 f3f2 963f fe49 6d83 74ce a2bf
00000270: 0862 7e7f 8073 993f dc75 e43a 123b 40bf
00000280: cac3 7bca 1df3 a1bf b09c c9e9 924e 9b3f
00000290: b686 b0f8 bb62 363f 6016 a09a fc48 89bf
000002a0: d5e1 678b 769c a43f acac 4e9d 0dac 7fbf
000002b0: a590 f9ac 9a11 7f3f 2566 90b9 4424 943f
000002c0: 54dc 50f0 69a2 95bf 71ef 2513 7c32 92bf
000002d0: 30c4 29de 1aca a43f b05f 35e3 e1cd 36bf
000002e0: 477a 646b bc2c 97bf 9941 97c5 9e16 8f3f
000002f0: 6197 2ee1 5514 78bf ce01 40f4 81a4 9dbf
00000300: 2f74 e181 4e27 8a3f 128e 209e 7037 803f
00000310: 1a42 90bc b4d0 8dbf 00e3 b125 0da2 973f
00000320: 45f4 ec67 b556 74bf 8262 ad35 82e8 96bf
00000330: 0a7d 292b abdf a23f a3e9 3d67 7705 8fbf
00000340: 8e8d 7f4f 67ad a3bf 49ba 3264 90bc 893f
00000350: beaa d37b 0267 523f bcdf af74 d469 8abf
00000360: 1076 7eed 47b3 9c3f cd48 9c53 23e5 853f
00000370: 6dbb c7a9 5c75 79bf bd8f c3c8 4d52 933f
00000380: f528 cc28 c8c2 76bf cfc7 b427 0b7f a0bf
00000390: d0ad b26f 7dd7 a73f 6121 158b af99 863f
000003a0: f38c 32f4 e054 66bf 2c10 931b ac9e 993f
000003b0: d1c6 e60c 4e19 973f 3c3b 3bb6 06f4 83bf
000003c0: bb70 e987 02e2 903f 2e18 df43 aeaa 31bf
000003d0: 46e5 7cff db86 6fbf e729 5445 1b20 26bf
000003e0: 1c33 bf86 5b86 65bf 52d3 9590 6a77 9bbf
000003f0: 5926 cc25 04db a2bf d003 c54a 83ee a0bf
00000400: e06a 7bc4 395b 753f d3ca 5d28 67a4 db3f
00000410: c072 1e65 7c2f e9bf a87f 5be2 a465 b2bf
00000420: 3d99 fd6e 5cc7 dd3f c5ac 3f67 6f3e f9bf
00000430: 21dd 3e78 66a3 c4bf 9201 f251 180a c33f
00000440: e632 e0ac e5cd ffbf 1831 638e e930 d2bf
00000450: 1721 e978 344c cbbf 06b2 94a8 0e2d 01c0
00000460: bfb0 76be 7828 d8bf 6078 09a2 edd5 e13f
00000470: ab8a 911c 72c7 f2bf 467d e35e ac58 ddbf
00000480: 9399 ea19 2fe2 e83f eea4 fe1a c13a fbbf
00000490: 4023 c3ec 4e13 e5bf 1afb 65e3 c898 e93f
000004a0: bd52 89da 4247 02c0 7f9b de27 b539 eabf
000004b0: 4ca8 1da8 8795 e73f a226 8c1e c0c3 05c0
000004c0: 9759 eeea 42eb eabf 150d ac6f 85db bd3f
000004d0: 4bf4 fc8d 40bb eebf 46be fd05 7a80 dfbf
000004e0: f86c d49d f000 a3bf e8e5 52d9 62f7 fbbf
000004f0: 466a ca47 3000 e7bf 6302 1a2a d891 c5bf
00000500: bb5f 14f7 4605 04c0 0592 ce39 c856 e7bf
00000510: 3c62 e3ca ee18 d1bf e089 2a34 1f32 07c0
00000520: 48e2 3631 732b ebbf 743f d62e 67e8 d5bf
00000530: f5fd cbad d20b eabf fc49 4410 656c e1bf
00000540: 3f90 4adf 3157 e0bf b4df 04e2 8aaa fcbf
00000550: 97d2 4c8d af6d e6bf 3c7f 548c 5671 d8bf
00000560: 0d6a 3b96 4d92 febf 1b96 f9bc 9c77 e5bf
00000570: 3fcc 47ae c45e d0bf 1dd6 5351 b82b fbbf
00000580: 8e85 4466 518a e3bf 6309 4e1b d4f9 e8bf
00000590: fd11 091b d17d eabf 77a0 3fc7 1054 e3bf
000005a0: 8b37 22ab bd4f ebbf e936 c743 32d8 f9bf
000005b0: ab7f 3577 6156 e4bf e920 2446 c5e8 e6bf
000005c0: 7ab4 aa31 1948 fbbf 7e42 2a8e 0d62 e4bf
000005d0: 458f 0519 1366 e3bf 8a98 8af5 5910 f9bf
000005e0: 84f0 c746 f0e6 e2bf 04b4 5182 a09b 91bf
000005f0: 1d6d e9fb 9778 a6bf 7ffe 8f72 5ecb 843f
00000600: c3d3 6a12 e7c4 88bf db93 ca43 1fea a3bf
00000610: 26bd 3324 09cc 723f ffea 5bdf 8c94 85bf
00000620: acd6 4d46 4a48 a0bf af83 dd83 1067 973f
00000630: 6315 7e2d b031 54bf 4bcd 7794 bbf3 95bf
00000640: 13b5 c554 164e 923f 2b4c ac72 d780 99bf
00000650: 7cfd 9346 a908 97bf e444 46f9 5bee 673f
00000660: 4638 8733 9633 84bf c2f6 001d 7c79 96bf
00000670: bb8e 99d4 9693 9f3f 56b0 255a cbc8 9cbf
00000680: a02f 9d97 d037 a5bf f245 a9a5 ce8e 943f
00000690: af43 ad1d 1806 80bf 2f01 6764 f299 9bbf
000006a0: 1185 d783 a435 a23f 88b2 8adb ea63 a1bf
000006b0: 0779 9289 eec6 9bbf 0d4d 402b 2856 a03f
000006c0: 7e90 5786 ea3a 98bf 0509 cfbd 800e a3bf
000006d0: f0c8 b9ac b51e 68bf 3c70 9ed8 1902 94bf
000006e0: b9a1 f196 c102 a3bf 6391 3ada ffee 84bf
000006f0: 0195 f799 9a4b 75bf fad1 aeee e7d8 acbf
00000700: e644 0899 4525 a03f a326 6102 9fd1 9dbf
00000710: aeba db7b 4c37 a6bf 07e4 f527 8372 8e3f
00000720: 50af c931 c183 92bf 9477 b5ad 503f a1bf
00000730: c8c4 d507 cdd9 973f 5854 7516 574b 8bbf
00000740: 5150 4cbd 6487 94bf 9c8b c8d9 efed 833f
00000750: 4f73 84d7 1421 9abf 2347 8a1c bbc3 9dbf
00000760: 877c b211 9da6 683f 3ffd 803d 2400 573f
00000770: 9721 4c6b 4eb4 99bf ba04 aa1d 7bba 693f
00000780: ac03 047b 0934 93bf 877a d438 61f4 a6bf
00000790: bd3d 2aad 20ee 933f 1ca8 f8c3 ec46 80bf
000007a0: 077f 2304 0a65 a6bf b423 34e4 7d05 903f
000007b0: a161 454c 454e a0bf 34a7 52e0 ebf8 99bf
000007c0: f557 b77e 4b7d 893f 8c10 9d0a 2b20 86bf
000007d0: a90b 71a1 6b70 a1bf e3c9 9318 9570 943f
000007e0: 910a 8b28 293b 733f 109c 7d61 b81b a2bf
000007f0: 37a2 c60d d1c6 a23f cc8f 83b2 66b6 dc3f
