backend/FastApi/sign_language_data/w/w_17_aug0.npy (npy, 30368 bytes, 1 tensors)

array f8 [30, 126]
00000000: 156d 8312 5264 a53f ebcc a507 f72c 8c3f
00000010: 24fa f6ae f334 983f d4d5 43f3 4394 d43f
00000020: 9473 422e a60a e5bf 940f 9bf3 3220 93bf
00000030: f838 7fbb 562d d23f aa8b efa9 9727 f7bf
00000040: 731d 8110 3164 c6bf 8760 9569 b54a afbf
00000050: efb4 3826 6769 fdbf ce07 d074 1dcc d3bf
00000060: b03d 2d46 92cd d9bf 230b 50ad 9834 00c0
00000070: 08c3 e56e 2db4 d9bf b62c 9399 7f6f de3f
00000080: 0491 925a 31c4 f1bf 3c42 f9a3 80f6 e0bf
00000090: fd76 fa9b 07c7 e43f ae81 a397 27d4 fabf
000000a0: 2030 4543 6f24 e7bf 60a5 2c91 a90c e33f
000000b0: ffab 8a18 55ed 01c0 9bdd e7cc 7aa0 e9bf
000000c0: 044a 2066 5781 de3f e91e 47d9 f25d 05c0
000000d0: 4630 4a15 dee8 ebbf d4e5 1052 a406 ba3f
000000e0: d2f8 3640 6f64 eabf 7f8e f067 8d8e e2bf
000000f0: f42b 9437 4751 bebf 1f14 b036 4d88 fabf
00000100: cda9 2761 a3d4 e7bf b56a ca1e f1bc d7bf
00000110: bc11 325a 4ba5 02c0 d5cc 1141 710a eabf
00000120: a65b 0982 e743 e2bf 94cc 20f0 24a5 05c0
00000130: f36c 1275 1082 eabf d312 cb7a 6c3a d6bf
00000140: fde9 e8b4 7e47 e7bf b483 45b6 381f e3bf
00000150: 672b e62a f26b e4bf 545a fc25 3513 f9bf
00000160: d7f6 645a 5362 e8bf c742 482f 5e6f e1bf
00000170: 0ade fb78 cb54 fbbf e7a1 d000 d428 e7bf
00000180: d966 0e84 438e dcbf a646 06db 3f7a f8bf
00000190: 9775 827f 4c89 e3bf a0ca 340b 7bf7 e8bf
000001a0: 96c9 699e ae3a e5bf aec4 ae87 62c6 e2bf
000001b0: e85d 1c53 295c efbf bc88 eba6 408d f6bf
000001c0: 2451 a012 37ba e5bf 7b65 d03f 7c95 eabf
000001d0: 132a 1ba5 2628 f8bf 41c4 ba93 bb6b e5bf
000001e0: 8826 c86e 6191 e4bf 9ec0 fa58 3f00 f5bf
000001f0: 903f ea8a 5a52 e2bf 617e 7595 6d19 8ebf
00000200: ffce 936b c36f 803f 8788 42f4 cda7 7c3f
00000210: 2792 0f05 ec93 78bf da1a b602 3d45 89bf
00000220: 860c d91d e35f 843f 4b0b 7c51 99c2 62bf
00000230: 0f80 0e5a 3597 7cbf 6d01 528a dbc3 873f
00000240: 8a6e bf3c 6c9f 76bf 0c1f 1bf4 fd85 91bf
00000250: 583d 54b9 6e71 79bf 5073 7f7d 8858 6e3f
00000260: e673 ba6f d1bc 95bf 02cc 288d eb28 6cbf
00000270: 39e0 b820 0668 703f 1497 4b44 ca70 7abf
00000280: 41d8 799b 6ed9 7cbf 8869 5cf1 ee7e 70bf
00000290: 02f4 867f d5d8 63bf c8a8 fdcc 34c6 923f
000002a0: 8e3a 7237 eb7f 91bf e073 fd31 04ee 683f
000002b0: a4b5 316b 2074 773f 78f2 6b2d d9e1 71bf
000002c0: cecf 1515 47a8 89bf c0ba 603f df51 733f
000002d0: 7793 449b 675a 74bf 7511 abde 0dc2 90bf
000002e0: dd1d 861e 0060 913f cfd2 1377 c5fc 98bf
000002f0: 05a4 1be6 2c87 87bf 9be0 3b14 9586 89bf
00000300: 02ff 1b94 0d12 94bf aed9 9452 c2a2 8d3f
00000310: ab27 f893 26c0 7fbf 0ed0 fdc6 2c6f 7abf
00000320: 5f21 bab3 a3ac 89bf 1393 8237 a29a 84bf
00000330: 04f0 35df 15d6 99bf f2c8 62e1 b54c a03f
00000340: 3a8e 3860 440c 6d3f 7776 b0a9 7923 90bf
00000350: 7d82 5511 5945 96bf 1f0f 0fd1 7887 6c3f
00000360: 0f9c 5687 2689 8fbf 27ff 76ba 30a4 743f
00000370: 4113 82fb b5c2 8d3f d3d7 1f8b eedc 6bbf
00000380: 1bb7 0998 d45a 833f 43b2 c6fc 66c9 763f
00000390: 1c3f 1a62 54c3 94bf ab89 9055 6217 733f
000003a0: 98b4 9890 ecb5 783f 89f9 bf5d f198 8dbf
000003b0: 38df 89be e13b 7d3f 60e8 f68b 67f4 973f
000003c0: 4754 d75d b77e 85bf afad 7a5d 8320 81bf
000003d0: c541 2d74 5526 933f acc5 71f7 f9a3 7bbf
000003e0: 9254 95df 5817 463f e800 29b3 4a75 543f
000003f0: 6af9 467f f310 47bf 929b c8de 9387 9e3f
00000400: 555f 4a08 41d8 733f df55 7760 2627 e03f
00000410: c474 842b c7a1 e6bf a2ef f7cd 5faa b7bf
00000420: e6ce db77 1bc3 e13f e94e 87c5 6f86 f7bf
00000430: fadc 158c 3878 c5bf af3b 9ba6 79f2 d23f
00000440: 511a 3401 96be febf a5ac 8c41 1c8f d2bf
00000450: ce01 cf8f 038d b8bf adfd 3343 c1ba 00c0
00000460: 29e6 a506 9df0 d8bf c67a b143 e47a e43f
00000470: a707 cbb6 9182 f1bf 6aa1 b2b8 83d4 debf
00000480: 9612 d7ce 5481 ec3f 2376 0835 96e3 f9bf
00000490: febd c60e 8bdc e5bf 804e eb4f 629a ed3f
000004a0: f7bf 5395 8268 01c0 81df 44a2 6b54 eabf
000004b0: f09c 61ce b811 ed3f 9946 af7a bdea 04c0
000004c0: abbf bf30 3560 ebbf 5328 5bc2 c0a7 ca3f
000004d0: 3d2c a0e1 1c89 edbf 4b2c f9f1 4546 e0bf
000004e0: cf94 222d 3f64 b63f a5b5 f84c dc03 fbbf
000004f0: 8f13 811a 2d62 e7bf c172 3fd0 4508 8cbf
00000500: 492f 73bc fa69 03c0 0be0 17b2 5f53 e8bf
00000510: a3e4 ccc3 139c c0bf 4016 9065 c78c 06c0
00000520: d7df 0fbe 35f1 ebbf b55f 84d5 8a1e d0bf
00000530: baa4 c1bb 51b8 e8bf 6081 c435 f513 e2bf
00000540: ea3e 6018 f5d4 d8bf de96 a115 4075 fbbf
00000550: 8782 9d4e 2fea e6bf 66f8 a53e 3da2 d1bf
00000560: b8bf cb85 378d fdbf 7acf 112d 2e1b e7bf
00000570: 0ed8 89f5 f523 c0bf ef99 74c8 cd60 fabf
00000580: aaa5 dd7d 80e1 e3bf 2acd b691 b13f e6bf
00000590: 1e58 2f70 a251 e9bf 7f2a f5b6 6eb6 e3bf
000005a0: fc45 d874 ce04 e8bf cf2a 3e96 b51b f9bf
000005b0: b620 b07e 642c e6bf 8227 cb38 acef e2bf
000005c0: f610 b35c 7dd9 fabf c691 adb4 5a16 e5bf
000005d0: d76e 92f9 f02a e0bf f557 e826 0d9c f8bf
000005e0: cff4 925d 763a e3bf d0f0 db43 a975 a03f
000005f0: e05f bbe0 7d69 9f3f fd7d de84 206a 82bf
00000600: 89f7 9f6f 8f5e 953f 9c65 4e03 b69c 933f
00000610: 8c40 fb6f 99d9 92bf a6d5 198c 78eb 953f
00000620: a2d0 36ea 3ffc 863f c6f1 24d4 a22b 96bf
00000630: edf9 4b2f 0f00 a73f b803 e2c0 93b3 9e3f
00000640: 1840 74a8 aca9 7fbf f853 5a89 8419 893f
00000650: 9cb1 540b f5b8 a73f 99cc 97e9 157d 91bf
00000660: 55d1 9077 3c0c a23f d1db 9bf2 eaaa a03f
00000670: 6d6e adb4 101a 743f 902e 06d2 02ba 943f
00000680: a8ab ce75 a602 9f3f 688c 2069 65d7 8bbf
00000690: 4be2 478c 4301 923f f726 3d54 5b69 9b3f
000006a0: d177 ea3f f0c0 82bf 2c6e 59ce 5d85 9d3f
000006b0: 027b 0371 47c0 a63f 25c9 947f e5e8 633f
000006c0: aad8 7bc2 12af 963f e4d8 3ede 9b86 9e3f
000006d0: 3d1c 533d b834 80bf e39f 270a 93a2 a03f
000006e0: 08eb 4410 26b3 a43f 4fa2 28dd 8ad1 8dbf
000006f0: c0ca e5fd 492e 8e3f 052f e718 c6bc a43f
00000700: 802b 044a 3049 5d3f 502e 3e15 9a92 763f
00000710: 3f5d 060a a361 9d3f 410a 9715 6841 7abf
00000720: d08b 3f30 439f 903f 46f2 8670 6b55 963f
00000730: 09ab a767 cbcb 81bf 84fc bd14 dc05 a13f
00000740: 8f4e 68ba e0f5 9f3f 7f3f 9f07 a839 7bbf
00000750: 63f9 dde0 3b31 933f 95e4 389d 7a5d a13f
00000760: 245f fb48 ddde 9ebf cfa1 5977 10fa 7e3f
00000770: 549c b29e bd26 913f b2c1 ce9b 8c9c 92bf
00000780: 0c3a 83b0 9a38 963f 5b0f 5e23 4f61 773f
00000790: 859a 709b 74f2 8ebf 3b78 b4d9 9692 9a3f
000007a0: 0aad d35a 23ea a53f aa26 107e 0b1f 7fbf
000007b0: 7884 1c5d bef6 983f ee23 1ce0 5b47 a33f
000007c0: fbeb c801 e7cd 113f 90f0 b9b6 aa7f a83f
000007d0: 7fea fa8a e9ba 9d3f a6df a707 8dba 8abf
000007e0: cb5b 6e08 ce8a 843f 7daf 10b6 47ab 86bf
000007f0: f1cf 1111 edbe a83f 9578 434d 7693 db3f
0.041781010398802255 0.013757638855827333 0.023639495424271698 0.3215494037279687 -0.6575499442584367 -0.01867751705027805 0.28401726064920707 -1.4471661222566845
-0.17493260675312747 -0.06111685670720229 -1.8382331364658133 -0.3093331948040231 -0.40317208150096473 -2.0256818332722033 -0.4016221602424115 0.4755553245310681
-1.1103986299504536 -0.5300906374560053 0.6492956205799768 -1.6767955706965085 -0.7231975854751944 0.5952956996381253 -2.2408849637336057 -0.8008398057999558
0.4766443726850016 -2.670873353465016 -0.8721762100044621 0.10166384700359937 -0.8247600797838237 -0.5799014120170368 -0.11842770678428832 -1.6582767616503202
-0.744706811671955 -0.37090709692862883 -2.3307101294069223 -0.8137747069253246 -0.5707891025330027 -2.705636859894705 -0.8283769880830775 -0.3473159026291743
-0.727477410640233 -0.5975612220755608 -0.6381769979355852 -1.5671893581217278 -0.7620026364818057 -0.54484471545046 -1.7082018590862185 -0.7237339034955398
-0.4461830892192729 -1.5298460536618363 -0.610510109941674 -0.7802100390311644 -0.6634133428581659 -0.5867169046452057 -0.9800001738794295 -1.409485485106912
-0.6789813388627732 -0.830747723233045 -1.509802479692216 -0.6694009671538269 -0.6427466548640988 -1.3125604129564077 -0.5725529397186495 -0.014696937678933599
0.008025671692372336 0.006995968349800325 -0.0060004443666668355 -0.012339092869991065 0.009948515270599378 -0.002290057611277351 -0.006980141072659775 0.01160403743620072
-0.005523131181657379 -0.017112701438946096 -0.0062116933015795225 0.0037043252777792315 -0.021228096432071818 -0.0034374809850077357 0.004005454956818305 -0.006455221275904827
-0.007043296871065919 -0.004027303095222819 -0.0024227304349708776 0.018334221851014104 -0.017089534053008885 0.003043182557958421 0.005725981364873265 -0.0043657763951584425
-0.012527995425195029 0.004716751156634558 -0.004969029152822261 -0.016365257945623896 0.016967775214224424 -0.024401746170911672 -0.011488295337999341 -0.012463726692189694
-0.019600116886976167 0.014470594544587847 -0.007751608558018856 -0.006453680907601024 -0.012536314890227272 -0.010060565299065105 -0.025230733631801186 0.031835254443096775
0.003545888468367922 -0.01576032732201901 -0.021748916323647272 0.0034825668048784754 -0.01539831257362148 0.005039396615245362 0.014531537759702952 -0.003401246934113347
0.009450589074926399 0.005563165945585316 -0.020276373374655696 0.004660972707855408 0.006032871323936061 -0.014451871560592593 0.007137185872686129 0.023393266599420648
-0.010495598365119941 -0.008362795152911355 0.018700919357174123 -0.0067481769866487955 0.000674169917298644 0.0012486676684063062 -0.0007039250327165851 0.029814062569268503
0.004844907791856053 0.5047790416817256 -0.7072482919644689 -0.09244345453765715 0.5550668087948594 -1.470321437450304 -0.16773135032756398 0.29604951162485355
-1.9215297743809467 -0.28998476411170265 -0.09590170155480068 -2.0911889314881678 -0.38968587540839167 0.6400014230856292 -1.094377244983187 -0.4817208579720701
0.8907875099035489 -1.6180631705859774 -0.6831717766380618 0.9250957070275518 -2.1760303178962164 -0.8228052300755594 0.9084133177647384 -2.6146192154636307
-0.8554941131715074 0.20824441423457304 -0.9229874045134988 -0.5085782743493693 0.08746714450770131 -1.6884425169658723 -0.7307343976650474 -0.013687653939933654
-2.4267477724696715 -0.7601774671920806 -0.1297630983406509 -2.818739694080051 -0.8731945716999644 -0.2518641553046977 -0.772499911033399 -0.5649362611912174
-0.3879978883787617 -1.7161255688637804 -0.7160870109037923 -0.2755272971916213 -1.8469767786409488 -0.7220679168953972 -0.12609743584806704 -1.6486337499896953
-0.6212770899120887 -0.695275101278104 -0.7912151518928601 -0.6160195897476369 -0.7505867273450231 -1.5692649716244664 -0.6929190134406074 -0.5917569264649816
-1.6780980702470152 -0.6589787987582489 -0.505241858907051 -1.5380984802081887 -0.6008865192049145 0.03214768365248377 0.030675856439159932 -0.008991483740657275
0.0208685314064421 0.019152492477223157 -0.018408200702481767 0.021406062651711764 0.011223315558574424 -0.021650833318959582 0.04492232754090595 0.02998190750850302
-0.007730173535733818 0.012255702439952984 0.0463329864818178 -0.017078726179488333 0.035249604792997026 0.032553999057135415 0.00490767026607451 0.020240825718743027
0.030283547344577194 -0.013594429274297506 0.01758294624048266 0.026769091621907184 -0.00915706343704051 0.02882906505543141 0.04443572287140364 0.0024303896322176604
0.02215222656283148 0.029810367049969325 -0.00791305482051829 0.03249034403762587 0.04042929600332995 -0.014559826730946272 0.014736726818886381 0.04050272993080565
0.0017874690602776855 0.005510904204026071 0.028692767607563893 -0.006410032824933299 0.016232538051450807 0.021810225241767144 -0.008689488507078307 0.03324783089828379
0.031211387040527113 -0.006646782270720907 0.01874249992351319 0.03391631287781497 -0.03014703519769947 0.007562698670519243 0.016749346552981173 -0.018175313005203093
0.02170030310008468 0.005708035596288709 -0.015110884660385135 0.025949818647056793 0.042801956975234104 -0.0075979660914612755 0.024378752167767165 0.03765380011288487
6.791803793586286e-05 0.047849020772418815 0.029033326251673316 -0.013051130100379126 0.010030374176308051 -0.011068878406227384 0.04833165009850394 0.4308753733183804
