backend/FastApi/sign_language_data/w/w_1_aug2.npy (npy, 30368 bytes, 1 tensors)

array f8 [30, 126]
-0.015736940178838685 -0.000851479087022497 -0.01676461284619232 0.3502767562657975 -0.5695473872660636 -0.06988236407431538 0.5330490341178461 -1.2896141133746386
-0.16985033548468342 0.4001605274699363 -1.6986651921835754 -0.28041151857873525 0.12158303172590827 -1.9419274273435283 -0.4074603994227581 0.5615130062536081
-0.9303119652848326 -0.7180914046962559 0.8427027987949772 -1.6753510053948997 -0.9533824800486415 0.8129819237256335 -2.287028922136224 -1.0364488164412222
0.5858855409127982 -2.737444707809872 -1.115424099478782 0.15014590931553334 -0.7004888477275135 -0.792429738664735 0.08546482711832841 -1.5946608478390738
-0.9829313361537976 -0.11430058112871239 -2.333512028725977 -0.9627891042081667 -0.3331406743136013 -2.6350864565747187 -0.9353073890462408 -0.2912762675075624
-0.5639644689367881 -0.7453950580989973 -0.37554021558226275 -1.5261908425704007 -0.9461736654614927 -0.42493005783053067 -1.873754237116608 -0.8156368923210475
-0.38209722304970023 -1.7901151080677422 -0.7309134067301489 -0.7451039391041347 -0.4551745257851887 -0.773421882913736 -0.8958558635295264 -1.4149926713573127
-0.9125056824348343 -0.8050235865012935 -1.7584562007932387 -0.8741590622892892 -0.6567709199470557 -1.626507006559467 -0.7463794185097906 -0.023873566891722164
-0.0013129499426310167 -0.00920323620307284 -0.02236626086408748 -0.0034339896500998834 0.019915177886115708 -0.04237273316476968 0.0031530173953392706 0.008947569434542191
-0.014463683981849973 0.007595115913717149 0.014100304207976318 -0.04044702837250141 0.011382123738387017 -0.0021471722842927197 0.0012447756749984886 -0.0025027169003287125
-0.011355185295039831 -0.011811339175991956 0.014800000483475377 -0.005739196347807929 -0.034926167730969016 5.92161993390926e-05 0.005780951191922218 -0.032136232411293875
0.007388939466308958 -0.028978131253454876 -0.037281275431471333 0.015136375160787184 -0.0026214031205838936 -0.023203822282709875 0.002917361299960277 -0.011517319499101184
-0.0168043516121277 0.008952176373754506 -0.00309484159069874 -0.015907825441806193 0.002934662770332413 0.010644334189640864 -0.015316915489810522 0.012516361744091074
0.004613526536209784 -0.004925698056496003 0.012273611440427993 -0.007954025900539344 -0.04039744183106622 -0.0020998736636530517 0.008883188171281867 -0.029749084566019816
0.011876794147906232 0.027593865969925253 -0.01396346223841239 0.010515996816590423 -0.0016172421037869268 -0.020680049832510736 0.02047077774631955 -0.004324315135169592
-0.011380364465723901 0.010035519367985583 -0.009204204296554636 -0.030899218660551533 0.01644524325301333 -0.003649140074509103 0.005177657919535034 -0.006255853314417074
-0.01476207135674363 0.39065828564371474 -0.6261407383073287 -0.0591757090858597 0.5681185818612283 -1.265114224239047 -0.2431383938710489 0.4825269768107989
-1.750022777940726 -0.343553244862857 0.16962607982760336 -1.9629725804676774 -0.4469392633377654 0.5782163200946029 -0.9605875862867095 -0.7292251103793898
0.8775963374221946 -1.6548662360163096 -1.0120769775444989 0.7990092062390883 -2.2992952816601147 -1.090425382509427 0.6877588249721942 -2.7458374235138137
-1.108434801835506 0.2089656354209928 -0.6884603518071087 -0.7555061186270411 0.1252615755703773 -1.5936917138641997 -0.9928313331430942 -0.07656784990575964
-2.3620975104264086 -1.0488282654605938 -0.266697499894125 -2.6659191611892927 -0.9554735570420995 -0.2355218446120922 -0.5655340542627247 -0.8163370954097137
-0.3683942277577824 -1.5295491271458146 -0.9475702796119654 -0.4343038208221632 -1.9768640088785054 -0.855230542989119 -0.3495437834874489 -1.8708217798870375
-0.7814144894414916 -0.7194129424377084 -0.4935467802300302 -0.7911612297201122 -0.8363977534922422 -1.4775303078299244 -0.959537215553157 -0.8171796858735718
-1.8008955826809343 -0.9249784864400136 -0.5978579046744261 -1.7248692046870162 -0.7548121146154229 -0.0008956425477053266 -0.02576750231386068 -0.006920633912382132
-0.004178877769118986 0.004124260041957013 -0.017993140838507317 -0.010123570202266872 0.005612134708465763 -0.02398551110659383 -0.00788625790617826 0.0022124453796712913
-0.02154342004780008 -0.00468395819185785 0.010036610369759929 -0.02000997659477179 0.010488687688777925 -0.0015543016599868784 -0.01342308194965615 -0.0018419144144226115
-0.003040160338734971 -0.008587455922627421 -0.016130143840001946 -0.0061096228260018055 -0.023201076497803737 -0.0014727612497271786 0.0001568032955323073 -0.014437419687203223
-0.021986339445544796 -0.0004251493896248105 -0.003946131078098852 -0.0017493585610296593 0.003920223579346116 -0.027933040273543628 -0.015456410888515041 -0.007250352194643504
-0.01537366501362935 -0.003992085798405607 -0.017743440162231373 -0.016006557734583562 -0.007878743459660829 -0.009897914466111064 -0.011086040278581188 -0.002183191674362723
-0.011452403601034944 -0.021095442424667477 -0.02971461661357559 -0.00887017794891124 -0.023968114918506804 -0.027338473980645654 -0.003425427933445853 -0.019710369792904303
-0.004846160683165017 -0.0039393397304482046 -0.03408706612521311 -0.0102375196744085 -0.0025235854027132855 -0.02077065711869484 -0.009122567382274866 -0.026744454810130987
-0.008444216469379151 -0.0021256252479820706 -0.01824161417169642 -0.01408071220381123 0.041610763165478876 -0.011335379879663763 -0.024901134022922822 0.3761121312527592
00000000: 6cfe a02d 581d 90bf 4da2 7e6a b9e6 4bbf
00000010: 9734 9e1f be2a 91bf df79 2d33 ef6a d63f
00000020: 478f 3a71 bb39 e2bf 812f 4484 cfe3 b1bf
00000030: cd6a 16d9 bc0e e13f 3b77 9668 42a2 f4bf
00000040: 3088 0fe2 a7bd c5bf 098b a8e6 3a9c d93f
00000050: 1e83 748d bb2d fbbf 4ce9 6d27 43f2 d1bf
00000060: fbe4 02c9 1020 bf3f 7c55 7a7e 2212 ffbf
00000070: dbe4 7bc8 d413 dabf 9969 c41f eaf7 e13f
00000080: 1c3a 3f99 1dc5 edbf 1cb1 56d3 9afa e6bf
00000090: 9b4e 22dc 6bf7 ea3f 78de 17db 3cce fabf
000000a0: da6c 8cf9 1b82 eebf 2081 d4aa f203 ea3f
000000b0: 53a6 ccd1 d54b 02c0 c07c a95a 4b95 f0bf
000000c0: 7f6e ad08 93bf e23f a236 3569 49e6 05c0
000000d0: eae7 c6f0 c6d8 f1bf 02b7 112d fb37 c33f
000000e0: 047a 8696 676a e6bf f02b 7e9c 955b e9bf
000000f0: bb77 6edd 05e1 b53f 24e3 da17 bb83 f9bf
00000100: 05d0 df6a 2c74 efbf c492 dc89 cd42 bdbf
00000110: 009b c15a 08ab 02c0 629d 7018 2bcf eebf
00000120: 4a3c 4943 2d52 d5bf b0f7 4835 a814 05c0
00000130: e324 f5c2 09ee edbf 7cf0 c236 45a4 d2bf
00000140: 7d10 c636 ff0b e2bf ab53 a4bc 46da e7bf
00000150: 098d 10d4 d908 d8bf 80b6 c416 476b f8bf
00000160: 36cb affe 0d47 eebf 950c 5ed7 0d32 dbbf
00000170: 2484 12b9 e5fa fdbf 56c2 3d8a b219 eabf
00000180: 2d04 39e9 4774 d8bf 939f 53bd 4fa4 fcbf
00000190: 5da5 4383 a463 e7bf 4c56 5237 e4d7 e7bf
000001a0: 780f 8e55 9421 ddbf f201 a43f dfbf e8bf
000001b0: c240 79ea d9aa ecbf 08f3 f85a cfa3 f6bf
000001c0: c818 ef1d 3f33 edbf 8b03 11d3 c0c2 e9bf
000001d0: 98af 1df8 a222 fcbf d21a 016d 1cf9 ebbf
000001e0: b45d c472 4404 e5bf 4c34 fe35 2c06 fabf
000001f0: 8906 1d17 57e2 e7bf 23bf 27f4 4f72 98bf
00000200: a514 2744 e982 55bf c094 1374 25d9 82bf
00000210: ecbd c75b 2ee7 96bf f34f be27 9921 6cbf
00000220: f60b dcf6 a464 943f c6a0 5efe e0b1 a5bf
00000230: 432d 1853 5bd4 693f ede5 cc70 1a53 823f
00000240: 132c 74cd 229f 8dbf 4704 5767 0e1c 7f3f
00000250: 64ca 7ecb 9ee0 8c3f 271a 2910 79b5 a4bf
00000260: 5322 b9c9 824f 873f e661 ad57 f296 61bf
00000270: 348c 28b4 f764 543f 772c 9ee7 9380 64bf
00000280: 2994 db2b 6341 87bf f5df dc1b 8b30 88bf
00000290: 6f5f 7570 764f 8e3f e711 e8c9 fb81 77bf
000002a0: f0b5 5bb8 d7e1 a1bf cfea ce1d dd0b 0f3f
000002b0: edfb f144 c4ad 773f 5842 7206 2974 a0bf
000002c0: 2d3c c255 dd43 7e3f 2d92 2178 71ac 9dbf
000002d0: e471 7605 8816 a3bf 9952 5de2 d1ff 8e3f
000002e0: f572 8515 7b79 65bf dabf 6227 bec2 97bf
000002f0: 6b5c f76b 26e6 673f 8595 b074 6496 87bf
00000300: 4715 6bf2 2835 91bf e0c1 06c6 8455 823f
00000310: 1e23 636d 5a5a 69bf 5196 1718 244a 90bf
00000320: 3f9e f213 6f0a 683f d08c db59 b2cc 853f
00000330: 06ac d598 795e 8fbf 72a1 d8a2 2da2 893f
00000340: 47da 7919 a2e5 723f fa7e 0001 f82c 74bf
00000350: e270 ec3d e822 893f 2232 ea48 334a 80bf
00000360: e452 0337 f9ae a4bf 0182 c116 c133 61bf
00000370: 825f 7055 5931 823f 0e1f 3045 8b76 9ebf
00000380: 4c99 9253 dc52 883f b2e6 a4ff 9041 9c3f
00000390: 042a 392d e098 8cbf faf8 4b33 6989 853f
000003a0: b9ba 827c 347f 5abf a954 d7a6 262d 95bf
000003b0: 3ec9 c6a3 4af6 943f 5f96 5481 5fb6 71bf
000003c0: 4c23 93a9 964e 87bf a2f8 de9b 808d 843f
000003d0: b0e6 8363 a7d9 82bf d7e0 7976 0ba4 9fbf
000003e0: 002c c997 05d7 903f e1cb e928 cde4 6dbf
000003f0: e0cd f2f6 2a35 753f 38cd 4dd6 bc9f 79bf
00000400: a463 96ad 933b 8ebf 5a13 309c 8b00 d93f
00000410: 0a25 374d 5809 e4bf d495 7b4e 474c aebf
00000420: 0501 2b05 072e e23f 56fa ac69 e83d f4bf
00000430: e6ff 09ad 281f cfbf b8c4 35d4 b8e1 de3f
00000440: f62a 68e2 1700 fcbf beb8 c7bf c6fc d5bf
00000450: 4441 b4b0 4eb6 c53f bdda c0ef 5568 ffbf
00000460: d160 d523 a79a dcbf b23b 1a83 bf80 e23f
00000470: 9a70 812d 22bd eebf 090c 10e6 cf55 e7bf
00000480: a72a 0aea 4415 ec3f 5b1d af04 557a fabf
00000490: 0f69 f9a0 7731 f0bf 64fe 3fc1 7b91 e93f
000004a0: 509e b4ec f464 02c0 52b3 c9e2 6172 f1bf
000004b0: 904f 99cb 1e02 e63f 73ff 709c 79f7 05c0
000004c0: 9a1b 7a21 26bc f1bf b17d 0fcd 62bf ca3f
000004d0: 7f55 f300 de07 e6bf 10cb ed2a 1b2d e8bf
000004e0: 0396 4241 9208 c03f 313f efe1 c27f f9bf
000004f0: c065 4937 46c5 efbf b330 455b f399 b3bf
00000500: 9ff4 2961 93e5 02c0 e660 b425 00c8 f0bf
00000510: 4118 fe63 9211 d1bf beb3 d86c cd53 05c0
00000520: 1309 f647 3d93 eebf b21f 0d6e 9425 cebf
00000530: 6aa5 7adf da18 e2bf b77b e9f8 6e1f eabf
00000540: 7a4f 1062 c593 d7bf 4677 6b81 0879 f8bf
00000550: f809 33e8 7e52 eebf d360 bd40 a2cb dbbf
00000560: b65c ac27 3ca1 ffbf ffb6 9571 0c5e ebbf
00000570: 1151 a6e3 ec5e d6bf 3e26 94d1 e2ee fdbf
00000580: 20b2 98f5 5801 e9bf cfd9 824a 6e05 e7bf
00000590: c094 083c 4596 dfbf 515a f05a 3151 e9bf
000005a0: 3c4e b638 c5c3 eabf 46a7 efd1 f6a3 f7bf
000005b0: 1210 0364 87b4 eebf 9a0a 3903 5626 eabf
000005c0: f401 f2e2 77d0 fcbf 156e 987b 6c99 edbf
000005d0: 766a 87e6 a621 e3bf da21 8073 1099 fbbf
000005e0: 25bb 5cbc 6b27 e8bf f736 c4b9 3159 4dbf
000005f0: d756 f3ce cb62 9abf caeb 2385 cf58 7cbf
00000600: 1d37 a3f5 de1d 71bf a1a8 01a0 99e4 703f
00000610: 9a99 d03d cb6c 92bf 12fe 7f97 aabb 84bf
00000620: 70a7 89f0 bffc 763f b766 1f67 a88f 98bf
00000630: 05de 5b9e ab26 80bf 6892 9891 d51f 623f
00000640: a179 3272 7a0f 96bf ff6d ff73 7c2f 73bf
00000650: d610 680a 138e 843f a5e8 45cc 7e7d 94bf
00000660: e360 cfd4 177b 853f ff88 0eb3 3677 59bf
00000670: 89e5 e18f 8f7d 8bbf 13a8 018b 8c2d 5ebf
00000680: c1c2 57a7 ade7 68bf b58a bfd2 4c96 81bf
00000690: 5120 17a1 6b84 90bf 023c a863 6706 79bf
000006a0: d205 29e3 05c2 97bf 1cd4 c059 3521 58bf
000006b0: 7a38 6c0d 728d 243f f34b 29ab 5d91 8dbf
000006c0: 326d 8243 9683 96bf 7231 6fb9 d2dc 3bbf
000006d0: 2091 d17e d129 70bf 3e1a c073 57a9 5cbf
000006e0: 3390 0f01 a70e 703f 0996 cf99 7a9a 9cbf
000006f0: cfd8 3c5a 9ca7 8fbf 58b5 f798 8bb2 7dbf
00000700: fc25 a063 3a7c 8fbf 8ad2 265f 015a 70bf
00000710: fa7b dc1c 562b 92bf b75e f7e7 0564 90bf
00000720: 1f4a f10b bb22 80bf 6ac5 7197 5b45 84bf
00000730: 4658 8223 47b4 86bf a804 f41a 7ce2 61bf
00000740: c092 6a97 5b74 87bf 0d01 3c2d 0b9a 95bf
00000750: 0b21 462a 826d 9ebf 5329 9a21 872a 82bf
00000760: 1e14 e3f6 188b 98bf 717c adee 9dfe 9bbf
00000770: 77d6 5d9e a40f 6cbf a040 9c86 f42e 94bf
00000780: 855f 535a 91d9 73bf 5334 f674 b222 70bf
00000790: e7e1 7224 dc73 a1bf 1fc8 8ca1 68f7 84bf
000007a0: 5a02 bf98 57ac 64bf 9b36 2a34 e744 95bf
000007b0: aad9 7f44 daae 82bf 3f13 09fb e562 9bbf
000007c0: e051 9c8c 334b 81bf be6a 8e5d c269 61bf
000007d0: 17bc 2c01 eead 92bf baa9 5b33 59d6 8cbf
000007e0: 9427 ea85 014e a53f 5f96 f7ee 0037 87bf
000007f0: 800c 0cd1 ae7f 99bf 6601 d79d 3812 d83f
