backend/FastApi/sign_language_data/w/w_3.npy (npy, 30368 bytes, 1 tensors)

array f8 [30, 126]
-0.011482681420903192 0.02336988533027687 0.007172472639766618 0.4003221076048576 -0.7215194183794764 -0.1095697810122424 0.5396291865419166 -1.505085383502993
-0.2793111189456222 0.38526792559852335 -1.9923878759504223 -0.3994988437542388 -0.018435595740812986 -2.1353937767078968 -0.6021385575908127 0.6258043382731299
-0.9817565004565698 -0.7977894424761871 0.8175037808286204 -1.6852073183140728 -1.0045070686256157 0.7753234713377473 -2.3191958513449924 -1.1335350423594177
0.6398650724125228 -2.8396613783047777 -1.199306150228726 0.19875433730381456 -0.6588055008445579 -0.8195182491862198 -0.025578449610065376 -1.6347633266005426
-1.0855641093982649 -0.2653174203889001 -2.429191602634493 -1.089669110642676 -0.3724344160253084 -2.7853513778246484 -1.1041211451259216 -0.2575629595720119
-0.45202164571891096 -0.8188664304200648 -0.48735024873986404 -1.5543171829392932 -0.976179835604735 -0.42422788253411065 -1.8557059525588548 -0.884948258636997
-0.2991032497068881 -1.671030050718748 -0.7909284638069735 -0.7594077048140433 -0.3933096104852711 -0.857242900461036 -0.9307244181162632 -1.491531770278188
-0.9748117540539901 -0.7896699118966864 -1.6440495928455219 -0.8280496387024879 -0.6488812990711531 -1.4793571552795337 -0.6971316867798294 0.0
0.0 0.0 0.0 0.0 0.0 0.0 0.0 0.0
0.0 0.0 0.0 0.0 0.0 0.0 0.0 0.0
0.0 0.0 0.0 0.0 0.0 0.0 0.0 0.0
0.0 0.0 0.0 0.0 0.0 0.0 0.0 0.0
0.0 0.0 0.0 0.0 0.0 0.0 0.0 0.0
0.0 0.0 0.0 0.0 0.0 0.0 0.0 0.0
0.0 0.0 0.0 0.0 0.0 0.0 0.0 0.0
0.0 0.0 0.0 0.0 0.0 0.0 0.017459021118214447 -0.0076315248517101275
0.01639214197258436 0.39150265529714545 -0.7314560001447203 -0.10048318741086844 0.601569278806585 -1.5869504699019144 -0.3230722184017685 0.39409736132107176
-2.085091958843993 -0.4560019959956489 -0.050524971325821615 -2.102460316531 -0.612646092234779 0.656802784697979 -0.9973921080550598 -0.7631812386638938
0.8676172788999262 -1.695087722162281 -1.033541755875512 0.7843564456435431 -2.3112965337447324 -1.2613911813201861 0.6289042716443441 -2.7349461394702166
-1.2799636125697589 0.17127276439062208 -0.6228376553674394 -0.8276867279376073 -0.0356101645225585 -1.5264384049751079 -1.1039136498608286 -0.2021943508129297
-2.393987725584806 -1.1822712073592945 -0.41360741855356276 -2.8283463025889097 -1.1604156267219503 -0.2771564377585391 -0.4477714065357315 -0.8269489545387436
-0.4884208666442942 -1.5222399743358743 -1.0233925440376417 -0.452469029576686 -1.873784385828938 -0.8844940399650899 -0.3438861805243254 -1.758952320861517
-0.8145616358299721 -0.8298420769395092 -0.3865977734590344 -0.8092344100795101 -0.9526861649282707 -1.4001805431487824 -0.9316065132868437 -0.8341255159318748
-1.664959331956376 -0.8694375066206455 -0.7006869550685818 -1.6039685963536838 -0.6836967915287812 0.0 0.0 0.0
0.0 0.0 0.0 0.0 0.0 0.0 0.0 0.0
0.0 0.0 0.0 0.0 0.0 0.0 0.0 0.0
0.0 0.0 0.0 0.0 0.0 0.0 0.0 0.0
0.0 0.0 0.0 0.0 0.0 0.0 0.0 0.0
0.0 0.0 0.0 0.0 0.0 0.0 0.0 0.0
0.0 0.0 0.0 0.0 0.0 0.0 0.0 0.0
0.0 0.0 0.0 0.0 0.0 0.0 0.0 0.0
0.0 0.0 0.0 0.0 -0.02003773154545873 0.008963584502040505 0.0010779860471730736 0.416204144057206
00000000: dea4 6269 3b84 87bf 88b9 d174 46ee 973f
00000010: 0542 b5f6 e160 7d3f 81d5 019e e09e d93f
00000020: 26cd 2be4 af16 e7bf 9cd4 13e2 c30c bcbf
00000030: 8744 856d a444 e13f db53 3d69 d414 f8bf
00000040: 92f5 51be 3be0 d1bf c72d 29cd 3aa8 d83f
00000050: a876 021c d2e0 ffbf 97b6 2d99 6391 d9bf
00000060: 9e01 28e3 c7e0 92bf b856 1855 4915 01c0
00000070: c06b 9014 b844 e3bf 177f d2d1 9606 e43f
00000080: 8415 c39b 8c6a efbf 00f0 90b9 7d87 e9bf
00000090: 257d 60b0 fd28 ea3f 8b38 f2f2 9bf6 fabf
000000a0: c890 0501 7612 f0bf 2cf0 262b 73cf e83f
000000b0: 6e5d f48d b68d 02c0 d9db fca3 f522 f2bf
000000c0: a2a9 fb50 c679 e43f 3544 7c62 a0b7 06c0
000000d0: 13fc 51a5 5b30 f3bf 893a 5439 c870 c93f
000000e0: 40ac 1146 ef14 e5bf 1a5c d755 7e39 eabf
000000f0: 5cff 3ab2 3c31 9abf 2431 0797 fd27 fabf
00000100: 0a3b b978 785e f1bf 3f48 e8ea f5fa d0bf
00000110: 8843 c801 fc6e 03c0 47bf 9ae0 486f f1bf
00000120: 9df2 2e29 f7d5 d7bf d400 9d4d 6648 06c0
00000130: da34 12ef 7aaa f1bf ec74 015a e97b d0bf
00000140: b798 5c32 eced dcbf 3849 4e5f 2734 eabf
00000150: 6940 0219 bf30 dfbf a05c c5b1 7bde f8bf
00000160: d9fb 9d7e dd3c efbf ed42 62b4 8c26 dbbf
00000170: 96b9 93b9 f8b0 fdbf 0af0 af02 7f51 ecbf
00000180: f793 e7f4 8124 d3bf 1f86 a701 8abc fabf
00000190: d9d8 b035 494f e9bf 3237 1063 114d e8bf
000001a0: b726 8f12 fc2b d9bf aaaa c6a9 886e ebbf
000001b0: 41bc 2c93 7ec8 edbf 08a3 e46a 50dd f7bf
000001c0: 9362 6d6b a831 efbf 3368 c7d5 f944 e9bf
000001d0: cc60 24f2 064e fabf 3d23 b6f4 617f eabf
000001e0: 21e4 cfb6 a2c3 e4bf 9177 9068 72ab f7bf
000001f0: 9a30 771c e74e e6bf 0000 0000 0000 0000
00000200: 0000 0000 0000 0000 0000 0000 0000 0000
00000210: 0000 0000 0000 0000 0000 0000 0000 0000
00000220: 0000 0000 0000 0000 0000 0000 0000 0000
00000230: 0000 0000 0000 0000 0000 0000 0000 0000
00000240: 0000 0000 0000 0000 0000 0000 0000 0000
00000250: 0000 0000 0000 0000 0000 0000 0000 0000
00000260: 0000 0000 0000 0000 0000 0000 0000 0000
00000270: 0000 0000 0000 0000 0000 0000 0000 0000
00000280: 0000 0000 0000 0000 0000 0000 0000 0000
00000290: 0000 0000 0000 0000 0000 0000 0000 0000
000002a0: 0000 0000 0000 0000 0000 0000 0000 0000
000002b0: 0000 0000 0000 0000 0000 0000 0000 0000
000002c0: 0000 0000 0000 0000 0000 0000 0000 0000
000002d0: 0000 0000 0000 0000 0000 0000 0000 0000
000002e0: 0000 0000 0000 0000 0000 0000 0000 0000
000002f0: 0000 0000 0000 0000 0000 0000 0000 0000
00000300: 0000 0000 0000 0000 0000 0000 0000 0000
00000310: 0000 0000 0000 0000 0000 0000 0000 0000
00000320: 0000 0000 0000 0000 0000 0000 0000 0000
00000330: 0000 0000 0000 0000 0000 0000 0000 0000
00000340: 0000 0000 0000 0000 0000 0000 0000 0000
00000350: 0000 0000 0000 0000 0000 0000 0000 0000
00000360: 0000 0000 0000 0000 0000 0000 0000 0000
00000370: 0000 0000 0000 0000 0000 0000 0000 0000
00000380: 0000 0000 0000 0000 0000 0000 0000 0000
00000390: 0000 0000 0000 0000 0000 0000 0000 0000
000003a0: 0000 0000 0000 0000 0000 0000 0000 0000
000003b0: 0000 0000 0000 0000 0000 0000 0000 0000
000003c0: 0000 0000 0000 0000 0000 0000 0000 0000
000003d0: 0000 0000 0000 0000 0000 0000 0000 0000
000003e0: 0000 0000 0000 0000 0000 0000 0000 0000
000003f0: 0d41 e412 c7e0 913f 69de 81da 3b42 7fbf
00000400: cc0b bc06 1ac9 903f 0019 3327 610e d93f
00000410: 98b4 e269 1668 e7bf ad3e ba23 44b9 b9bf
00000420: 3415 5837 0e40 e33f df9b 092d 2664 f9bf
00000430: 7008 1219 37ad d4bf ea16 9423 e438 d93f
00000440: a819 63b1 44ae 00c0 fb91 edfe 222f ddbf
00000450: 6794 f3b6 68de a9bf 8d1b e5b6 d6d1 00c0
00000460: 5a75 45fa cb9a e3bf b562 0646 8704 e53f
00000470: c251 acda a2ea efbf 236e 9f0f fb6b e8bf
00000480: ef3a ca4f 85c3 eb3f 309c a84d 141f fbbf
00000490: 6492 8814 6389 f0bf 2744 4eb0 7219 e93f
000004a0: 9455 7e09 897d 02c0 64ba f384 a82e f4bf
000004b0: 7bde e0d9 fb1f e43f aec4 0a71 2be1 05c0
000004c0: 00ea 0020 bb7a f4bf 036a e014 44ec c53f
000004d0: b3a7 103c 49ee e3bf a368 7ae0 687c eabf
000004e0: 9123 0fd8 7e3b a2bf b69f 4bad 4a6c f8bf
000004f0: 002a fc5b a1a9 f1bf ccb7 1626 81e1 c9bf
00000500: 1d4c 6309 e326 03c0 09c5 a936 95ea f2bf
00000510: a883 0440 8b78 dabf 1b0e bb06 74a0 06c0
00000520: 249c e8f9 0f91 f2bf 4b1f 035b eebc d1bf
00000530: ade9 c966 49a8 dcbf c691 66a7 5d76 eabf
00000540: 48f5 3a98 4942 dfbf bdfb a64d 185b f8bf
00000550: 63ca 39dc d05f f0bf b405 1fa9 40f5 dcbf
00000560: 7340 0e56 05fb fdbf f705 e571 c64d ecbf
00000570: 3c7e b92e 3b02 d6bf 1d2d 5530 ab24 fcbf
00000580: 68e9 4e90 e310 eabf d898 a9f8 108e eabf
00000590: 4ba1 6d96 04be d8bf f2db c28f 3fe5 e9bf
000005a0: a6fe 36b2 677c eebf d31c 95b6 2367 f6bf
000005b0: b9d7 6976 b8cf edbf 0cf8 75fe 27b1 eabf
000005c0: 25c3 7e65 aca3 fabf 203f 1b9b 6ed2 ebbf
000005d0: b11b 980c 076c e6bf cc66 92f9 daa9 f9bf
000005e0: 3de1 ff17 d8e0 e5bf 0000 0000 0000 0000
000005f0: 0000 0000 0000 0000 0000 0000 0000 0000
00000600: 0000 0000 0000 0000 0000 0000 0000 0000
00000610: 0000 0000 0000 0000 0000 0000 0000 0000
00000620: 0000 0000 0000 0000 0000 0000 0000 0000
00000630: 0000 0000 0000 0000 0000 0000 0000 0000
00000640: 0000 0000 0000 0000 0000 0000 0000 0000
00000650: 0000 0000 0000 0000 0000 0000 0000 0000
00000660: 0000 0000 0000 0000 0000 0000 0000 0000
00000670: 0000 0000 0000 0000 0000 0000 0000 0000
00000680: 0000 0000 0000 0000 0000 0000 0000 0000
00000690: 0000 0000 0000 0000 0000 0000 0000 0000
000006a0: 0000 0000 0000 0000 0000 0000 0000 0000
000006b0: 0000 0000 0000 0000 0000 0000 0000 0000
000006c0: 0000 0000 0000 0000 0000 0000 0000 0000
000006d0: 0000 0000 0000 0000 0000 0000 0000 0000
000006e0: 0000 0000 0000 0000 0000 0000 0000 0000
000006f0: 0000 0000 0000 0000 0000 0000 0000 0000
00000700: 0000 0000 0000 0000 0000 0000 0000 0000
00000710: 0000 0000 0000 0000 0000 0000 0000 0000
00000720: 0000 0000 0000 0000 0000 0000 0000 0000
00000730: 0000 0000 0000 0000 0000 0000 0000 0000
00000740: 0000 0000 0000 0000 0000 0000 0000 0000
00000750: 0000 0000 0000 0000 0000 0000 0000 0000
00000760: 0000 0000 0000 0000 0000 0000 0000 0000
00000770: 0000 0000 0000 0000 0000 0000 0000 0000
00000780: 0000 0000 0000 0000 0000 0000 0000 0000
00000790: 0000 0000 0000 0000 0000 0000 0000 0000
000007a0: 0000 0000 0000 0000 0000 0000 0000 0000
000007b0: 0000 0000 0000 0000 0000 0000 0000 0000
000007c0: 0000 0000 0000 0000 0000 0000 0000 0000
000007d0: 0000 0000 0000 0000 0000 0000 0000 0000
000007e0: 7ef1 b166 c584 94bf c95e 54f2 7f5b 823f
000007f0: fe9c 5cb4 66a9 513f 25dd cbb4 16a3 da3f
