backend/FastApi/sign_language_data/w/w_3_aug1.npy (npy, 30368 bytes, 1 tensors)

array f8 [30, 126]
000000 97 52 40 81 d1 ec 9d bf e7 98 82 bc 63 28 78 bf
       -0.029223702920790542 -0.005897893519579456
000010 39 d9 d0 b8 44 bd 98 3f 44 a1 9c 7e 61 1c dc 3f
       0.02415950181986057 0.43923222889363367
000020 5b 9e 4b 91 79 c1 e7 bf 6b 84 30 a0 84 91 b8 bf
       -0.7423675382423868 -0.09597042952420202
000030 90 14 34 e5 8a 09 e4 3f d5 5e 7b d3 90 6c f8 bf
       0.6261648632650054 -1.5265053044330916
000040 34 3f 70 5b 62 11 d1 bf 9e 28 a6 cf 35 e5 e0 3f
       -0.26668604783570804 0.527979760708394
000050 dc 08 f0 53 3b 5c 00 c0 20 5c ed 5f 22 35 da bf
       -2.045035033953452 -0.4094930588520942
000060 34 c9 7f f0 98 5b b9 3f 65 30 4f 5b 8b ae 01 c0
       0.09905391570626848 -2.2102267392674997
000070 50 07 51 63 e7 62 e3 bf f3 a7 fb 95 93 89 e5 3f
       -0.6058232249999751 0.6730440072399219
000080 f9 1a 63 5e c4 d2 ee bf b7 c6 57 0a 24 fb e9 bf
       -0.9632284015177383 -0.8119068338403029
000090 d9 57 c7 8c 6e 92 ed 3f 87 24 4b eb 0e 0e fb bf
       0.9241249799331356 -1.6909321967271198
0000a0 da a1 9f 74 cb 12 f0 bf 49 38 7c f6 98 ba ed 3f
       -1.0045885615928598 0.929028016487572
0000b0 f6 5e b1 59 b5 d2 02 c0 8e 15 87 45 a5 2c f2 bf
       -2.352884960866386 -1.1358998027729714
0000c0 be 4c b1 42 28 1f ea 3f 26 4f b3 a5 e6 2f 07 c0
       0.8163033773984336 -2.898389143499929
0000d0 6e d4 d9 3f ac 5b f3 bf 98 48 88 bd b6 af ca 3f
       -1.2098810667205515 0.2084873605204549
0000e0 c8 26 ca d8 3d 2b e6 bf 42 a4 82 fd 2c 2d ea bf
       -0.6927785143063483 -0.8180146170972267
0000f0 0f 3f 84 25 cf e5 b4 3f 38 4a 90 a5 94 2f fb bf
       0.08163160959179215 -1.699116369946422
000100 b2 7b 93 28 3b a0 f1 bf b4 ef ce 8b 73 ef c0 bf
       -1.1016189179424427 -0.13230747534350729
000110 3e bd 51 fa c9 30 04 c0 43 15 91 d8 82 aa f1 bf
       -2.523822742099269 -1.1041286906850736
000120 32 24 83 2e 66 9e ca bf 10 8a 71 67 df 01 07 c0
       -0.2079589583502482 -2.8759143907093474
000130 c0 ab 6b 70 da 17 f2 bf 70 4a 62 cc 29 a4 cf bf
       -1.1308235541753078 -0.24719736556706406
000140 e8 10 00 57 95 f1 df bf 2b c5 00 92 87 d1 ea bf
       -0.4991200780498404 -0.8380773402806531
000150 d4 4c bc 3e 50 6e da bf 84 a3 8d 66 81 51 fa bf
       -0.41298299910085956 -1.6448987966525417
000160 55 f2 91 4b c3 bd ee bf 0f 58 3a ec 07 30 d5 bf
       -0.9606644130686371 -0.3310565764344355
000170 28 24 93 10 8b f4 fe bf 50 e2 c3 cc ed b3 ec bf
       -1.934702934975812 -0.8969639777488485
000180 f5 fa 2f 0b c4 51 ca bf 3d 6f 87 be f0 25 fc bf
       -0.20562029405842677 -1.759262794736926
000190 22 ef bf 5e d6 82 e9 bf 47 55 7b b9 4f d3 e8 bf
       -0.797221360262004 -0.7757948515597172
0001a0 41 93 e6 1b b0 10 dd bf 7f 72 5a 73 44 b2 eb bf
       -0.4541435501544591 -0.8655111554140403
0001b0 ad 7d 08 ef f5 c9 eb bf 31 81 fa ba 8f f2 f9 bf
       -0.86840340315023 -1.621719103226564
0001c0 a1 df 41 0d bb 95 ee bf 68 30 f4 b2 30 3c e7 bf
       -0.9557776698047641 -0.7260974402611398
0001d0 07 ca c2 16 34 2a fc bf 57 35 53 65 67 1e ea bf
       -1.7603035821053952 -0.8162114123348755
0001e0 f7 ed 73 94 37 e6 e2 bf d6 bb 3e d1 87 48 f9 bf
       -0.5906026744336818 -1.5802076505312832
0001f0 9c 58 8c a2 a5 ab e6 bf 2f a0 23 c0 4e b8 94 bf
       -0.7084530043382702 -0.020234327771419366
000200 6b 3a 06 13 22 a3 9a bf b2 1d ce 88 be 51 93 3f
       -0.02601292840113915 0.018866517162249692
000210 9a 50 99 43 7c ba 84 bf c5 af 9a 94 51 0f a1 bf
       -0.010121317685083665 -0.033319997205893105
000220 0b 09 6b e6 14 65 92 3f a4 1f 71 b7 0c 4b 92 bf
       0.017963720859151027 -0.017864416786579476
000230 af 4c 87 62 9f 65 a1 bf 5f 89 60 73 4d 7f 93 3f
       -0.03397844388714454 0.01904030815797719
000240 15 ae 41 39 a8 03 98 bf d9 95 ee 08 59 94 92 bf
       -0.02345145081964802 -0.018144026918568066
000250 14 ab 25 ea a5 99 9a 3f c2 b4 dc fa 40 55 85 bf
       0.025976746002395038 -0.010416515021996257
000260 58 55 b3 18 74 f6 a0 bf c9 19 b0 f0 e8 29 a1 3f
       -0.03313029099960357 0.03352287233433377
000270 da 09 ac c9 38 0f a7 bf ff b8 98 79 a8 86 a9 bf
       -0.04503800832573619 -0.04985548481305279
000280 57 e1 b9 74 94 de 7c 3f 7e 6f 6c e4 5e 5e a0 bf
       0.007048206239794594 -0.031969991096246084
000290 fc 18 b8 14 0c 62 95 bf 95 b8 9d 31 1a 9f a2 3f
       -0.02088183285197774 0.03637010436692482
0002a0 61 99 50 a2 73 ec 91 bf b4 25 34 f5 0a 16 94 bf
       -0.017503554136191982 -0.01961533662418953
0002b0 b4 11 ef ee 44 86 6a 3f 84 d7 f7 56 31 38 91 bf
       0.0032378527025420326 -0.01681592076598505
0002c0 67 1d 53 bd 22 02 79 bf 1e 14 67 ba 8b 83 9d 3f
       -0.006105552388539471 0.028822119953265106
0002d0 8b 2f a4 d2 22 a5 93 bf 8d 0c 68 17 c2 f0 9b bf
       -0.019184631449249017 -0.027285607031455817
0002e0 ce 05 9c 32 16 6c 93 3f ef 9e 89 78 41 05 69 bf
       0.01896700557609226 -0.0030542639472520487
0002f0 5a 82 6b 59 52 8e 64 bf 8e f5 27 03 54 ba 8a 3f
       -0.002509270513982903 0.013050705286327593
000300 30 6e 7e d3 20 88 6b bf 98 cc 6c da b6 01 9d bf
       -0.0033608094344808256 -0.028326851922611057
000310 95 80 66 38 73 45 a3 3f 18 8e f9 d6 5c 2f a1 bf
       0.037639237055601495 -0.03356447338299179
000320 f7 6a c0 b4 78 8f 9a bf ab dd db ef 89 9c a1 3f
       -0.02593792536945735 0.03439742138828746
000330 f6 59 c2 4a fd 40 7d bf dd 43 91 6b 83 2a 9b bf
       -0.007142056867584836 -0.02652936309852182
000340 85 b7 ba 58 ef 5c 64 3f ba d6 81 64 fe 1a 92 bf
       0.0024857210863364365 -0.0176810978741375
000350 e8 b6 fd d0 db 88 8d bf 4f 58 7f e8 1b 33 92 3f
       -0.014421193423653958 0.01777309042503133
000360 de af 16 d7 59 86 82 bf c7 97 c1 0c 1f d6 90 bf
       -0.00904531657837276 -0.016441807893350615
000370 01 74 e7 a9 9e 3e a4 3f 03 78 49 7e f6 76 8e bf
       0.03954025100731685 -0.014875341156933791
000380 93 65 38 77 cb 7b 9f bf 75 ee 25 5f 32 41 88 3f
       -0.030745677138929017 0.011843102959338861
000390 3d 28 fe 97 64 b2 63 bf 5f 54 04 2c 4e a5 86 bf
       -0.0024044003220682606 -0.011057482450761378
0003a0 2e 58 18 d9 2b 6d 9d 3f ba 48 9d 58 63 88 9d bf
       0.028736767888482166 -0.028840591701119613
0003b0 dd 58 f2 95 54 0a 6d bf fe fa 27 1f 48 cb 97 3f
       -0.0035449649872801707 0.02323639574205582
0003c0 be 36 70 48 04 66 83 bf 0a 56 2a d0 c6 d2 8e bf
       -0.009471925221102292 -0.015050461986258607
0003d0 9b 1f e9 8d 19 ad 92 3f 00 b6 67 28 f0 36 9e bf
       0.018238448416269298 -0.029506447282917847
0003e0 8d 67 ac b7 fa c4 96 bf 83 99 c5 f9 f5 f6 a0 3f
       -0.022235791645563153 0.03313416170094554
0003f0 c7 84 43 03 a0 6c 8c 3f 46 44 4e 50 03 b1 94 3f
       0.013879060840226732 0.020206500793907865
000400 6d 29 28 d5 72 e8 9e 3f 6b 6d 54 40 f5 5c da 3f
       0.030183595905364614 0.4119237068386698
000410 ec 63 71 bf 0f d0 e5 bf 89 74 45 3f 6b e3 b9 bf
       -0.6816481341476197 -0.10112638754567817
000420 4f 6e 97 ee ec 10 e3 3f bb cc 74 74 63 34 f8 bf
       0.5958161029806862 -1.5127901600906586
000430 ca 3f 76 6d ce 3b d4 bf c6 84 8f 66 eb af db 3f
       -0.31615029039039355 0.43261227622685927
000440 60 c1 bf c2 16 b0 ff bf e9 4a 2b ba f8 58 dd bf
       -1.9804904563316867 -0.4585553949411137
000450 73 18 ba d0 a2 d9 87 bf 75 f4 ae a5 87 42 00 c0
       -0.011645576472130359 -2.0324852890030862
000460 3b 68 5d 75 db 55 e3 bf b7 6f 5a be 96 d8 e4 3f
       -0.6042306225092554 0.6514390676343201
000470 90 2c b9 d2 fe 9e ed bf 75 82 5e 09 9e ce e7 bf
       -0.9256586185159836 -0.7439718420974503
000480 6e 29 c2 97 81 a3 eb 3f 4f 95 50 0b b1 cd f9 bf
       0.863709255603039 -1.6127176706298376
000490 59 01 b2 1d cb 9e ef bf 4d a8 f2 4b 7f 97 e9 3f
       -0.9881339626299833 0.7997433169705431
0004a0 46 ba a9 a2 88 6e 01 c0 d4 cf 7f b3 a1 93 f3 bf
       -2.1789715488478434 -1.2235428821268117
0004b0 33 4b ec c5 20 06 e5 3f f6 92 e7 e3 f8 04 05 c0
       0.6569980493244202 -2.6274278454824254
0004c0 bc c7 e0 d0 97 f6 f3 bf c8 67 33 9e 76 29 c6 3f
       -1.247703376703142 0.17314036106728126
0004d0 a3 be 92 da 16 2a e2 bf 53 95 cc 8e 22 1e e9 bf
       -0.567637850666831 -0.7849285878225295
0004e0 f7 44 81 f3 59 72 81 bf ba ef e1 75 2b 67 f7 bf
       -0.00851888918274078 -1.4626879315173782
0004f0 27 3b a9 dc e0 11 f1 bf 6e 7e 91 81 ef 54 c4 bf
       -1.0668648356983768 -0.1588420279176605
000500 7b ed 6c 25 94 78 02 c0 40 60 62 a6 4d 92 f2 bf
       -2.3088763164393504 -1.1607185840021117
000510 e8 de 0d f6 c3 b5 d6 bf bb 72 02 40 3e ef 05 c0
       -0.3548440840599896 -2.7418179512736436
000520 5b 3e 40 5a bc 14 f2 bf 5c 24 36 2e b5 27 d1 bf
       -1.1300624394824783 -0.26804856789437337
000530 64 f2 dc 1c 03 24 db bf 81 b3 c8 4c 36 fb e9 bf
       -0.4240730077615693 -0.8119155406653676
000540 57 1c 3c 7c 66 98 dc bf 7a f2 1e fb 1f 37 f7 bf
       -0.4468017781477491 -1.4509582337770142
000550 c1 88 bb 62 86 b7 ef bf fc 7f 8f 01 14 2e da bf
       -0.9911529472704147 -0.40906238701245434
000560 58 0d f8 4f 55 ab fc bf 5c 2e fc 1c 4f 39 eb bf
       -1.7918294070994616 -0.8507457319369212
000570 60 d0 6b 6e 71 f2 d2 bf 7e 9e 46 b3 a1 46 fb bf
       -0.2960475519496466 -1.7047440531695481
000580 87 04 b5 e2 5c 9e e9 bf 44 03 20 5d ba 47 ea bf
       -0.8005814006684354 -0.8212558573578481
000590 70 51 f8 99 ac 88 d8 bf 3e 94 0a 23 81 7d e9 bf
       -0.3833419326413354 -0.7965703663254613
0005a0 08 f0 34 ee 45 df ec bf c2 e3 15 7e 6b a2 f5 bf
       -0.9022550251461334 -1.3521532941069698
0005b0 f9 46 2e 3f 81 29 ec bf ea a4 97 4e e8 fa e8 bf
       -0.8800665124892638 -0.7806283507353815
0005c0 62 0b 7f 58 cd 04 fa bf ac 31 d4 ce e4 ac ea bf
       -1.6261723954091498 -0.8336051978708858
0005d0 ac a3 19 2b ba d9 e4 bf ce 20 a1 93 9b e3 f8 bf
       -0.651578029804218 -1.55556829135644
0005e0 e7 64 e2 26 73 99 e5 bf aa 36 72 0e 5f df 87 bf
       -0.6749816665134433 -0.011656515720712097
0005f0 de 73 13 19 25 82 88 3f 94 83 f7 d4 3f 10 90 bf
       0.011966981723554978 -0.01568698632570749
000600 35 76 f0 4d 54 97 91 bf a3 4d 61 e0 28 4c 9c 3f
       -0.01717883802131422 0.0276342760992755
000610 57 1d 95 9e 35 91 91 bf f3 f1 0e 0f be 81 96 bf
       -0.01715549259577406 -0.021979303044405495
000620 b3 c7 79 34 8e f4 9c 3f a9 71 a4 43 50 fb 87 bf
       0.028276655152189977 -0.011709811271935449
000630 e5 18 42 25 56 a1 92 bf 8a f0 f4 ab 28 0a a3 3f
       -0.018193574928340523 0.03718688105661368
000640 24 05 9c c4 55 44 91 bf 51 1d 7d 75 ef 5a 72 bf
       -0.016862239956940375 -0.0044812539925439135
000650 46 55 af 02 3c 01 a0 3f 73 6d 36 aa d7 6b 75 bf
       0.03125941784643742 -0.005229799691189074
000660 4d f9 b8 af 04 88 a3 bf 29 55 b1 91 2a 58 98 3f
       -0.03814711232233723 0.023773827688576752
000670 bb 99 2f 60 1a e8 92 bf 21 c5 b8 ff 4a 9f 8c bf
       -0.01846352779457459 -0.013975702218064047
000680 4c cb fa 59 47 84 a3 3f 75 34 e1 4a c1 06 8b 3f
       0.038118581518026134 0.01319647798313837
000690 cb 9b 13 a3 7d af 9d bf 07 42 18 62 bc b3 85 3f
       -0.028989756658940807 0.01059672521935885
0006a0 b6 6e 69 09 19 d9 78 3f 3a 46 cc 67 24 4c 89 bf
       0.006066415595877997 -0.012352260987913078
0006b0 e1 88 ec 17 9f 16 96 3f 36 e8 b3 5d db b4 94 bf
       0.021570669017031533 -0.02022116431633255
0006c0 d5 45 93 e7 d6 13 85 bf 33 6f 9b e7 85 02 a3 3f
       -0.010291747037998992 0.037128624460562774
0006d0 08 eb 69 70 0e dc 88 bf 36 d9 33 ad 4f e4 3a 3f
       -0.012138474279017611 0.00041033692578142393
0006e0 9d b6 42 c0 a1 6f 81 3f ab bf 96 17 83 8b 71 3f
       0.008513702087238168 0.004283439711272689
0006f0 69 64 9d 04 20 bc 85 bf df d8 1d 58 f2 04 97 3f
       -0.010612726345856598 0.02247980749913203
000700 49 64 18 52 b0 f2 88 bf d7 96 d1 2a bf 43 70 3f
       -0.0121816420606128 0.003970858332740432
000710 26 a4 6d c5 2b 1b 89 3f 4c 1d 5f 7f fd 3b 82 bf
       0.012258855783970967 -0.008903484773226687
000720 b7 e5 09 22 4a 70 8c bf 59 62 5c 3d ac 53 8a 3f
       -0.013886050380494603 0.01285490572222263
000730 d8 90 c5 75 78 e0 50 3f a6 4e 0e 37 2b ec 93 bf
       0.0010300804488788031 -0.01945560000929327
000740 30 e6 02 e6 a2 f8 94 3f 17 ac c7 8d 9a bd 77 bf
       0.02047972229840961 -0.0057960545786768436
000750 66 13 8f 83 66 b1 89 bf af bf 50 52 e3 4a 96 3f
       -0.012545395746096321 0.02177004995263559
000760 17 f7 ce 36 a2 72 70 3f 14 12 ae 6c de 9c 7c bf
       0.004015573166666695 -0.006985539289307247
000770 c6 c1 c4 23 2d e3 9c 3f 34 ec ea f6 4a 30 91 bf
       0.028210358913556076 -0.01678578502717816
000780 2b 93 dd b5 07 9a 8d bf 86 28 46 24 83 14 8d 3f
       -0.014453945386500763 0.014199280304428418
000790 9f e2 9e cf f7 d8 88 bf c1 9b 4d d8 ee 05 70 bf
       -0.012132583640651005 -0.003911908138298282
0007a0 98 6d a8 9c 24 ca 67 3f f6 ba d1 4f e1 04 79 bf
       0.002904006488518806 -0.00610816967410587
0007b0 e5 5d a3 4e ba b5 75 bf 48 85 2c 49 11 8c 3c bf
       -0.005300262224600759 -0.0004355947686907791
0007c0 97 61 bf c1 8c 2f 7c bf bd fe 58 69 3b 70 82 bf
       -0.00688128455291128 -0.009003128197149985
0007d0 f3 2d b6 37 6c 94 90 3f 2b 6d 02 b4 61 fb 77 bf
       0.016191187763565606 -0.005854970601059588
0007e0 14 3c 24 80 e2 f0 91 bf ee 5c 71 4a 62 a0 85 3f
       -0.01752046496499922 0.010559814354719834
0007f0 a1 3d 6e fe 54 e8 9e 3f ae ef e7 65 9e b9 de 3f
       0.030183151272976997 0.48007926894910724
