backend/FastApi/sign_language_data/w/w_4.npy (npy, 30368 bytes, 1 tensors)

array f8 [30, 126]
0	0x3f8410a5ff2d4a2d	0.009797379350549107
1	0xbf7a5c603101181f	-0.006435752628084073
2	0x3f62e28ed3275672	0.0023052968547101977
3	0x3fd729cf4e609ec0	0.3619268670467868
4	0xbfe50527516b785d	-0.6568790998678754
5	0xbfb957ff453db710	-0.09899897995429918
6	0x3fe0dd140b63aeef	0.5269870970200524
7	0xbff5505d77689c1f	-1.332120386543245
8	0xbfd250753bf35198	-0.28616076330697515
9	0x3fd5a90294709585	0.3384405564887277
10	0xbffda54899e0f723	-1.852852440918874
11	0xbfd998978c52c815	-0.3999384756417624
12	0xbf82cae2df6a5864	-0.00917603725728728
13	0xbfff16f0abe0df2e	-1.9431006158828938
14	0xbfe260f3b7ca3ec6	-0.5743349637650332
15	0x3fe4ad52d0544b34	0.6461576527529815
16	0xbfec9d77f53c5730	-0.8942222394714232
17	0xbfe805aa06f63d94	-0.7506914268469012
18	0x3febfbcb07b506ce	0.874486460736273
19	0xbff8d2e4ffc58c9a	-1.5514879218178863
20	0xbff13f4c639367ff	-1.0779537095718295
21	0x3fe9a84c99b56d6a	0.8017943384287893
22	0xc00118ae6b67e695	-2.137051428898142
23	0xbff33649b38797aa	-1.2007538807751907
24	0x3fe58618e1d79b5e	0.6726192866307021
25	0xc00422c3cb66f49d	-2.5169750109476596
26	0xbff53426fb87d649	-1.3252324891485776
27	0x3fc9d91d1231a0d6	0.20193827999469843
28	0xbfe426a8a49ebabb	-0.6297190871462911
29	0xbfea2d2157f4bfa3	-0.818009063519629
30	0x3fbbcb124cfa4cdd	0.10856737498606912
31	0xbff76a06266c6b8d	-1.4633847714346502
32	0xbff12778ba39fc0a	-1.0721366190407502
33	0xbfc7a4d57a8ddad9	-0.18471783145988388
34	0xc0021dc7524d8a2e	-2.264540331832243
35	0xbff28a960a77519b	-1.1588344963866806
36	0xbfd55b9aeadd2f1f	-0.33371613441407705
37	0xc0050fa1f858cceb	-2.6326331522083044
38	0xbff397b5c97fcdeb	-1.2245386000694178
39	0xbfcf7380d9e61c09	-0.2457123817405036
40	0xbfde368705f0016d	-0.47207809047542676
41	0xbfe9c72b60d8c568	-0.8055626765764545
42	0xbfd9a39ded015d38	-0.4006113829140818
43	0xbff78b01528d487b	-1.471436808079061
44	0xbff001ee44e3047c	-1.0004713717355846
45	0xbfd5cd8d6a629623	-0.3406709231297517
46	0xbffb3c6bf24b2d0e	-1.7022513832660624
47	0xbfed067e9e65a655	-0.9070427983944663
48	0xbfd0637271fda916	-0.25606976634903
49	0xbff80c3e5a2651b9	-1.5029891511413622
50	0xbfe9d5ca6f075493	-0.807347504475404
51	0xbfe84dc8face1443	-0.7594952486548511
52	0xbfd9aec4c01c80e4	-0.4012920261466333
53	0xbfeafd6e4fb3a771	-0.8434363896060245
54	0xbfeb0fdbaf4b2924	-0.8456858085349137
55	0xbff5db356c467210	-1.3660177449702395
56	0xbfefcaf28850d2ff	-0.9935238516250989
57	0xbfe7cb1abdcf5f93	-0.7435430247523861
58	0xbff774759b79efa5	-1.4659324715894197
59	0xbfec5d87821264c5	-0.8864171543565581
60	0xbfe1dc418fb7729e	-0.5581367308582974
61	0xbff4f46aa25aa821	-1.3096720067937968
62	0xbfe8a457e80e9c78	-0.7700614483227488
63	0x0000000000000000	0.0
64	0x0000000000000000	0.0
65	0x0000000000000000	0.0
66	0x0000000000000000	0.0
67	0x0000000000000000	0.0
68	0x0000000000000000	0.0
69	0x0000000000000000	0.0
70	0x0000000000000000	0.0
71	0x0000000000000000	0.0
72	0x0000000000000000	0.0
73	0x0000000000000000	0.0
74	0x0000000000000000	0.0
75	0x0000000000000000	0.0
76	0x0000000000000000	0.0
77	0x0000000000000000	0.0
78	0x0000000000000000	0.0
79	0x0000000000000000	0.0
80	0x0000000000000000	0.0
81	0x0000000000000000	0.0
82	0x0000000000000000	0.0
83	0x0000000000000000	0.0
84	0x0000000000000000	0.0
85	0x0000000000000000	0.0
86	0x0000000000000000	0.0
87	0x0000000000000000	0.0
88	0x0000000000000000	0.0
89	0x0000000000000000	0.0
90	0x0000000000000000	0.0
91	0x0000000000000000	0.0
92	0x0000000000000000	0.0
93	0x0000000000000000	0.0
94	0x0000000000000000	0.0
95	0x0000000000000000	0.0
96	0x0000000000000000	0.0
97	0x0000000000000000	0.0
98	0x0000000000000000	0.0
99	0x0000000000000000	0.0
100	0x0000000000000000	0.0
101	0x0000000000000000	0.0
102	0x0000000000000000	0.0
103	0x0000000000000000	0.0
104	0x0000000000000000	0.0
105	0x0000000000000000	0.0
106	0x0000000000000000	0.0
107	0x0000000000000000	0.0
108	0x0000000000000000	0.0
109	0x0000000000000000	0.0
110	0x0000000000000000	0.0
111	0x0000000000000000	0.0
112	0x0000000000000000	0.0
113	0x0000000000000000	0.0
114	0x0000000000000000	0.0
115	0x0000000000000000	0.0
116	0x0000000000000000	0.0
117	0x0000000000000000	0.0
118	0x0000000000000000	0.0
119	0x0000000000000000	0.0
120	0x0000000000000000	0.0
121	0x0000000000000000	0.0
122	0x0000000000000000	0.0
123	0x0000000000000000	0.0
124	0x0000000000000000	0.0
125	0x0000000000000000	0.0
126	0x3f7c6f534c96fba0	0.006942105662743808
127	0x3f9a5e893426afa5	0.025751251037646878
128	0x3f64a83c6b04662c	0.0025216274299395738
129	0x3fd8211087484d1e	0.3770181008450936
130	0xbfe395fcaac8305b	-0.6120589576326084
131	0xbfba33d5bbe8fa74	-0.10235343778274758
132	0x3fdf9968109de527	0.4937381899140569
133	0xbff4b1f9f1bb48b7	-1.2934512560500886
134	0xbfd01cc32908c753	-0.25175551421408676
135	0x3fd5b9a565308a2e	0.33945593721196843
136	0xbffc83d7812a6380	-1.7821879430323122
137	0xbfd99c511ffce790	-0.4001658260709684
138	0xbfadf8ed88d9079e	-0.05853979392533336
139	0xbfff8c413a7b2242	-1.9717418941892366
140	0xbfe3408424d8b641	-0.601625511136895
141	0x3fe405bd72914290	0.6257006871838531
142	0xbfed28f947e9ef24	-0.9112516789022931
143	0xbfe7de4952dd9be9	-0.7458845728368689
144	0x3febb4094bc9db05	0.8657270889515024
145	0xbff83ebc631bad64	-1.5153163787279817
146	0xbff1558d645f05bb	-1.0833867951154008
147	0x3fe90385a54609ed	0.7816799381255898
148	0xc000d5a513874db5	-2.104318764273297
149	0xbff4089da51cb513	-1.2521034669583215
150	0x3fe4c1047c387cc3	0.6485617090401309
151	0xc003ec7a8c54adf2	-2.4904681170789837
152	0xbff67052649305e8	-1.4024223259624424
153	0x3fce4f0cb0550ba3	0.23678740129443296
154	0xbfe32875046da68b	-0.5986886106959032
155	0xbfea677308fa1eeb	-0.8251280951817227
156	0x3fb18f6b1389b9fc	0.06859463908197222
157	0xbff6e3c35c5eeb86	-1.4306062324746747
158	0xbff2133949ab0f01	-1.1296933057464573
159	0xbfc2e9d6221c6fd3	-0.1477611223752989
160	0xc001df17f3f20f4c	-2.2339324053045058
161	0xbff26e9ad800ce08	-1.1520031392691426
162	0xbfd58fd7c83ce546	-0.33690447382430866
163	0xc004a672533c1d91	-2.5812727453919213
164	0xbff3092f3c24d5a5	-1.1897423123713022
165	0xbfd0dd8505c3565e	-0.2635204845695166
166	0xbfdb0e0fb4556c52	-0.4227332364150175
167	0xbfeb38e456e9745a	-0.8506948182581582
168	0xbfdc819b4ddbd828	-0.4454105625476381
169	0xbff838c51a152c10	-1.5138598460059747
170	0xbff09546ee076209	-1.0364445970536755
171	0xbfd490101a81a8ca	-0.32129290188335047
172	0xbff9d9c8aae2143a	-1.6156698870775146
173	0xbfebc334a39b6657	-0.867578811211568
174	0xbfd0b664f2c471c7	-0.26113246639013393
175	0xbff64af2134a0deb	-1.3932972672927189
176	0xbfe9bd78865bfeb8	-0.8043787597852861
177	0xbfe62d05db4a596f	-0.6929959567085414
178	0xbfd9460ea454089e	-0.39490095184022234
179	0xbfeb9749647b9676	-0.8622176134637829
180	0xbfebd669dc71cd11	-0.8699235253865557
181	0xbff501ffb62670a0	-1.3129880061378927
182	0xbfeee85cedf83703	-0.9658646247714561
183	0xbfe81c6ddd41200c	-0.7534703561186702
184	0xbff76c2bdef1da34	-1.4639090260294667
185	0xbfebbdb752e827d0	-0.8669087046885071
186	0xbfe17d3e835a65c9	-0.5465385976305522
187	0xbff43d4f0a8e2a9f	-1.2649679577176938
188	0xbfe9fbb6f956fa16	-0.8119768972317754
189	0x0000000000000000	0.0
190	0x0000000000000000	0.0
191	0x0000000000000000	0.0
192	0x0000000000000000	0.0
193	0x0000000000000000	0.0
194	0x0000000000000000	0.0
195	0x0000000000000000	0.0
196	0x0000000000000000	0.0
197	0x0000000000000000	0.0
198	0x0000000000000000	0.0
199	0x0000000000000000	0.0
200	0x0000000000000000	0.0
201	0x0000000000000000	0.0
202	0x0000000000000000	0.0
203	0x0000000000000000	0.0
204	0x0000000000000000	0.0
205	0x0000000000000000	0.0
206	0x0000000000000000	0.0
207	0x0000000000000000	0.0
208	0x0000000000000000	0.0
209	0x0000000000000000	0.0
210	0x0000000000000000	0.0
211	0x0000000000000000	0.0
212	0x0000000000000000	0.0
213	0x0000000000000000	0.0
214	0x0000000000000000	0.0
215	0x0000000000000000	0.0
216	0x0000000000000000	0.0
217	0x0000000000000000	0.0
218	0x0000000000000000	0.0
219	0x0000000000000000	0.0
220	0x0000000000000000	0.0
221	0x0000000000000000	0.0
222	0x0000000000000000	0.0
223	0x0000000000000000	0.0
224	0x0000000000000000	0.0
225	0x0000000000000000	0.0
226	0x0000000000000000	0.0
227	0x0000000000000000	0.0
228	0x0000000000000000	0.0
229	0x0000000000000000	0.0
230	0x0000000000000000	0.0
231	0x0000000000000000	0.0
232	0x0000000000000000	0.0
233	0x0000000000000000	0.0
234	0x0000000000000000	0.0
235	0x0000000000000000	0.0
236	0x0000000000000000	0.0
237	0x0000000000000000	0.0
238	0x0000000000000000	0.0
239	0x0000000000000000	0.0
240	0x0000000000000000	0.0
241	0x0000000000000000	0.0
242	0x0000000000000000	0.0
243	0x0000000000000000	0.0
244	0x0000000000000000	0.0
245	0x0000000000000000	0.0
246	0x0000000000000000	0.0
247	0x0000000000000000	0.0
248	0x0000000000000000	0.0
249	0x0000000000000000	0.0
250	0x0000000000000000	0.0
251	0x0000000000000000	0.0
252	0xbf8abfa16818a7c7	-0.013060818661944652
253	0xbf1736c52e35e156	-8.855417723008704e-05
254	0xbf85d36b13737d9f	-0.01065715458974986
255	0x3fd697df79e7165a	0.3530195894676119
