backend/FastApi/sign_language_data/w/w_6_aug0_mirrored.npy (npy, 30368 bytes, 1 tensors)

array f8 [30, 126]
000000 e3 77 37 6b 50 1d 8b 3f 1e 15 08 18 51 2c a6 3f
       0.013239506027215192 0.04330686014513162
000010 8e 85 e1 1f a6 c1 8d 3f c4 56 f2 d1 3b ec d2 bf
       0.014529512260369495 -0.29566855909920897
000020 d0 ef a6 fa bf dd e2 bf d0 99 21 08 0c 98 94 bf
       -0.589569081835629 -0.020111263271610558
000030 77 fa 4b aa e4 fe d6 bf 32 ef 88 cc ae e6 f4 bf
       -0.35930744772478057 -1.3063190450329327
000040 1e 0a ed 62 31 ca c6 bf 04 d3 e2 1e 2f 1f c3 bf
       -0.17804543810241652 -0.14938916214091347
000050 f1 df 42 55 37 45 fb bf 60 d7 16 f8 85 90 d2 bf
       -1.7043984728352337 -0.2900710032221152
000060 6c 6b ce e3 12 2d c5 3f fa 9a 33 90 45 81 fe bf
       0.16543804286342423 -1.906560481345592
000070 70 da 44 56 21 97 dc bf e8 be a2 36 87 23 df bf
       -0.4467242567510885 -0.48654346786041325
000080 c3 23 0f f4 a3 c1 f0 bf 16 d2 9f 29 52 db e4 bf
       -1.0472754987297186 -0.651772576615772
000090 c0 f8 28 6d 48 c9 e5 bf 12 d2 6f 89 b2 d3 fa bf
       -0.6808206684143201 -1.676683937895295
0000a0 a8 e5 a3 5c 3a a0 eb bf 9d 04 e9 c8 a8 34 e5 bf
       -0.8633090791110378 -0.6626781391170372
0000b0 e4 88 ec 0c 5e e7 01 c0 fc 7b 5a c5 fb 45 ee bf
       -2.237972355812518 -0.9460429052886634
0000c0 a1 bd 5e 26 dc f6 e1 bf 31 b8 37 ea b7 5d 05 c0
       -0.56138427251965 -2.670760946107315
0000d0 45 b9 02 f3 9f b1 ee bf 27 e5 b6 a9 cc e1 c3 bf
       -0.9591827150632432 -0.1553283528026352
0000e0 b5 ef dd 47 e0 e8 e5 bf db 3a d5 44 28 76 e4 bf
       -0.6846772578860426 -0.63942349857265
0000f0 f9 8d 6f 51 73 42 a5 3f b9 27 73 24 20 0e f8 bf
       0.0415226017865073 -1.503448622114304
000100 9b 36 ac fd d9 96 ec bf d4 d2 a3 4c 87 33 d1 3f
       -0.8934144930405695 0.268770050853431
000110 f6 81 09 df 66 d6 01 c0 0f a9 0a 8d a4 48 ec bf
       -2.2296883988167293 -0.8838675265044759
000120 b7 06 b3 8a b7 b4 db 3f df 3d 27 52 87 5f 04 c0
       0.4329050878987845 -2.546644822905122
000130 76 aa 78 ab 87 c2 ed bf ed 46 b2 55 8c 08 d3 3f
       -0.9299963330316376 0.2973967396620612
000140 da c8 8c 6d 60 29 df bf b8 63 48 b7 7d 68 e5 bf
       -0.4869004316161757 -0.6690052585355408
000150 7d 57 10 1f 4f cd df 3f ec 35 56 2b bb 7c f6 bf
       0.4969060710294498 -1.4054519360391806
000160 27 b3 f7 48 05 e6 eb bf 8d 00 3e a7 ab 3c df 3f
       -0.8718286919734951 0.48807803470845884
000170 54 39 17 d2 db 0c fb bf 10 2e 38 2e 49 44 e9 bf
       -1.6906393248242084 -0.7895856764529885
000180 1b 2a 41 0e 9f 8a dc 3f cb 18 7f 07 42 63 fa bf
       0.44596077339216017 -1.6492328923064175
000190 e6 93 20 b2 1c cd e6 bf 79 b7 6d 2f 1b e2 e6 3f
       -0.7125380972908004 0.7151008535708875
0001a0 1b 6f cf e9 c5 0d dc bf d8 37 19 01 bb 88 e6 bf
       -0.4383406432441334 -0.7041907330947152
0001b0 8b e4 2a 2e 59 a1 ee 3f 3c 02 30 0f e9 ba f4 bf
       0.9571958448133427 -1.295632418943696
0001c0 a5 20 60 bd 12 d7 e9 bf 8c 08 85 c1 25 e3 eb 3f
       -0.8075040529957006 0.8714779643708126
0001d0 d2 27 0e f7 7b 10 fa bf 9f cd a4 8f a6 32 e9 bf
       -1.629024472293612 -0.7874329381506192
0001e0 e5 e5 57 a4 87 50 e6 3f 07 65 2c 09 70 2f f7 bf
       0.6973303041297042 -1.4490814550720772
0001f0 ca e4 52 97 2a 10 e6 bf ae b9 fc 33 05 d9 1c bf
       -0.6894734340231932 -0.00011004537827539212
000200 cd 2e e8 b0 b6 55 a3 3f a2 28 2b 42 82 f3 98 3f
       0.03776331815251197 0.024366412438020853
000210 ea 75 62 1d 81 24 84 bf 68 70 01 83 ee de 86 3f
       -0.009835251530883011 0.011167395947431838
000220 38 b3 d5 29 ab 06 92 3f 87 0a 41 f2 86 65 58 3f
       0.017603563717261766 0.0014890497050294175
000230 12 25 d0 49 58 ed 9c 3f 4b 89 a5 23 5d 29 84 3f
       0.02824914885062408 0.009844520235394191
000240 aa 83 42 8a 83 94 68 3f f7 bd a6 6a 4b a5 a1 3f
       0.003000504411901213 0.034464222687684946
000250 e5 ca cb f6 91 08 90 3f ff ca e2 19 60 92 78 bf
       0.015657692611919755 -0.005998969454753532
000260 bf a2 95 3b 0c 41 a9 3f 93 11 47 64 d7 74 96 3f
       0.04932440020895034 0.02193008946939441
000270 39 49 6d 57 0f 5e 66 3f 43 d5 4b 86 a2 f3 96 3f
       0.0027303981436627403 0.02241376824072928
000280 ad f1 dc f7 27 b2 84 3f b5 09 b3 e4 af a5 70 bf
       0.010105430843048458 -0.0040642615160230615
000290 72 69 70 8a 72 75 8f 3f b7 e0 23 90 f8 38 94 3f
       0.015360731935335468 0.01974857692491191
0002a0 2b 82 e3 1c cf 14 5f bf dd c9 e4 a0 7d a0 92 3f
       -0.001897051104201473 0.018190348572895466
0002b0 e1 40 e4 ea 6b ae 87 3f a5 48 38 fe 25 da 88 3f
       0.011563151460478984 0.01213483507220687
0002c0 da 8d 25 c4 ff 99 8c 3f 90 7b a7 b8 be 9a 92 bf
       0.013965604947492705 -0.01816843034782384
0002d0 c2 16 55 0f d4 37 53 bf 77 52 24 99 c0 1e 99 3f
       -0.0011729784867652725 0.024531373354948784
0002e0 1e df 9a 77 a3 10 4b bf 5b 5e 06 76 08 cb 7b bf
       -0.0008259580783578112 -0.006785424281040865
0002f0 1d 55 75 73 c7 15 90 3f f0 1c 5e 54 ab 2c 71 3f
       0.01570808069421502 0.004192990547273498
000300 d0 37 33 9b 7c 13 9a 3f fb 41 3c 56 e1 a8 83 3f
       0.025464961025867983 0.009599457210726739
000310 3e 49 5b ae 65 c8 79 bf b8 48 f5 8d 75 98 90 3f
       -0.0062946292798236585 0.016206585683286007
000320 82 29 8a 84 14 d5 9a 3f 02 fd 7a 2b 73 8c 76 3f
       0.026203461255627676 0.005505037195404629
000330 de 4c 32 ef 4d 8c 63 3f 29 7b 63 8a 4c d8 9d 3f
       0.0023862383037084175 0.02914542765290232
000340 9f bf 0a fb c8 1c 8c 3f c2 2d 51 35 e1 47 85 3f
       0.013726778184121545 0.010391005935295964
000350 13 4c 42 b1 ae 1a 99 3f 55 78 33 7b 41 3c 9c bf
       0.02451584774878419 -0.027573607582660326
000360 1e b3 0c 6d 78 0d 84 3f 93 f4 60 23 df 48 9c 3f
       0.0097913177756595 0.02762173322138446
000370 60 15 2b 29 81 3b 9b 3f 83 11 2d 86 f5 f6 91 bf
       0.02659417928477603 -0.017543636621910174
000380 a7 d6 a1 a2 4c da 9d 3f 65 dc 1c 70 9a ad 80 3f
       0.02915305845859586 0.008143621965798606
000390 dc 70 16 bf c8 08 8a bf 65 d6 5c a8 1c a9 97 3f
       -0.012712066966564732 0.023106048370399885
0003a0 22 b2 d4 13 7b 21 7c 3f 66 b0 df 9f 67 f5 6f 3f
       0.006867867251724865 0.0039011978069450224
0003b0 11 ea 0f 92 ed 8f 9c 3f 7f e5 0f 6c 3e 5f 8a 3f
       0.027892791786124308 0.012876975701135105
0003c0 b5 02 3e f5 93 dc 94 bf d9 e9 26 93 3a 90 9f 3f
       -0.02037268814410949 0.030823626738973296
0003d0 5f 13 7e ed f1 e6 88 3f ca 23 89 ff e0 d7 66 bf
       0.012159242687411696 -0.002788485955794039
0003e0 ea a9 0a 37 1e 95 91 3f 1b e2 a6 24 b5 70 75 bf
       0.01717040263125994 -0.005234439459336683
0003f0 10 9a 79 07 3c 69 a5 bf d0 f5 3f ef 6f e3 89 bf
       -0.041818500435329864 -0.012640833367181609
000400 c5 99 65 50 13 8f 93 bf 72 11 ad ed 20 a1 d8 bf
       -0.019100477010761247 -0.3848345109038497
000410 1d 78 17 40 aa 94 e8 bf 50 3f aa a0 36 60 ac bf
       -0.7681475879469449 -0.05542154990427994
000420 13 9b 74 d8 77 60 da bf 53 90 0a 31 c2 bb f7 bf
       -0.4121379484007985 -1.4833394923853305
000430 86 39 46 3f 88 d6 d0 bf ca 19 4a 6d 5c f3 c2 bf
       -0.263094007293056 -0.14805178963088245
000440 da 3d f7 c6 5d 0d ff bf aa a2 74 ee e7 28 d6 bf
       -1.9407632610417438 -0.34624670302086236
000450 93 29 5a 27 82 6d c9 3f 4e 4d 0a bc 76 c7 01 c0
       0.19865443154806126 -2.222394436897651
000460 63 31 b4 bb f4 1b e1 bf 4e 36 80 0e e3 14 e1 bf
       -0.5346625963298205 -0.5337996752948102
000470 c3 2a 23 ca c1 56 f2 bf fd 00 be 8e 98 c7 e6 bf
       -1.1461809059134545 -0.7118647373136181
000480 ce 15 51 13 ec 8d e8 bf ef 94 3f fe 25 31 fd bf
       -0.7673244836120661 -1.8244991237236794
000490 c4 da e8 81 9a 0f ee bf ea 71 7b c1 4b 34 e6 bf
       -0.9394047295853274 -0.6938837794255595
0004a0 d1 90 d6 53 8f 61 03 c0 b5 42 e2 98 5c b9 f0 bf
       -2.422636656747365 -1.0452543231987594
0004b0 bf 7c c6 bc af 76 e3 bf e9 8f 14 b9 4d bc 06 c0
       -0.6082380949991587 -2.8419451198005743
0004c0 dc a1 c2 d5 47 38 f1 bf 62 bd 56 c0 e8 ee c3 bf
       -1.0762403821955706 -0.15572842971367168
0004d0 0a a0 7a 4f f8 69 e9 bf f0 8b 3b d2 68 84 e8 bf
       -0.7941857864689166 -0.7661632639031932
0004e0 f7 28 45 bf a6 ae 94 3f e0 90 01 9d e9 76 fa bf
       0.02019749205036533 -1.6540313847590866
0004f0 84 20 0c 1b d0 a6 f0 bf 63 8a 6a 05 35 69 d1 3f
       -1.0407258087671218 0.2720463326351476
000500 52 f9 22 0e f0 a2 03 c0 79 0e 92 5c 0f 7c f0 bf
       -2.454559431497878 -1.0302880874668559
000510 57 8f ee 84 4f 51 dc 3f af 13 25 a2 7a 78 06 c0
       0.4424628065264548 -2.8088276546063393
000520 a5 b5 57 a0 5e 3d f1 bf f0 7f 4e 0d b1 be d4 3f
       -1.0774828208335319 0.3241388921687749
000530 8c 1e ba e3 9a c4 e3 bf 38 40 43 fb c1 44 ea bf
       -0.6177496383470085 -0.82089327883478
000540 9c ef a7 29 bb 1c e2 3f 41 ec cd f6 c1 72 f9 bf
       0.5660072148889301 -1.590517009811052
000550 1f ac d2 0d d8 78 ef bf 53 dd bf 23 7e a6 dd 3f
       -0.9835014600734019 0.46328690997275607
000560 f8 05 e2 be 6b 6a ff bf b1 ba 81 49 de 71 ec bf
       -1.9634816604960843 -0.8888999400786216
000570 27 d3 5b 14 13 de dc 3f fa 79 ad a7 e9 d6 fd bf
       0.45105435360101115 -1.8649689245136174
000580 2f ed ec 11 ea 01 ea bf 81 5c 6f eb fe 5b e8 3f
       -0.8127336835963542 0.7612299536075541
000590 a8 99 dc 7d 76 7c df bf 98 89 56 8a 2a e5 e8 bf
       -0.49197160998519474 -0.7779743863978181
0005a0 65 9d 9b 13 c8 66 f0 3f d3 71 3a a4 1d 1b f8 bf
       1.0250931516582906 -1.506620065228266
0005b0 71 5b f1 04 c0 45 ed bf 6d 89 56 5b dc ab eb 3f
       -0.9147644135035603 0.8647290977426515
0005c0 2b 3a 4b c6 5b 1f fc bf 44 cb 2b 62 f2 d5 ea bf
       -1.7576558824399722 -0.8386165540126531
0005d0 64 80 73 3b d6 93 e7 3f e8 50 ef 31 ef 4c fa bf
       0.7367964898258035 -1.6437828016833524
0005e0 fb f0 07 fa 57 fb e7 bf 87 a2 65 d3 e4 22 8c 3f
       -0.7494315989893318 0.013738429738354497
0005f0 67 e9 34 22 86 9c 80 bf ab e9 3e 6c 7e 66 96 bf
       -0.00811104576006434 -0.02187535796813626
000600 f9 b7 bf c4 71 24 8e 3f 8d 50 20 6e 0f 16 30 3f
       0.014717949692535358 0.0002454555198039353
000610 c2 a2 d5 cd cc fc 8b bf 43 a5 c2 30 3e c2 71 3f
       -0.013665771514483342 0.004335635119937567
000620 7f 59 8d 0b cb 7f 7b bf 2c f8 15 f6 0b c9 80 bf
       -0.006713669915220043 -0.008195966193621805
000630 8b 88 5f d9 d8 73 92 3f f0 22 cd 20 27 9f 83 bf
       0.018020046489148938 -0.00958090370990436
000640 5e 2c 0f 55 e0 d2 81 bf 8c c4 c0 b7 37 c8 7a 3f
       -0.00870299586849493 0.006538598678205731
000650 39 a1 31 3f 30 4f 87 bf 8f d1 41 36 b6 b0 9d bf
       -0.011381508759044411 -0.028994414388266384
000660 48 6f e2 47 2c 54 84 3f e8 91 ac 1d ad 71 86 3f
       0.009926172202817121 0.010959007709581095
000670 ee 13 6f 35 27 83 7e bf 1d 9e 8e 8e e6 38 55 3f
       -0.007449296149336411 0.001295304444491558
000680 b7 9a 6e f5 46 5d 7c bf 9a 27 2d af 13 ab 75 bf
       -0.006924893553253034 -0.005290104762773052
000690 24 7d d7 f1 2c d6 4b bf 45 de 36 7c 23 93 38 bf
       -0.0008495063263430952 -0.0003749810823267845
0006a0 4a 8b 14 3e c6 c0 95 bf b3 c3 4c d8 3e c4 78 3f
       -0.021243188418462546 0.006046529281591373
0006b0 ee 7c fd df bc bb 8b bf 67 7b 2a 8c e8 03 96 bf
       -0.013541675172460601 -0.021499284319925673
0006c0 06 c4 48 68 19 d1 71 3f 2b 8a 41 35 ec 29 74 3f
       0.004349803206921804 0.004922793090460102
0006d0 19 e5 9d 68 c5 88 80 bf 4c d3 c4 9b 73 d3 51 3f
       -0.008073370223189035 0.0010880116452202824
0006e0 ac 2f 92 31 d6 d0 7b 3f 5b 48 71 4e 21 01 9c bf
       0.0067909590662899415 -0.027348061001540063
0006f0 ad 4e d7 59 0e e1 69 3f c6 6d 8c c6 41 03 83 3f
       0.0031590729038074223 0.009283555862160574
000700 fd 68 19 3d 47 a8 77 3f 2f 0b 1b ab 9a 59 93 3f
       0.005775717044878667 0.018896500295123516
000710 e5 be 2a 1b a0 3b 8f bf ba 23 85 f6 33 2e 7c bf
       -0.015250445202894489 -0.006880000095699163
000720 70 0b c5 0c 43 5c 77 bf db 5d 11 29 be 69 a3 bf
       -0.005703222192383048 -0.03791612864796053
000730 38 1c 9c de 0f 6f 93 bf 5e 45 cb d8 c7 58 62 bf
       -0.018978355371498362 -0.002239599538690725
000740 cc a1 6a bd 28 74 89 3f f6 bc c3 be 30 c4 70 bf
       0.01242858722737674 -0.004093351755940269
000750 b0 33 a3 3d 22 c0 45 3f 4b 17 1e 54 1a d1 90 3f
       0.0006637732688204914 0.01642266405499208
000760 e4 fb 4d 4a 20 53 94 bf 23 66 cf 82 41 7f 85 3f
       -0.019848351035303483 0.01049662762118248
000770 04 a2 e9 3a 27 ec 8a bf f8 7c 62 fb 3e 68 88 bf
       -0.013145739064570179 -0.011917583510067761
000780 5c 40 b2 ba 37 94 85 3f 61 2d ce bd 75 25 83 bf
       0.010536609063166384 -0.0093487928914075
000790 c4 8c 98 06 d2 64 7d bf 87 f0 fc ee 9b 87 7a 3f
       -0.007176227963586249 0.006476983180444879
0007a0 01 3b 39 67 89 6d 40 3f 28 0a 2d fe d2 b4 69 3f
       0.0005013390459199519 0.0031379815058312395
0007b0 22 4c dd 86 d2 81 91 3f c6 80 65 42 91 7c 65 3f
       0.017096795541260097 0.002622874936761918
0007c0 67 88 77 e1 ee 47 81 bf 6e c6 2e 7a 42 ae 90 bf
       -0.008437982803062917 -0.016289747912827605
0007d0 5a 7f 59 b7 54 cc 69 bf e2 e8 49 52 c3 b2 8e bf
       -0.0031491903890098873 -0.014989400814773682
0007e0 cf 70 05 32 97 5e a9 bf 77 6d a3 8d 16 0c 8d 3f
       -0.04954979405985826 0.014183212468586543
0007f0 d2 14 5a 48 41 8e a4 3f 1d 0d 56 bc 94 aa d7 bf
       0.04014781959726012 -0.3697864379139036
