backend/FastApi/sign_language_data/w/w_8_aug1.npy (npy, 30368 bytes, 1 tensors)

array f8 [30, 126]
000000 4d 44 71 48 cf 2f a1 bf de 6e 0e 98 2b 6e 45 3f
       -0.03356788405711395 0.0006540024624998827
000010 ea 22 06 f1 09 e1 90 3f b5 4d cc 3c 70 44 da 3f
       0.016483455024657902 0.4104271501284658
000020 f7 80 bc a9 3d 96 e4 bf 53 e4 38 15 6e 25 b9 bf
       -0.643339950100226 -0.09822738664742418
000030 42 3e fc 31 48 8c e2 3f 3e a8 8e 60 da 5e f4 bf
       0.5796242691303137 -1.2731574794547806
000040 60 61 08 64 0e 24 cb bf af 1c c4 79 74 29 d5 3f
       -0.21203784832392625 0.3306552113649088
000050 64 0e 03 52 f0 85 fb bf 99 de b3 95 7e 55 d3 bf
       -1.7201998904792157 -0.3020931684436419
000060 0b 62 6e db d2 5d 8e 3f 4f 9f d4 62 56 21 00 c0
       0.014827391931064879 -2.0162780495774437
000070 ac ff 71 77 bf de dd bf 09 5d e0 17 d1 8e e2 3f
       -0.4667204538782197 0.5799336878143616
000080 37 1b 23 6d f2 83 ef bf ea d7 86 e2 92 74 e5 bf
       -0.9848568088135384 -0.6704801964140163
000090 cf 5f 42 8b 29 1a ec 3f f5 1a b8 48 7f 32 f8 bf
       0.8781936378390983 -1.5123284187881698
0000a0 fc d1 fe 2f 7e 48 ed bf b4 2d a3 43 4c fa ec 3f
       -0.915099233380317 0.9055539437335285
0000b0 73 b5 48 4f f4 bd 00 c0 bc f2 ae b9 8e 52 f0 bf
       -2.0927511400283776 -1.020155644727466
0000c0 74 9d e2 67 e8 6e ea 3f c9 16 d0 b2 6b 8d 04 c0
       0.826038554096995 -2.5690530748132443
0000d0 0c 5c 91 5a 27 09 f1 bf 47 13 d0 e7 77 ef c5 3f
       -1.0647347963147267 0.17137049502357568
0000e0 e8 57 71 d1 3a 71 e7 bf 38 d0 f8 73 51 28 e7 bf
       -0.7325719919851936 -0.723671652324362
0000f0 dd ff 6b 89 29 97 c3 3f 3c 7b b7 0c 2f c1 f7 bf
       0.15305060586979283 -1.4846640106913602
000100 b6 95 b9 4f 68 e6 ec bf dc c7 79 db f9 80 a1 3f
       -0.9031259114387271 0.03418713382860947
000110 db 6a 26 b1 4c c7 01 c0 1a fe 44 10 58 c4 ed bf
       -2.222314247116953 -0.9302177732242314
000120 43 05 c8 79 99 d9 bb bf e6 f2 30 55 3e 0d 05 c0
       -0.10878905509163865 -2.6314665465891833
000130 19 97 00 d3 b4 85 ef bf 87 86 2c 3c 1d 06 cd bf
       -0.9850715752733975 -0.22674909055881562
000140 06 ab 58 b5 18 8a e4 bf 7b 3d 25 3e 0d c9 e5 bf
       -0.6418574850007139 -0.6807924474505137
000150 97 78 4a d0 47 ec d0 bf f9 f6 80 fe 05 2e f8 bf
       -0.26442141858013585 -1.5112361852220018
000160 36 87 7f 25 dd fe ea bf f0 de 1d 1a e5 cc d0 bf
       -0.843611310232723 -0.2625057940526707
000170 06 40 da 69 58 4f fd bf b6 06 68 77 eb 20 e8 bf
       -1.831871427046282 -0.7540185291438408
000180 24 87 19 f0 89 6f c1 bf 5f 19 60 91 b1 92 fb bf
       -0.13621639464968738 -1.7233138731695232
000190 51 17 01 28 d1 d8 e4 bf be 05 50 a3 e8 dc e5 bf
       -0.6514669209798091 -0.6832163991641023
0001a0 ce c3 f2 f2 8b d8 e1 bf f6 78 43 da 0c 2d e6 bf
       -0.5576839203914632 -0.692999292655968
0001b0 6e f2 f0 e5 60 5a e8 bf 47 d9 7c 28 79 04 f7 bf
       -0.7610325327910468 -1.4385921079206854
0001c0 11 e0 ea d2 dc e5 ea bf bf 2a 1e f7 0c 8e e3 bf
       -0.8405593986017285 -0.6110901667137439
0001d0 40 3c 13 5b ad be fb bf 97 6b 18 ec 3a 9c e8 bf
       -1.7340520436880666 -0.7690710650671119
0001e0 08 b6 e3 56 41 d0 dc bf 02 89 ad 88 b4 b8 f9 bf
       -0.450210890629791 -1.607594045541703
0001f0 47 44 0e 5d 2e f7 e4 bf 60 e9 69 3f 59 f3 29 3f
       -0.6551734750265802 0.0001979872174223225
000200 9c f7 a8 ce cc f6 81 bf 8b 93 54 2e e4 d1 40 3f
       -0.008771514946712071 0.000513302246564083
000210 d1 a3 09 4c 72 eb 78 3f 6c 2c 2d ae d9 0e 93 bf
       0.006083914253943016 -0.018611336952102084
000220 85 be 89 51 79 ec 81 3f 8c 79 00 62 13 fd 82 bf
       0.00875181942066595 -0.009271766117362266
000230 a0 e4 b7 b4 c4 56 80 bf ab d5 72 30 be e2 32 bf
       -0.007977997555814575 -0.0002881731347302528
000240 ed ae 38 83 4e 77 82 3f 60 87 57 e6 55 47 25 3f
       0.009016621951637183 0.00016234325009550476
000250 d1 d4 9e 2c c8 b9 78 3f d4 19 eb cd 5e f4 89 3f
       0.006036550455907634 0.012673130663995481
000260 06 aa 8e 1c 53 dc 64 bf 4f 43 a1 49 6e f6 41 bf
       -0.002546465232133646 -0.0005481756700281645
000270 6f f7 47 3b a7 24 4c bf f5 65 48 1d 30 a6 62 bf
       -0.0008588615951905363 -0.0022765102132893352
000280 05 3c c6 98 38 07 76 3f 76 8d a6 96 a8 5f 80 bf
       0.005377980309630996 -0.007994954202166876
000290 ad 85 23 d9 2c ba 73 3f 8e ef d1 c8 43 bf 6e bf
       0.004816222370409501 -0.0037533115306000514
0002a0 a8 eb 44 5f a4 d7 8a bf 2f ea f8 4e 1f 19 7e bf
       -0.013106617123971834 -0.0073481772411079635
0002b0 0f 0b 63 8b ba be 51 3f 6e cd 69 13 3e f7 8b 3f
       0.001083070919364718 0.013655171363302823
0002c0 3b 3c 65 80 7a 4e 94 bf c1 7d e4 6c 16 55 84 bf
       -0.019830621801983233 -0.009927916715752329
0002d0 51 4f f3 e4 95 91 a0 bf b7 14 65 c9 5b e9 51 bf
       -0.032360729406404894 -0.0010932346682051405
0002e0 6a 3d 11 91 ab 9f 91 3f 29 ba 88 28 a5 3e 8b bf
       0.017210655907829255 -0.013303079890730167
0002f0 ce d7 26 99 a7 80 3f bf 6f 70 d4 58 06 60 7e bf
       -0.0004806908774769276 -0.007415795128761101
000300 41 1f 2c 37 11 fe 77 bf 2a 1d 29 0f 83 28 30 3f
       -0.005857531784165649 0.0002465553253938208
000310 01 0d da 8d 1f 3d 64 3f 1a 46 bc 04 db 7c 88 bf
       0.0024705520907574168 -0.011956893045439055
000320 5c 1d 8c bc dc cc 8d bf 26 39 a1 0a 07 dc 58 bf
       -0.014550899986274395 -0.0015173023953312741
000330 e6 ac cc de 28 d0 86 bf d6 bd 4a 6f 07 ec 8c bf
       -0.011139220523168136 -0.01412206467043024
000340 44 f7 fc 34 e0 78 90 3f 56 15 7e e5 b7 01 76 bf
       0.01608610461629857 -0.00537273249199662
000350 6e 92 93 c9 b2 88 80 bf 6b fa 9e 7c 34 74 78 3f
       -0.008073231484055667 0.0059701967492729975
000360 a4 74 02 1c b8 84 77 3f 24 72 b3 6d 82 34 8e bf
       0.005741805245773755 -0.014748591397102002
000370 12 7e eb 57 ec 01 71 bf 3a fd fb 95 95 da 6e bf
       -0.004152224747229665 -0.003766338500895164
000380 23 d7 23 ab 84 ba 43 bf fb 39 12 70 46 b4 35 3f
       -0.0006020686908232191 0.00033117980644528617
000390 8e d6 af 38 c7 c2 90 bf 3d c2 57 7b af a2 7a 3f
       -0.016368019900218793 0.006502805209934123
0003a0 1f 3d 11 1e a3 4d 70 bf 6d 85 70 6d 26 c7 7c 3f
       -0.003980290582219297 0.007025861842551035
0003b0 61 8f a4 33 80 52 8f 3f d8 04 43 12 e1 24 75 bf
       0.015294076515210699 -0.005162123856451838
0003c0 3f ab 72 6c 35 20 92 bf 97 4b 4a 4d 17 07 7c bf
       -0.01770099138654335 -0.006842700026612378
0003d0 8c 3a fa 4e e2 59 83 3f 4f b2 54 60 fd f2 9e bf
       0.009448783908081702 -0.0302238073392565
0003e0 e1 cc 06 8e a7 0e 90 bf 98 5a f3 77 96 24 6f 3f
       -0.015680902522672183 0.0038016260947231865
0003f0 fa bf f0 4d 03 0a 75 bf fa 84 a5 9a 29 9b 9a bf
       -0.005136502178217478 -0.025982523025395367
000400 ef f8 10 fc 32 0c 7d bf 98 ec 0c 93 cf 26 e0 3f
       -0.007091712149359205 0.5047376510696209
000410 84 22 90 09 3b 40 e4 bf 55 34 21 32 63 64 b2 bf
       -0.6328406512048592 -0.07184429143781419
000420 f1 1b be 2b 90 33 e3 3f a2 89 20 9c f4 6e f6 bf
       0.6000443319652488 -1.4020887469019745
000430 ac fc 55 04 3a c3 d0 bf fa 28 98 41 3d 83 db 3f
       -0.26191568778444707 0.42988521009159764
000440 40 82 ba 18 0d f9 fd bf 4e 6f 58 ed 50 92 d8 bf
       -1.8733035055121405 -0.3839304273440022
000450 34 20 80 5d c5 87 bd 3f 7c 4a b5 1e 5a a7 01 c0
       0.11535295040823784 -2.2067148589206322
000460 ea 92 24 47 6a 16 e1 bf 8a 0c 4b a1 9c dc e4 3f
       -0.5339862241276851 0.6519301557786019
000470 10 f0 25 96 cd c8 ee bf b2 4d 6f 21 2e a0 e8 bf
       -0.9620120937902374 -0.7695532467864068
000480 32 ef 0c 4d 18 46 ef 3f 39 da ff 51 5c cc fa bf
       0.9773065094845832 -1.6748927310087665
000490 21 f4 8a 3b a4 74 f0 bf d8 28 5d 62 94 7b ec 3f
       -1.0284769369020597 0.8900854035539636
0004a0 e6 a1 03 d4 fc 1f 03 c0 19 76 2d c8 23 88 f2 bf
       -2.3906189502342725 -1.1582372493206832
0004b0 04 17 d8 db 9b 67 e9 3f fc 0e f7 0c 4f bb 06 c0
       0.7938975614385702 -2.841459370889309
0004c0 2d e5 c4 64 1f 16 f3 bf fd 90 bd e3 3e f3 c7 3f
       -1.192901033048041 0.18711076851025857
0004d0 5c 35 b2 92 a9 5b e6 bf 66 08 73 44 4f ae e7 bf
       -0.6986892571600651 -0.740028032007342
0004e0 7f 18 1c 4a 01 46 c1 3f bc 94 f9 23 86 b3 fa bf
       0.13494888418808057 -1.6688290982504403
0004f0 30 15 63 86 09 e6 f0 bf 50 3e e2 89 5a ee b6 bf
       -1.0561614274495916 -0.08957448831847015
000500 f6 da 59 25 a5 de 03 c0 f2 d4 77 59 30 b8 f0 bf
       -2.48371342831103 -1.0449679846618065
000510 14 72 c4 fb 8c cf ce bf 66 94 5f a4 2e 52 07 c0
       -0.24070894521072772 -2.915128025214062
000520 30 e6 ea 45 51 c4 f1 bf 36 21 cd 22 c3 b8 d0 bf
       -1.1104290705828923 -0.26127699278414995
000530 56 fc 04 1b 67 5a e3 bf ed 7f e3 44 61 2f e8 bf
       -0.6047854926799896 -0.7557836862069941
000540 cf 2e 4b 64 35 1b d8 bf bf c1 7d 22 4c 8e fa bf
       -0.37666067880921345 -1.6597405764879196
000550 22 61 30 0c ed 7c ee bf 0f 8e a2 f3 79 22 d8 bf
       -0.9527497518602426 -0.37710427086332826
000560 bc fe 11 21 97 f2 ff bf 8d c0 e7 e8 09 2b ec bf
       -1.9967261592682197 -0.8802537487918173
000570 97 65 69 6d ca 54 d3 bf 7e 66 f8 dd 56 a9 fe bf
       -0.3020502155755706 -1.9163426085200679
000580 a5 c7 6a d7 f8 f7 e8 bf f0 0c ce a6 ff 84 e8 bf
       -0.7802700240483672 -0.7662351854236515
000590 31 8b 86 3e 6a 78 e2 bf 5c 4a fb 82 63 d3 ea bf
       -0.5771990987017032 -0.8383042867884103
0005a0 c6 63 cc dc 04 0a eb bf 8e ba 86 a5 b7 98 f8 bf
       -0.8449730217426967 -1.5372845140333626
0005b0 7f 2e 0e 2d 2e 28 ee bf 2a 6e d7 3f 58 d1 e9 bf
       -0.942404830931494 -0.8068047758965282
0005c0 50 7c 13 6e ef 97 fd bf 66 e4 cd b1 e6 2c eb bf
       -1.8495935726021067 -0.8492310974826409
0005d0 ee ed 87 99 6c c9 e3 bf 0e 91 4d 86 2d 7c fb bf
       -0.6183379171993104 -1.7178168531618812
0005e0 4c 72 d0 ae 9a 3a e8 bf 89 b7 13 19 a1 9e 93 3f
       -0.7571538366642669 0.019159810214595594
0005f0 36 a2 a1 34 ed b2 89 bf 31 e5 21 3f 54 4c 67 bf
       -0.012548306626016897 -0.0028440137330646644
000600 6f f0 2a 62 79 73 6f 3f 41 df 63 37 d7 9b 94 bf
       0.003839242055020668 -0.020125735049958186
000610 fd 7e 33 00 9a 07 5b 3f c3 3a 4b 21 48 04 75 bf
       0.0016497615732120046 -0.005131036527656621
000620 8e 8b 29 3e 83 db 80 bf 3b c8 09 6d 57 15 8f 3f
       -0.008231187185804758 0.015177424445230616
000630 84 59 04 35 0a fe 7c bf da 13 e4 d3 4d 2b 98 bf
       -0.007078208800768929 -0.023602691705509084
000640 6c 6c db 81 43 50 a0 bf 27 24 b2 19 74 8d 8b bf
       -0.03186236343545876 -0.013453394922423879
000650 f7 cc a6 ab 60 04 7c bf 77 0b 03 ff 94 1c 4d bf
       -0.0068401123229933 -0.0008884170074668758
000660 55 15 6f ee 39 16 91 bf 80 fb 93 82 d3 91 a0 bf
       -0.01668634908471252 -0.032362565698341506
000670 25 e7 ef 5e 43 dd 88 bf 59 dd 4a 21 a6 98 78 3f
       -0.012140775999785422 0.006004952378752059
000680 19 62 4d 68 cd cc a2 bf f5 65 9f 6a 54 63 8c bf
       -0.03671876810284775 -0.013861331466546093
000690 32 a0 c9 db dc e7 86 bf 3e 1f 92 0c 53 a6 71 bf
       -0.011184430558572076 -0.004309009943547269
0006a0 c0 2d d6 6c fa 05 91 3f ba fe 66 63 1b 57 7a bf
       0.016624367611752566 -0.006430727944859599
0006b0 33 bb 12 39 16 d3 96 bf e7 a0 aa 98 8e bc 6d bf
       -0.022289607270688804 -0.00362995005464849
0006c0 cf 09 6d 89 6e bc 8c bf f9 23 8e cc 31 d6 89 bf
       -0.014031280106455405 -0.012615574889212043
0006d0 66 a8 cc 1b c0 f7 78 3f 37 15 90 e2 db aa 85 3f
       0.006095648216424809 0.01057979378857486
0006e0 12 32 d9 5a 52 5b 91 bf a5 b5 ff 09 89 ff 94 bf
       -0.01694992713446381 -0.0205060398438285
0006f0 26 d8 94 91 0e 7e 71 bf 7a 60 3e 2d 92 3a 9b bf
       -0.004270607861419895 -0.02659061814446815
000700 7b 66 7e 91 b1 91 46 bf 08 5b 19 5a a3 61 a0 bf
       -0.0006887547524343085 -0.031994919536989797
000710 7e ad 29 9f 3b 56 a3 bf c8 8b c9 77 21 cf 9b 3f
       -0.03776727979569737 0.02715732854484168
000720 b4 99 09 b6 75 2f 96 bf 51 ba d8 be b7 71 9a bf
       -0.02166541980332122 -0.02582442381224787
000730 60 22 db d6 40 93 85 bf fb 63 ab e2 ce 5d 8a bf
       -0.010534769589314041 -0.012874237339405062
000740 e4 af c6 44 69 8f a1 bf 55 69 2b 89 05 97 82 3f
       -0.03429726566841376 0.009077113388617756
000750 84 6b d6 b1 95 2d 7c bf 38 fe b1 c6 5e da 97 bf
       -0.006879410500370112 -0.023293953778646265
000760 74 b9 ea fe e3 2d 8e bf 71 c8 ec f8 92 7e 8c 3f
       -0.014735966889330078 0.013913295957170587
000770 b3 a8 81 53 4d b7 79 bf 03 dc 4b eb aa 7e 93 3f
       -0.006278326087434549 0.019037886248920454
000780 12 99 9a 8a dc 80 9e bf d0 de f6 51 ca ae 93 bf
       -0.029788442573271352 -0.019221459629732263
000790 67 40 2c 58 99 5e 5f 3f a3 bb 02 b9 d6 f5 50 bf
       0.0019146440033104507 -0.0010351750279757675
0007a0 0a 1f d1 b8 5e 5d 8c 3f eb 4c 19 77 1b fd 82 3f
       0.01384996415630681 0.009271826336009833
0007b0 41 37 82 d8 ed eb 4e bf 44 ec 00 39 a7 70 92 bf
       -0.0009436522823464759 -0.01800786290571589
0007c0 2f 29 a5 2d a3 9d 2d bf e9 4a bc 4d 5f 0b 79 bf
       -0.0002259504024755914 -0.006114361076259491
0007d0 56 2e db ec 00 79 a5 bf 06 65 b6 37 65 3d 70 3f
       -0.04193880931196918 0.003964801198344197
0007e0 1b 0d 42 c2 2c d3 a0 3f 52 2e 06 d8 70 e8 92 3f
       0.03286113616288785 0.01846481626993885
0007f0 9e 21 8e 4b 47 dd 9b bf c0 9e a3 f1 81 20 e0 3f
       -0.027211297976039377 0.5039682120813822
