backend/FastApi/sign_language_data/w/w_9_aug2.npy (npy, 30368 bytes, 1 tensors)

array f8 [30, 126]
0	0x3f8b4e2f5d9b8106	0.01333271984498242
1	0xbf71c187c4b946a8	-0.004334955544963805
2	0x3faacafb8144cc89	0.052329883127094474
3	0x3fd655e0f673d356	0.34899162356969293
4	0xbfe454abec40e46a	-0.6353358854604612
5	0xbfb2ac55e0915031	-0.07294213039978172
6	0x3fdce30bd87d9208	0.4513578046956188
7	0xbff3d405dba84bc9	-1.239263399159187
8	0xbfccf673159776e1	-0.22627104334144746
9	0x3fb7b3a20e3e208e	0.09258473251077445
10	0xbffc85c407dfe8d9	-1.7826576526263607
11	0xbfd7a6b090c5629f	-0.36954893243595593
12	0xbfc6e037102266eb	-0.1787175015240828
13	0xbfff80472499f830	-1.9688178472274664
14	0xbfe0ab663f6d3b24	-0.5209227789690414
15	0x3fdf894076270d9e	0.492752185233451
16	0xbfee90ce9001b23c	-0.955176621687833
17	0xbfe6fb0477236cc9	-0.718141777698656
18	0x3fe7dad40c99093b	0.7454624410677647
19	0xbff9c3dc99bc137d	-1.6103178029308929
20	0xbfee2d843a84df85	-0.9430562155675807
21	0x3fe4b3aae3f8e887	0.6469320728858897
22	0xc0023a0257920fa7	-2.2783247796487163
23	0xbff0528cc1c602db	-1.020153767516766
24	0x3fe2c270cece0735	0.5862354315906716
25	0xc0052dae17fca622	-2.6473047136285155
26	0xbff18b36252a1d6f	-1.0964871837366805
27	0x3fbecb68372860e7	0.1202912459051536
28	0xbfe63ca3fa0300ec	-0.6949024088899285
29	0xbfe8660c130e9912	-0.7624569294173702
30	0x3fa2a2c3815d9e8c	0.036398038427077756
31	0xbff831c658726a3e	-1.5121520476301522
32	0xbfefeaadf47194a3	-0.9973974012651933
33	0xbfccf40c34e11e89	-0.22619774419785113
34	0xc0027369e24b8f98	-2.306354301386772
35	0xbfef7034e2d955a3	-0.982447093071347
36	0xbfd878a72990d4e5	-0.3823640733638299
37	0xc0057d088f13c601	-2.686051481047571
38	0xbfef9fc7ca864a5e	-0.9882544475133945
39	0xbfd30109775b7dd0	-0.29693829208369227
40	0xbfe0d7f78b0ed95e	-0.5263631549812933
41	0xbfe7ea7bd5cd5bed	-0.7473735023330598
42	0xbfda8cf289506bf2	-0.4148527470549076
43	0xbff81e48a80ae1a5	-1.507393509307897
44	0xbfedee80a67b4a1e	-0.9353640796273941
45	0xbfdb3502d9d3f14a	-0.42511054298644935
46	0xbffcb112ebb02d76	-1.7932309347696367
47	0xbfeade1ff2059427	-0.8396148421276209
48	0xbfd83bb6aedd8194	-0.3786446292561092
49	0xbffabf00d4b68f66	-1.671631651793143
50	0xbfe6f080ee336bdd	-0.716858353839935
51	0xbfe704dd33dabd37	-0.7193437588484021
52	0xbfddb234f2b532d4	-0.4640018816178728
53	0xbfe8a1734df786da	-0.7697083018103641
54	0xbfec6a045f147ebe	-0.8879415375740434
55	0xbff5faa4b34ce408	-1.3736922267837617
56	0xbfec13e4f25a541c	-0.8774285062269231
57	0xbfea579c402432a0	-0.8231946232568426
58	0xbffa9559ec2e7bc1	-1.6614627099840933
59	0xbfea34b771ee1893	-0.8189351296612294
60	0xbfe5a54263cbc34e	-0.6764232586993815
61	0xbff960852bdce6cd	-1.5860645020861057
62	0xbfe7bab9e52e93aa	-0.7415437198838977
63	0x3f9ddb74b808daea	0.029157470448093394
64	0x3fa4f810b11d474d	0.040955087299734495
65	0x3f929d6788912e2b	0.018178575239558164
66	0x3f9307b5c9e76a71	0.018584099243393163
67	0x3fa212fe4a5091ac	0.03530115754282134
68	0x3f94a69977614c98	0.020166776572591333
69	0x3f96b8523a72a007	0.02218750459419996
70	0x3fa40f86c95fc2a3	0.03918095787219513
71	0x3f9057b5abb713f7	0.015959585767422593
72	0x3f8cd3e6ec50c97c	0.014076046072749142
73	0x3f97c9c0a510e2b6	0.023230562281443233
74	0x3f8923ee07b95afc	0.012275561915129789
75	0x3f933b14dbf3f5c9	0.018780065464843596
76	0x3f9a9e375037fc78	0.025994171401177074
77	0x3f94a38fc2fb21ba	0.02015518786973456
78	0x3f905f423966a175	0.01598838305804536
79	0x3fa2f27053206237	0.03700591101386801
80	0x3f9a8b8fce542fec	0.025923010795892695
81	0x3f872297b3cae807	0.011296448873839194
82	0x3fa06b8870a189fd	0.03207041144266396
83	0x3f8d48fd2e39795e	0.01429937169376377
84	0x3f8e194465feef6a	0.014696630823770557
85	0x3fa514ee506aa7cb	0.0411753152050803
86	0x3f8d920d1ced5ef6	0.01443872684983159
87	0x3f8d0fa4be7cce09	0.014189993918626536
88	0x3f9c75d92daaf110	0.027793305790269562
89	0x3f96c3ffbcac2c2e	0.02223205174508907
90	0x3fa022b71e6378fb	0.031514856776753995
91	0x3f993a873d1a716f	0.0246373301548472
92	0x3f9585da75d19e88	0.021018422547426613
93	0x3f921ec474acc1f1	0.017695493336931937
94	0x3f9ce9a69b75c783	0.028235057104616167
95	0x3f8d0b58df38a8d1	0.014181799232649091
96	0x3f95d12347b38e9f	0.021305609942727895
97	0x3fa0db5b3952ab6b	0.03292355608694816
98	0x3f7f60b0dd549956	0.007660570981249689
99	0x3f756e639da21440	0.005232228397408056
100	0x3fa01428e257b13c	0.03140380633326109
101	0x3f8b4c56a59f3fa6	0.013329197816261584
102	0x3f8582945e678e0f	0.010502967005726864
103	0x3f968fa362d6c54c	0.022032311351442943
104	0x3f8fc675daf887a8	0.015515251870116334
105	0x3f9e185caf7ae1b2	0.02938980885548554
106	0x3f969193af9fb524	0.02203970679686508
107	0x3fa1a52138c82db1	0.0344629651845837
108	0x3f38a0398da2caa9	0.0003757610808278558
109	0x3f95da9aa7ff37a5	0.021341721061439185
110	0x3f972b142d7d81dc	0.02262527015352754
111	0x3f73b4e737e50a0d	0.004811194607386782
112	0x3f910aae25010a6a	0.016642304428624057
113	0x3f94433ec36ec9cf	0.019787769964475118
114	0x3f6e0b2b77fb0d90	0.003667435550455962
115	0x3fae00799de32a26	0.05859737446151696
116	0x3f96bc100c65120f	0.022201777225989313
117	0x3f9bc9a13236c1b5	0.027136343660176105
118	0x3f9e11a842381b2e	0.029364232103058878
119	0x3f85484974a2cf2a	0.010391782638499675
120	0x3fa2c5a49b34bb15	0.0366641463718819
121	0x3fa15b484ae7f8f0	0.03389955438977832
122	0x3f847787af2bdb4d	0.009993610413841525
123	0x3fa5e89a3d096d86	0.042790241194519615
124	0x3fa9ecd6ec1723b1	0.05063506729090451
125	0xbf6d15b291a4053b	-0.003550385253334424
126	0xbf9de71b28be8271	-0.0292019122713349
127	0x3fa03430944a601f	0.03164817629038929
128	0xbf93e83c7c172a03	-0.019440598558313493
129	0x3fdcf3ef1fcee43e	0.45238855463282224
130	0xbfe4ac804df0eddf	-0.646057274082917
131	0xbfa65c49ccd935b7	-0.043672853713910546
132	0x3fe075de5c5ffe8e	0.5143882564734257
133	0xbff6a2d7ead25728	-1.4147566960068136
134	0xbfc994b005d36534	-0.19985008511029323
135	0x3fd2b9fbf787ec6c	0.2926015775007673
136	0xbffdd5609003b308	-1.8645940423550105
137	0xbfd234f58a42c469	-0.28448236944229294
138	0x3fa11788593697ee	0.03338266457585336
139	0xc001aed5c4670ea9	-2.2103686660719473
140	0xbfdb0d42d8cbea7d	-0.4226843945649888
141	0x3fe3c995a3105254	0.6183574852789868
142	0xbff144211fd55f58	-1.0791331523414183
143	0xbfe37fcec01432d9	-0.6093515159169228
144	0x3febefea29482bd5	0.8730364614760854
145	0xbffb87d5acf21e98	-1.7206627612776284
146	0xbfeac96745e770c2	-0.8370853772462612
147	0x3fe95d21630758f8	0.7926184591440508
148	0xc002feb2cda357e6	-2.3743644776795803
149	0xbfee5cc10b7fabe4	-0.9488225197395619
150	0x3fe79270d9e5bdbd	0.7366260772523031
151	0xc006ac601713e91b	-2.8341676524115775
152	0xbfee236ea01f14e8	-0.9418252112742751
153	0x3fca24e9babad07e	0.20425149552977823
154	0xbfe9a8a11103d1e0	-0.8018346149752311
155	0xbfe4819d54c7aca4	-0.6408220916613527
156	0x3fb6139a4cd08c75	0.08623661399228573
157	0xbff9e849d8d4da93	-1.6192110509852327
158	0xbfe9f7ce04db4aff	-0.8114996046882367
159	0xbfc3047d335af67c	-0.14857449538787992
160	0xc003b094ce293cc9	-2.4612213236174267
161	0xbfee84c1741e54e0	-0.9537055271090615
162	0xbfd4306191ea288e	-0.31545294999580953
163	0xc006c8b6ea7509e9	-2.8480051342933064
164	0xbfef7bde4fac47a7	-0.9838706546890891
165	0xbfd0b2c818bbf747	-0.26091196456387816
166	0xbfe3e0d6903de5d8	-0.6211960618231229
167	0xbfe62ca2645e34cc	-0.6929485283195844
168	0xbfdbc1d130975af7	-0.4337046598933933
169	0xbff9334fb7cf6846	-1.5750271968922944
170	0xbfeb7bcce2de5134	-0.8588623457931477
171	0xbfd9af0ba4eac28b	-0.401308928539074
172	0xbffe7372f863eba6	-1.903185816073099
173	0xbfe9272a51f94c70	-0.7860309220362875
174	0xbfd6c7a6209889c2	-0.3559356039351337
175	0xbffc4fcbbb001207	-1.769481401891541
176	0xbfe79417dd4f8f91	-0.7368277857280977
177	0xbfe656df82f6c020	-0.6981046255004948
178	0xbfe06af5c675401c	-0.5130566478856085
179	0xbfe56aff2d96d098	-0.6693111315166957
180	0xbfee4caab9bd5e21	-0.9468587520340784
181	0xbff70208cb42dee7	-1.4379966678515588
182	0xbfeae4d75f628f98	-0.8404347289074279
183	0xbfe9eef314276a88	-0.8104186433441365
184	0xbffbe5c1a4ae1521	-1.7435928757489096
185	0xbfe9632d69004fb4	-0.7933566141896251
186	0xbfe5b2588dfb76cc	-0.6780207417575297
187	0xbffa526de4a37eae	-1.6451243334958394
188	0xbfe8c5c2645cf73d	-0.7741405449121214
189	0xbf788f4e88c98568	-0.005996042990404994
190	0x3f8ac20165c71efb	0.013065348547470537
191	0x3f7393b9e0d6aaf9	0.0047795544500484006
192	0xbf9930039e3426ec	-0.024597221880902007
193	0x3f934ea12e767fd1	0.01885463567816698
194	0x3f894de31e8e8cb6	0.012355589265842997
195	0xbf8da3179aa6ace5	-0.014471229941440853
196	0x3f77267bf5368cf5	0.005651935778050223
197	0xbf1933f44b016bb9	-9.614161058506169e-05
198	0x3f50fc3a9dd64312	0.0010366985728504402
199	0x3f8b997fde54d17b	0.013476370785249206
200	0x3f914985828beae2	0.016882024853638884
201	0xbf7502f30ed9791f	-0.005129765935264068
202	0x3f70f58c4c33b219	0.004140422857045433
203	0x3f1150aa196e6540	6.60518474958809e-05
204	0xbf82913ec2a82283	-0.009066095653012645
205	0x3f9418ac3dbd6b8a	0.019625369327836796
206	0x3f60ba853b7e8ce2	0.0020420648761089047
207	0xbf82855b7fb72117	-0.009043421588004237
208	0x3fa59d0de6383cc3	0.042213854172695096
209	0xbf73598ca5792cef	-0.0047240728377559845
210	0xbf9c48c756fefcbe	-0.027621378598038808
211	0x3f88578979027825	0.01188571358244068
212	0x3f95fa3ddc83256f	0.021462408622743675
213	0xbf8c11b86daf4f57	-0.013705674025835597
214	0x3f75ee217509736b	0.005354052249995837
215	0x3f7896cd77c34594	0.0060031915747499505
216	0xbf1dcba117138385	-0.00011366053310580937
217	0x3f9279103563a0cf	0.018039944895378576
218	0xbf8b390a1cd9c892	-0.01329238796754265
219	0xbf8de0854a56220d	-0.014588395434445034
220	0x3f8c561b6551e020	0.013836111096893033
221	0x3f8b4fdce20818b6	0.013335919998109663
222	0xbf714339332f807c	-0.004214499890594078
223	0x3f8771c1547a7cde	0.011447439566210024
224	0xbf6153cda82f0da7	-0.002115155862584667
225	0xbf5f3186f1c34e6d	-0.0019038980308793377
226	0x3f95d169c89d0e56	0.02130666052768356
227	0x3f9181f74095073e	0.017097342793255914
228	0xbf98c44fb4009a0b	-0.024186368333312596
229	0x3f7cc3a562083c09	0.007022520091154235
230	0x3f94ed1b9347502c	0.02043574415604625
231	0xbf7c66607b4c8813	-0.006933571702377977
232	0x3f8c5d273613f4c9	0.013849550569370444
233	0x3f8496003ada007c	0.010051729007727987
234	0x3f75f15d861b0cf8	0.005357137038745956
235	0x3f9e11378ed631c5	0.029362552731571307
236	0x3f96d115ad8d8b88	0.02228196975500965
237	0x3f849940efec4166	0.010057933160653131
238	0x3f8e82dc9ac28c60	0.014898036454104424
239	0x3f86c9cd19044e4a	0.011127092672302958
240	0x3f7975c96490f9e3	0.006215845766801983
241	0x3f8722cecc1fde14	0.011296859363922919
242	0x3f90e6d029e23269	0.01650548225056739
243	0x3f6f3d9d22a3e514	0.00381355944147955
244	0x3f9ad783199c8500	0.026212738455005713
245	0xbf7c4e81cddd7976	-0.006910807654860176
246	0xbf852a348e72200f	-0.010334406468487626
247	0x3f860c5e3cfa8bb5	0.01076577781288344
248	0x3f8823ddf10612b0	0.011787160795173918
249	0xbf83926daf32358a	-0.009556633862554138
250	0x3f8434bdb3a20b6a	0.009866220516647057
251	0x3f6942b538f0e4d3	0.0030835666180136583
252	0x3f931330154a4807	0.018627883243034684
253	0x3fa1352321e77089	0.03360852993839198
254	0xbf9672318222871a	-0.021919988220026367
255	0x3fde09bd93365c45	0.46934451461988075
